…
  top: "left_eye"
  top: "right_eye"
  top: "nose"
  top: "left_mouth"
  top: "center_mouth"
  top: "right_mouth"
  top: "eye_visibility_left"
  top: "eye_visibility_right"
  top: "nose_visibility"
  top: "mouth_visibility_left"
  top: "mouth_visibility_center"
  top: "mouth_visibility_right"
  include {
    phase: TRAIN
  }
  hdf5_data_param {
    source: "/home/wzleong/Downloads/nottingham_with_scaling_eye_nose_mouth/hdf5_complete/train_scaled_mean_subtracted_own_data_multiple_label_complete_data_list.txt"
    batch_size: 128
    shuffle: true
  }
}
layer {
  name: "conv1"
  type: "Convolution"
  bottom: "data"
  top: "conv1"
  param {
    lr_mult: 0
    decay_mult: 0
  }
  param {
    lr_mult: 0
    decay_mult: 0
  }
  convolution_param {
    num_output: 32
    pad: 0
    kernel_size: 13
    stride: 2
  }
}
layer {
  name: "relu1"
  type: "ReLU"
  bottom: "conv1"
  top: "conv1"
}
layer {
  name: "pool1"
  type: "Pooling"
  bottom: "conv1"
  top: "pool1"
  pooling_param {
    pool: MAX
    kernel_size: 2
    stride: 2
  }
}
layer {
  name: "conv2_1"
  type: "Convolution"
  bottom: "pool1"
  top: "conv2_1"
  param {
    lr_mult: 0
    decay_mult: 0
  }
  param {
    lr_mult: 0
    decay_mult: 0
  }
  convolution_param {
    num_output: 32
    pad: 0
    kernel_size: 3
    stride: 1
  }
}
layer {
  name: "relu2_1"
  type: "ReLU"
  bottom: "conv2_1"
  top: "conv2_1"
}
layer {
  name: "conv2_2"
  type: "Convolution"
  bottom: "conv2_1"
  top: "conv2_2"
  param {
    lr_mult: 0
    decay_mult: 0
  }
  param {
    lr_mult: 0
    decay_mult: 0
  }
  convolution_param {
    num_output: 32
    pad: 0
    kernel_size: 3
    stride: 1
  }
}
layer {
  name: "relu2_2"
  type: "ReLU"
  bottom: "conv2_2"
  top: "conv2_2"
}
layer {
  name: "conv2_3"
  type: "Convolution"
  bottom: "conv2_2"
  top: "conv2_3"
  param {
    lr_mult: 0
    decay_mult: 0
  }
  param {
    lr_mult: 0
    decay_mult: 0
  }
  convolution_param {
    num_output: 32
    pad: 0
    kernel_size: 3
    stride: 1
  }
}
layer {
  name: "relu2_3"
  type: "ReLU"
  bottom: "conv2_3"
  top: "conv2_3"
}
layer {
  name: "conv2_4"
  type: "Convolution"
  bottom: "conv2_3"
  top: "conv2_4"
  param {
    lr_mult: 0
    decay_mult: 0
  }
  param {
    lr_mult: 0
    decay_mult: 0
  }
  convolution_param {
    num_output: 32
    pad: 0
    kernel_size: 3
    stride: 1
  }
}
layer {
  name: "relu2_4"
  type: "ReLU"
  bottom: "conv2_4"
  top: "conv2_4"
}
layer {
  name: "conv2_sub"
  type: "Convolution"
  bottom: "pool1"
  top: "conv2_sub"
  param {
    lr_mult: 0
    decay_mult: 0
  }
  param {
    lr_mult: 0
    decay_mult: 0
  }
  convolution_param {
    num_output: 32
    pad: 0
    kernel_size: 3
    stride: 1
    dilation: 4
  }
}
layer {
  name: "relu2_sub"
  type: "ReLU"
  bottom: "conv2_sub"
  top: "conv2_sub"
}
layer {
  name: "concat_conv2"
  type: "Concat"
  bottom: "conv2_sub"
  bottom: "conv2_4"
  top: "concat_conv2"
  concat_param {
    axis: 1
  }
}
layer {
  name: "pool2"
  type: "Pooling"
  bottom: "concat_conv2"
  top: "pool2"
  pooling_param {
    pool: MAX
    kernel_size: 2
    stride: 2
  }
}
layer {
  name: "conv3_1"
  type: "Convolution"
  bottom: "pool2"
  top: "conv3_1"
  param {
    lr_mult: 0
    decay_mult: 0
  }
  param {
    lr_mult: 0
    decay_mult: 0
  }
  convolution_param {
    num_output: 32
    pad: 0
    kernel_size: 3
    stride: 1
  }
}
layer {
  name: "relu3_1"
  type: "ReLU"
  bottom: "conv3_1"
  top: "conv3_1"
}
layer {
  name: "conv3_2"
  type: "Convolution"
  bottom: "conv3_1"
  top: "conv3_2"
  param {
    lr_mult: 0
    decay_mult: 0
  }
  param {
    lr_mult: 0
    decay_mult: 0
  }
  convolution_param {
    num_output: 64
    pad: 0
    kernel_size: 3
    stride: 1
  }
}
layer {
  name: "relu3_2"
  type: "ReLU"
  bottom: "conv3_2"
  top: "conv3_2"
}
layer {
  name: "conv3_sub"
  type: "Convolution"
  bottom: "pool2"
  top: "conv3_sub"
  param {
    lr_mult: 0
    decay_mult: 0
  }
  param {
    lr_mult: 0
    decay_mult: 0
  }
  convolution_param {
    num_output: 64
    pad: 0
    kernel_size: 3
    stride: 1
    dilation: 2
  }
}
layer {
  name: "relu3_sub"
  type: "ReLU"
  bottom: "conv3_sub"
  top: "conv3_sub"
}
layer {
  name: "concat_conv3"
  type: "Concat"
  bottom: "conv3_sub"
  bottom: "conv3_2"
  top: "concat_conv3"
  concat_param {
    axis: 1
  }
}
layer {
  name: "pool3"
  type: "Pooling"
  bottom: "concat_conv3"
  top: "pool3"
  pooling_param {
    pool: MAX
    kernel_size: 2
    stride: 2
  }
}
layer {
  name: "conv4_1"
  type: "Convolution"
  bottom: "pool3"
  top: "conv4_1"
  param {
    lr_mult: 0
    decay_mult: 0
  }
  param {
    lr_mult: 0
    decay_mult: 0
  }
  convolution_param {
    num_output: 64
    pad: 0
    kernel_size: 3
    stride: 1
  }
}
layer {
  name: "relu4_1"
  type: "ReLU"
  bottom: "conv4_1"
  top: "conv4_1"
}
layer {
  name: "conv4_2"
  type: "Convolution"
  bottom: "conv4_1"
  top: "conv4_2"
  param {
    lr_mult: 0
    decay_mult: 0
  }
  param {
    lr_mult: 0
    decay_mult: 0
  }
  convolution_param {
    num_output: 128
    pad: 0
    kernel_size: 3
    stride: 1
  }
}
layer {
  name: "relu4_2"
  type: "ReLU"
  bottom: "conv4_2"
  top: "conv4_2"
}
layer {
  name: "conv4_3"
  type: "Convolution"
  bottom: "conv4_2"
  top: "conv4_3"
  param {
    lr_mult: 0
    decay_mult: 0
  }
  param {
    lr_mult: 0
    decay_mult: 0
  }
  convolution_param {
    num_output: 128
    pad: 0
    kernel_size: 3
    stride: 1
  }
}
layer {
  name: "relu4_3"
  type: "ReLU"
  bottom: "conv4_3"
  top: "conv4_3"
}
layer {
  name: "conv5"
  type: "Convolution"
  bottom: "conv4_3"
  top: "conv5"
  param {
    lr_mult: 0
    decay_mult: 0
  }
  param {
    lr_mult: 0
    decay_mult: 0
  }
  convolution_param {
    num_output: 512
    pad: 0
    kernel_size: 1
    stride: 1
  }
}
layer {
  name: "relu5"
  type: "ReLU"
  bottom: "conv5"
  top: "conv5"
}
layer {
  name: "fc1_left_eye_confidence"
  type: "InnerProduct"
  bottom: "conv5"
  top: "fc1_left_eye_confidence"
  param {
    lr_mult: 1
    decay_mult: 1
  }
  param {
    lr_mult: 2
    decay_mult: 0
  }
  inner_product_param {
    num_output: 149
  }
}
layer {
  name: "relu_left_eye_confidence"
  type: "ReLU"
  bottom: "fc1_left_eye_confidence"
  top: "fc1_left_eye_confidence"
}
layer {
  name: "drop1_left_eye_confidence"
  type: "Dropout"
  bottom: "fc1_left_eye_confidence"
  top: "fc1_left_eye_confidence"
  dropout_param {
    dropout_ratio: 0.25
  }
}
layer {
  name: "fc2_left_eye_confidence"
  type: "InnerProduct"
  bottom: "fc1_left_eye_confidence"
  top: "fc2_left_eye_confidence"
  param {
    lr_mult: 1
    decay_mult: 1
  }
  param {
    lr_mult: 2
    decay_mult: 0
  }
  inner_product_param {
    num_output: 1
  }
}
layer {
  name: "loss_left_eye_confidence"
  type: "EuclideanLoss"
  bottom: "fc2_left_eye_confidence"
  bottom: "eye_visibility_left"
  top: "loss_left_eye_confidence"
}
layer {
  name: "fc1_right_eye_confidence"
  type: "InnerProduct"
  bottom: "conv5"
  top: "fc1_right_eye_confidence"
  param {
    lr_mult: 1
    decay_mult: 1
  }
  param {
    lr_mult: 2
    decay_mult: 0
  }
  inner_product_param {
    num_output: 159
  }
}
layer {
  name: "relu_right_eye_confidence"
  type: "ReLU"
  bottom: "fc1_right_eye_confidence"
  top: "fc1_right_eye_confidence"
}
layer {
  name: "drop1_right_eye_confidence"
  type: "Dropout"
  bottom: "fc1_right_eye_confidence"
  top: "fc1_right_eye_confidence"
  dropout_param {
    dropout_ratio: 0.25
  }
}
layer {
  name: "fc2_right_eye_confidence"
  type: "InnerProduct"
  bottom: "fc1_right_eye_confidence"
  top: "fc2_right_eye_confidence"
  param {
    lr_mult: 1
    decay_mult: 1
  }
  param {
    lr_mult: 2
    decay_mult: 0
  }
  inner_product_param {
    num_output: 1
  }
}
layer {
  name: "loss_right_eye_confidence"
  type: "EuclideanLoss"
  bottom: "fc2_right_eye_confidence"
  bottom: "eye_visibility_right"
  top: "loss_right_eye_confidence"
}
layer {
  name: "fc1_nose_confidence"
  type: "InnerProduct"
  bottom: "conv5"
  top: "fc1_nose_confidence"
  param {
    lr_mult: 1
    decay_mult: 1
  }
  param {
    lr_mult: 2
    decay_mult: 0
  }
  inner_product_param {
    num_output: 153
  }
}
layer {
  name: "relu_nose_confidence"
  type: "ReLU"
  bottom: "fc1_nose_confidence"
  top: "fc1_nose_confidence"
}
layer {
  name: "drop1_nose_confidence"
  type: "Dropout"
  bottom: "fc1_nose_confidence"
  top: "fc1_nose_confidence"
  dropout_param {
    dropout_ratio: 0.25
  }
}
layer {
  name: "fc2_nose_confidence"
  type: "InnerProduct"
  bottom: "fc1_nose_confidence"
  top: "fc2_nose_confidence"
  param {
    lr_mult: 1
    decay_mult: 1
  }
  param {
    lr_mult: 2
    decay_mult: 0
  }
  inner_product_param {
    num_output: 1
  }
}
layer {
  name: "loss_nose_confidence"
  type: "EuclideanLoss"
  bottom: "fc2_nose_confidence"
  bottom: "nose_visibility"
  top: "loss_nose_confidence"
}
layer {
  name: "fc1_left_mouth_confidence"
  type: "InnerProduct"
  bottom: "conv5"
  top: "fc1_left_mouth_confidence"
  param {
    lr_mult: 1
    decay_mult: 1
  }
  param {
    lr_mult: 2
    decay_mult: 0
  }
  inner_product_param {
    num_output: 156
  }
}
layer {
  name: "relu_left_mouth_confidence"
  type: "ReLU"
  bottom: "fc1_left_mouth_confidence"
  top: "fc1_left_mouth_confidence"
}
layer {
  name: "drop1_left_mouth_confidence"
  type: "Dropout"
  bottom: "fc1_left_mouth_confidence"
  top: "fc1_left_mouth_confidence"
  dropout_param {
    dropout_ratio: 0.25
  }
}
layer {
  name: "fc2_left_mouth_confidence"
  type: "InnerProduct"
  bottom: "fc1_left_mouth_confidence"
  top: "fc2_left_mouth_confidence"
  param {
    lr_mult: 1
    decay_mult: 1
  }
  param {
    lr_mult: 2
    decay_mult: 0
  }
  inner_product_param {
    num_output: 1
  }
}
layer {
  name: "loss_left_mouth_confidence"
  type: "EuclideanLoss"
  bottom: "fc2_left_mouth_confidence"
  bottom: "mouth_visibility_left"
  top: "loss_left_mouth_confidence"
}
layer {
  name: "fc1_center_mouth_confidence"
  type: "InnerProduct"
  bottom: "conv5"
  top: "fc1_center_mouth_confidence"
  param {
    lr_mult: 1
    decay_mult: 1
  }
  param {
    lr_mult: 2
    decay_mult: 0
  }
  inner_product_param {
    num_output: 156
  }
}
layer {
  name: "relu_center_mouth_confidence"
  type: "ReLU"
  bottom: "fc1_center_mouth_confidence"
  top: "fc1_center_mouth_confidence"
}
layer {
  name: "drop1_center_mouth_confidence"
  type: "Dropout"
  bottom: "fc1_center_mouth_confidence"
  top: "fc1_center_mouth_confidence"
  dropout_param {
    dropout_ratio: 0.25
  }
}
layer {
  name: "fc2_center_mouth_confidence"
  type: "InnerProduct"
  bottom: "fc1_center_mouth_confidence"
  top: "fc2_center_mouth_confidence"
  param {
    lr_mult: 1
    decay_mult: 1
  }
  param {
    lr_mult: 2
    decay_mult: 0
  }
  inner_product_param {
    num_output: 1
  }
}
layer {
  name: "loss_center_mouth_confidence"
  type: "EuclideanLoss"
  bottom: "fc2_center_mouth_confidence"
  bottom: "mouth_visibility_center"
  top: "loss_center_mouth_confidence"
}
layer {
  name: "fc1_right_mouth_confidence"
  type: "InnerProduct"
  bottom: "conv5"
  top: "fc1_right_mouth_confidence"
  param {
    lr_mult: 1
    decay_mult: 1
  }
  param {
    lr_mult: 2
    decay_mult: 0
  }
  inner_product_param {
    num_output: 151
  }
}
layer {
  name: "relu_right_mouth_confidence"
  type: "ReLU"
  bottom: "fc1_right_mouth_confidence"
  top: "fc1_right_mouth_confidence"
}
layer {
  name: "drop1_right_mouth_confidence"
  type: "Dropout"
  bottom: "fc1_right_mouth_confidence"
  top: "fc1_right_mouth_confidence"
  dropout_param {
    dropout_ratio: 0.25
  }
}
layer {
  name: "fc2_right_mouth_confidence"
  type: "InnerProduct"
  bottom: "fc1_right_mouth_confidence"
  top: "fc2_right_mouth_confidence"
  param {
    lr_mult: 1
    decay_mult: 1
  }
  param {
    lr_mult: 2
    decay_mult: 0
  }
  inner_product_param {
    num_output: 1
  }
}
layer {
  name: "loss_right_mouth_confidence"
  type: "EuclideanLoss"
  bottom: "fc2_right_mouth_confidence"
  bottom: "mouth_visibility_right"
  top: "loss_right_mouth_confidence"
}
layer {
  name: "fc1_left_eye_coordinate"
  type: "InnerProduct"
  bottom: "conv5"
  top: "fc1_left_eye_coordinate"
  param {
    lr_mult: 1
    decay_mult: 1
  }
  param {
    lr_mult: 2
    decay_mult: 0
  }
  inner_product_param {
    num_output: 340
  }
}
layer {
  name: "drop1_left_eye_coordinate"
  type: "Dropout"
  bottom: "fc1_left_eye_coordinate"
  top: "fc1_left_eye_coordinate"
  dropout_param {
    dropout_ratio: 0.25
  }
}
layer {
  name: "fc2_left_eye_coordinate"
  type: "InnerProduct"
  bottom: "fc1_left_eye_coordinate"
  top: "fc2_left_eye_coordinate"
  param {
    lr_mult: 1
    decay_mult: 1
  }
  param {
    lr_mult: 2
    decay_mult: 0
  }
  inner_product_param {
    num_output: 2
  }
}
layer {
  name: "loss_left_eye_coordinate"
  type: "EuclideanLoss"
  bottom: "fc2_left_eye_coordinate"
  bottom: "left_eye"
  top: "loss_left_eye_coordinate"
}
layer {
  name: "fc1_right_eye_coordinate"
  type: "InnerProduct"
  bottom: "conv5"
  top: "fc1_right_eye_coordinate"
  param {
    lr_mult: 1
    decay_mult: 1
  }
  param {
    lr_mult: 2
    decay_mult: 0
  }
  inner_product_param {
    num_output: 191
  }
}
layer {
  name: "drop1_right_eye_coordinate"
  type: "Dropout"
  bottom: "fc1_right_eye_coordinate"
  top: "fc1_right_eye_coordinate"
  dropout_param {
    dropout_ratio: 0.25
  }
}
layer {
  name: "fc2_right_eye_coordinate"
  type: "InnerProduct"
  bottom: "fc1_right_eye_coordinate"
  top: "fc2_right_eye_coordinate"
  param {
    lr_mult: 1
    decay_mult: 1
  }
  param {
    lr_mult: 2
    decay_mult: 0
  }
  inner_product_param {
    num_output: 2
  }
}
layer {
  name: "loss_right_eye_coordinate"
  type: "EuclideanLoss"
  bottom: "fc2_right_eye_coordinate"
  bottom: "right_eye"
  top: "loss_right_eye_coordinate"
}
layer {
  name: "fc1_nose_coordinate"
  type: "InnerProduct"
  bottom: "conv5"
  top: "fc1_nose_coordinate"
  param {
    lr_mult: 1
    decay_mult: 1
  }
  param {
    lr_mult: 2
    decay_mult: 0
  }
  inner_product_param {
    num_output: 345
  }
}
layer {
  name: "drop1_nose_coordinate"
  type: "Dropout"
  bottom: "fc1_nose_coordinate"
  top: "fc1_nose_coordinate"
  dropout_param {
    dropout_ratio: 0.25
  }
}
layer {
  name: "fc2_nose_coordinate"
  type: "InnerProduct"
  bottom: "fc1_nose_coordinate"
  top: "fc2_nose_coordinate"
  param {
    lr_mult: 1
    decay_mult: 1
  }
  param {
    lr_mult: 2
    decay_mult: 0
  }
  inner_product_param {
    num_output: 2
  }
}
layer {
  name: "loss_nose_coordinate"
  type: "EuclideanLoss"
  bottom: "fc2_nose_coordinate"
  bottom: "nose"
  top: "loss_nose_coordinate"
}
layer {
  name: "fc1_left_mouth_coordinate"
  type: "InnerProduct"
  bottom: "conv5"
  top: "fc1_left_mouth_coordinate"
  param {
    lr_mult: 1
    decay_mult: 1
  }
  param {
    lr_mult: 2
    decay_mult: 0
  }
  inner_product_param {
    num_output: 180
  }
}
layer {
  name: "drop1_left_mouth_coordinate"
  type: "Dropout"
  bottom: "fc1_left_mouth_coordinate"
  top: "fc1_left_mouth_coordinate"
  dropout_param {
    dropout_ratio: 0.25
  }
}
layer {
  name: "fc2_left_mouth_coordinate"
  type: "InnerProduct"
  bottom: "fc1_left_mouth_coordinate"
  top: "fc2_left_mouth_coordinate"
  param {
    lr_mult: 1
    decay_mult: 1
  }
  param {
    lr_mult: 2
    decay_mult: 0
  }
  inner_product_param {
    num_output: 2
  }
}
layer {
  name: "loss_left_mouth_coordinate"
  type: "EuclideanLoss"
  bottom: "fc2_left_mouth_coordinate"
  bottom: "left_mouth"
  top: "loss_left_mouth_coordinate"
}
layer {
  name: "fc1_center_mouth_coordinate"
  type: "InnerProduct"
  bottom: "conv5"
  top: "fc1_center_mouth_coordinate"
  param {
    lr_mult: 1
    decay_mult: 1
  }
  param {
    lr_mult: 2
    decay_mult: 0
  }
  inner_product_param {
    num_output: 358
  }
}
layer {
  name: "drop1_center_mouth_coordinate"
  type: "Dropout"
  bottom: "fc1_center_mouth_coordinate"
  top: "fc1_center_mouth_coordinate"
  dropout_param {
    dropout_ratio: 0.25
  }
}
layer {
  name: "fc2_center_mouth_coordinate"
  type: "InnerProduct"
  bottom: "fc1_center_mouth_coordinate"
  top: "fc2_center_mouth_coordinate"
  param {
    lr_mult: 1
    decay_mult: 1
  }
  param {
    lr_mult: 2
    decay_mult: 0
  }
  inner_product_param {
    num_output: 2
  }
}
layer {
  name: "loss_center_mouth_coordinate"
  type: "EuclideanLoss"
  bottom: "fc2_center_mouth_coordinate"
  bottom: "center_mouth"
  top: "loss_center_mouth_coordinate"
}
layer {
  name: "fc1_right_mouth_coordinate"
  type: "InnerProduct"
  bottom: "conv5"
  top: "fc1_right_mouth_coordinate"
  param {
    lr_mult: 1
    decay_mult: 1
  }
  param {
    lr_mult: 2
    decay_mult: 0
  }
  inner_product_param {
    num_output: 232
  }
}
layer {
  name: "drop1_right_mouth_coordinate"
  type: "Dropout"
  bottom: "fc1_right_mouth_coordinate"
  top: "fc1_right_mouth_coordinate"
  dropout_param {
    dropout_ratio: 0.25
  }
}
layer {
  name: "fc2_right_mouth_coordinate"
  type: "InnerProduct"
  bottom: "fc1_right_mouth_coordinate"
  top: "fc2_right_mouth_coordinate"
  param {
    lr_mult: 1
    decay_mult: 1
  }
  param {
    lr_mult: 2
    decay_mult: 0
  }
  inner_product_param {
    num_output: 2
  }
}
layer {
  name: "loss_right_mouth_coordinate"
  type: "EuclideanLoss"
  bottom: "fc2_right_mouth_coordinate"
  bottom: "right_mouth"
  top: "loss_right_mouth_coordinate"
}
I0210 07:32:30.867840 13362 layer_factory.hpp:77] Creating layer data
I0210 07:32:30.867852 13362 net.cpp:91] Creating Layer data
I0210 07:32:30.867857 13362 net.cpp:399] data -> data
I0210 07:32:30.867875 13362 net.cpp:399] data -> left_eye
I0210 07:32:30.867882 13362 net.cpp:399] data -> right_eye
I0210 07:32:30.867887 13362 net.cpp:399] data -> nose
I0210 07:32:30.867892 13362 net.cpp:399] data -> left_mouth
I0210 07:32:30.867898 13362 net.cpp:399] data -> center_mouth
I0210 07:32:30.867902 13362 net.cpp:399] data -> right_mouth
I0210 07:32:30.867907 13362 net.cpp:399] data -> eye_visibility_left
I0210 07:32:30.867910 13362 net.cpp:399] data -> eye_visibility_right
I0210 07:32:30.867918 13362 net.cpp:399] data -> nose_visibility
I0210 07:32:30.867921 13362 net.cpp:399] data -> mouth_visibility_left
I0210 07:32:30.867925 13362 net.cpp:399] data -> mouth_visibility_center
I0210 07:32:30.867930 13362 net.cpp:399] data -> mouth_visibility_right
I0210 07:32:30.867936 13362 hdf5_data_layer.cpp:79] Loading list of HDF5 filenames from: /home/wzleong/Downloads/nottingham_with_scaling_eye_nose_mouth/hdf5_complete/train_scaled_mean_subtracted_own_data_multiple_label_complete_data_list.txt
I0210 07:32:30.867969 13362 hdf5_data_layer.cpp:93] Number of HDF5 files: 8
I0210 07:32:30.868712 13362 hdf5.cpp:32] Datatype class: H5T_FLOAT
I0210 07:32:31.159312 13362 net.cpp:141] Setting up data
I0210 07:32:31.159333 13362 net.cpp:148] Top shape: 128 1 200 200 (5120000)
I0210 07:32:31.159338 13362 net.cpp:148] Top shape: 128 2 (256)
I0210 07:32:31.159342 13362 net.cpp:148] Top shape: 128 2 (256)
I0210 07:32:31.159343 13362 net.cpp:148] Top shape: 128 2 (256)
I0210 07:32:31.159348 13362 net.cpp:148] Top shape: 128 2 (256)
I0210 07:32:31.159350 13362 net.cpp:148] Top shape: 128 2 (256)
I0210 07:32:31.159353 13362 net.cpp:148] Top shape: 128 2 (256)
I0210 07:32:31.159355 13362 net.cpp:148] Top shape: 128 1 (128)
I0210 07:32:31.159360 13362 net.cpp:148] Top shape: 128 1 (128)
I0210 07:32:31.159363 13362 net.cpp:148] Top shape: 128 1 (128)
I0210 07:32:31.159365 13362 net.cpp:148] Top shape: 128 1 (128)
I0210 07:32:31.159368 13362 net.cpp:148] Top shape: 128 1 (128)
I0210 07:32:31.159389 13362 net.cpp:148] Top shape: 128 1 (128)
I0210 07:32:31.159392 13362 net.cpp:156] Memory required for data: 20489216
I0210 07:32:31.159400 13362 layer_factory.hpp:77] Creating layer conv1
I0210 07:32:31.159420 13362 net.cpp:91] Creating Layer conv1
I0210 07:32:31.159428 13362 net.cpp:425] conv1 <- data
I0210 07:32:31.159438 13362 net.cpp:399] conv1 -> conv1
I0210 07:32:31.159641 13362 net.cpp:141] Setting up conv1
I0210 07:32:31.159646 13362 net.cpp:148] Top shape: 128 32 94 94 (36192256)
I0210 07:32:31.159649 13362 net.cpp:156] Memory required for data: 165258240
I0210 07:32:31.159664 13362 layer_factory.hpp:77] Creating layer relu1
I0210 07:32:31.159669 13362 net.cpp:91] Creating Layer relu1
I0210 07:32:31.159672 13362 net.cpp:425] relu1 <- conv1
I0210 07:32:31.159677 13362 net.cpp:386] relu1 -> conv1 (in-place)
I0210 07:32:31.159682 13362 net.cpp:141] Setting up relu1
I0210 07:32:31.159685 13362 net.cpp:148] Top shape: 128 32 94 94 (36192256)
I0210 07:32:31.159687 13362 net.cpp:156] Memory required for data: 310027264
I0210 07:32:31.159690 13362 layer_factory.hpp:77] Creating layer pool1
I0210 07:32:31.159694 13362 net.cpp:91] Creating Layer pool1
I0210 07:32:31.159698 13362 net.cpp:425] pool1 <- conv1
I0210 07:32:31.159703 13362 net.cpp:399] pool1 -> pool1
I0210 07:32:31.159741 13362 net.cpp:141] Setting up pool1
I0210 07:32:31.159746 13362 net.cpp:148] Top shape: 128 32 47 47 (9048064)
I0210 07:32:31.159749 13362 net.cpp:156] Memory required for data: 346219520
I0210 07:32:31.159751 13362 layer_factory.hpp:77] Creating layer pool1_pool1_0_split
I0210 07:32:31.159757 13362 net.cpp:91] Creating Layer pool1_pool1_0_split
I0210 07:32:31.159760 13362 net.cpp:425] pool1_pool1_0_split <- pool1
I0210 07:32:31.159765 13362 net.cpp:399] pool1_pool1_0_split -> pool1_pool1_0_split_0
I0210 07:32:31.159770 13362 net.cpp:399] pool1_pool1_0_split -> pool1_pool1_0_split_1
I0210 07:32:31.159798 13362 net.cpp:141] Setting up pool1_pool1_0_split
I0210 07:32:31.159803 13362 net.cpp:148] Top shape: 128 32 47 47 (9048064)
I0210 07:32:31.159806 13362 net.cpp:148] Top shape: 128 32 47 47 (9048064)
I0210 07:32:31.159808 13362 net.cpp:156] Memory required for data: 418604032
I0210 07:32:31.159811 13362 layer_factory.hpp:77] Creating layer conv2_1
I0210 07:32:31.159817 13362 net.cpp:91] Creating Layer conv2_1
I0210 07:32:31.159821 13362 net.cpp:425] conv2_1 <- pool1_pool1_0_split_0
I0210 07:32:31.159826 13362 net.cpp:399] conv2_1 -> conv2_1
I0210 07:32:31.160404 13362 net.cpp:141] Setting up conv2_1
I0210 07:32:31.160414 13362 net.cpp:148] Top shape: 128 32 45 45 (8294400)
I0210 07:32:31.160416 13362 net.cpp:156] Memory required for data: 451781632
I0210 07:32:31.160423 13362 layer_factory.hpp:77] Creating layer relu2_1
I0210 07:32:31.160430 13362 net.cpp:91] Creating Layer relu2_1
I0210 07:32:31.160432 13362 net.cpp:425] relu2_1 <- conv2_1
I0210 07:32:31.160436 13362 net.cpp:386] relu2_1 -> conv2_1 (in-place)
I0210 07:32:31.160441 13362 net.cpp:141] Setting up relu2_1
I0210 07:32:31.160446 13362 net.cpp:148] Top shape: 128 32 45 45 (8294400)
I0210 07:32:31.160449 13362 net.cpp:156] Memory required for data: 484959232
I0210 07:32:31.160451 13362 layer_factory.hpp:77] Creating layer conv2_2
I0210 07:32:31.160456 13362 net.cpp:91] Creating Layer conv2_2
I0210 07:32:31.160460 13362 net.cpp:425] conv2_2 <- conv2_1
I0210 07:32:31.160465 13362 net.cpp:399] conv2_2 -> conv2_2
I0210 07:32:31.160646 13362 net.cpp:141] Setting up conv2_2
I0210 07:32:31.160652 13362 net.cpp:148] Top shape: 128 32 43 43 (7573504)
I0210 07:32:31.160655 13362 net.cpp:156] Memory required for data: 515253248
I0210 07:32:31.160662 13362 layer_factory.hpp:77] Creating layer relu2_2
I0210 07:32:31.160667 13362 net.cpp:91] Creating Layer relu2_2
I0210 07:32:31.160670 13362 net.cpp:425] relu2_2 <- conv2_2
I0210 07:32:31.160675 13362 net.cpp:386] relu2_2 -> conv2_2 (in-place)
I0210 07:32:31.160678 13362 net.cpp:141] Setting up relu2_2
I0210 07:32:31.160681 13362 net.cpp:148] Top shape: 128 32 43 43 (7573504)
I0210 07:32:31.160683 13362 net.cpp:156] Memory required for data: 545547264
I0210 07:32:31.160697 13362 layer_factory.hpp:77] Creating layer conv2_3
I0210 07:32:31.160703 13362 net.cpp:91] Creating Layer conv2_3
I0210 07:32:31.160706 13362 net.cpp:425] conv2_3 <- conv2_2
I0210 07:32:31.160709 13362 net.cpp:399] conv2_3 -> conv2_3
I0210 07:32:31.160889 13362 net.cpp:141] Setting up conv2_3
I0210 07:32:31.160895 13362 net.cpp:148] Top shape: 128 32 41 41 (6885376)
I0210 07:32:31.160898 13362 net.cpp:156] Memory required for data: 573088768
I0210 07:32:31.160902 13362 layer_factory.hpp:77] Creating layer relu2_3
I0210 07:32:31.160907 13362 net.cpp:91] Creating Layer relu2_3
I0210 07:32:31.160910 13362 net.cpp:425] relu2_3 <- conv2_3
I0210 07:32:31.160913 13362 net.cpp:386] relu2_3 -> conv2_3 (in-place)
I0210 07:32:31.160917 13362 net.cpp:141] Setting up relu2_3
I0210 07:32:31.160920 13362 net.cpp:148] Top shape: 128 32 41 41 (6885376)
I0210 07:32:31.160923 13362 net.cpp:156] Memory required for data: 600630272
I0210 07:32:31.160925 13362 layer_factory.hpp:77] Creating layer conv2_4
I0210 07:32:31.160929 13362 net.cpp:91] Creating Layer conv2_4
I0210 07:32:31.160933 13362 net.cpp:425] conv2_4 <- conv2_3
I0210 07:32:31.160936 13362 net.cpp:399] conv2_4 -> conv2_4
I0210 07:32:31.161106 13362 net.cpp:141] Setting up conv2_4
I0210 07:32:31.161113 13362 net.cpp:148] Top shape: 128 32 39 39 (6230016)
I0210 07:32:31.161115 13362 net.cpp:156] Memory required for data: 625550336
I0210 07:32:31.161121 13362 layer_factory.hpp:77] Creating layer relu2_4
I0210 07:32:31.161126 13362 net.cpp:91] Creating Layer relu2_4
I0210 07:32:31.161128 13362 net.cpp:425] relu2_4 <- conv2_4
I0210 07:32:31.161133 13362 net.cpp:386] relu2_4 -> conv2_4 (in-place)
I0210 07:32:31.161136 13362 net.cpp:141] Setting up relu2_4
I0210 07:32:31.161139 13362 net.cpp:148] Top shape: 128 32 39 39 (6230016)
I0210 07:32:31.161141 13362 net.cpp:156] Memory required for data: 650470400
I0210 07:32:31.161144 13362 layer_factory.hpp:77] Creating layer conv2_sub
I0210 07:32:31.161149 13362 net.cpp:91] Creating Layer conv2_sub
I0210 07:32:31.161154 13362 net.cpp:425] conv2_sub <- pool1_pool1_0_split_1
I0210 07:32:31.161157 13362 net.cpp:399] conv2_sub -> conv2_sub
I0210 07:32:31.161337 13362 net.cpp:141] Setting up conv2_sub
I0210 07:32:31.161344 13362 net.cpp:148] Top shape: 128 32 39 39 (6230016)
I0210 07:32:31.161345 13362 net.cpp:156] Memory required for data: 675390464
I0210 07:32:31.161350 13362 layer_factory.hpp:77] Creating layer relu2_sub
I0210 07:32:31.161355 13362 net.cpp:91] Creating Layer relu2_sub
I0210 07:32:31.161357 13362 net.cpp:425] relu2_sub <- conv2_sub
I0210 07:32:31.161361 13362 net.cpp:386] relu2_sub -> conv2_sub (in-place)
I0210 07:32:31.161365 13362 net.cpp:141] Setting up relu2_sub
I0210 07:32:31.161370 13362 net.cpp:148] Top shape: 128 32 39 39 (6230016)
I0210 07:32:31.161372 13362 net.cpp:156] Memory required for data: 700310528
I0210 07:32:31.161375 13362 layer_factory.hpp:77] Creating layer concat_conv2
I0210 07:32:31.161378 13362 net.cpp:91] Creating Layer concat_conv2
I0210 07:32:31.161382 13362 net.cpp:425] concat_conv2 <- conv2_sub
I0210 07:32:31.161386 13362 net.cpp:425] concat_conv2 <- conv2_4
I0210 07:32:31.161389 13362 net.cpp:399] concat_conv2 -> concat_conv2
I0210 07:32:31.161408 13362 net.cpp:141] Setting up concat_conv2
I0210 07:32:31.161414 13362 net.cpp:148] Top shape: 128 64 39 39 (12460032)
I0210 07:32:31.161417 13362 net.cpp:156] Memory required for data: 750150656
I0210 07:32:31.161418 13362 layer_factory.hpp:77] Creating layer pool2
I0210 07:32:31.161423 13362 net.cpp:91] Creating Layer pool2
I0210 07:32:31.161427 13362 net.cpp:425] pool2 <- concat_conv2
I0210 07:32:31.161432 13362 net.cpp:399] pool2 -> pool2
I0210 07:32:31.161459 13362 net.cpp:141] Setting up pool2
I0210 07:32:31.161464 13362 net.cpp:148] Top shape: 128 64 20 20 (3276800)
I0210 07:32:31.161466 13362 net.cpp:156] Memory required for data: 763257856
I0210 07:32:31.161469 13362 layer_factory.hpp:77] Creating layer pool2_pool2_0_split
I0210 07:32:31.161473 13362 net.cpp:91] Creating Layer pool2_pool2_0_split
I0210 07:32:31.161484 13362 net.cpp:425] pool2_pool2_0_split <- pool2
I0210 07:32:31.161489 13362 net.cpp:399] pool2_pool2_0_split -> pool2_pool2_0_split_0
I0210 07:32:31.161494 13362 net.cpp:399] pool2_pool2_0_split -> pool2_pool2_0_split_1
I0210 07:32:31.161519 13362 net.cpp:141] Setting up pool2_pool2_0_split
I0210 07:32:31.161523 13362 net.cpp:148] Top shape: 128 64 20 20 (3276800)
I0210 07:32:31.161526 13362 net.cpp:148] Top shape: 128 64 20 20 (3276800)
I0210 07:32:31.161528 13362 net.cpp:156] Memory required for data: 789472256
I0210 07:32:31.161531 13362 layer_factory.hpp:77] Creating layer conv3_1
I0210 07:32:31.161536 13362 net.cpp:91] Creating Layer conv3_1
I0210 07:32:31.161540 13362 net.cpp:425] conv3_1 <- pool2_pool2_0_split_0
I0210 07:32:31.161543 13362 net.cpp:399] conv3_1 -> conv3_1
I0210 07:32:31.162449 13362 net.cpp:141] Setting up conv3_1
I0210 07:32:31.162459 13362 net.cpp:148] Top shape: 128 32 18 18 (1327104)
I0210 07:32:31.162463 13362 net.cpp:156] Memory required for data: 794780672
I0210 07:32:31.162469 13362 layer_factory.hpp:77] Creating layer relu3_1
I0210 07:32:31.162474 13362 net.cpp:91] Creating Layer relu3_1
I0210 07:32:31.162477 13362 net.cpp:425] relu3_1 <- conv3_1
I0210 07:32:31.162483 13362 net.cpp:386] relu3_1 -> conv3_1 (in-place)
I0210 07:32:31.162488 13362 net.cpp:141] Setting up relu3_1
I0210 07:32:31.162492 13362 net.cpp:148] Top shape: 128 32 18 18 (1327104)
I0210 07:32:31.162494 13362 net.cpp:156] Memory required for data: 800089088
I0210 07:32:31.162497 13362 layer_factory.hpp:77] Creating layer conv3_2
I0210 07:32:31.162503 13362 net.cpp:91] Creating Layer conv3_2
I0210 07:32:31.162505 13362 net.cpp:425] conv3_2 <- conv3_1
I0210 07:32:31.162508 13362 net.cpp:399] conv3_2 -> conv3_2
I0210 07:32:31.162698 13362 net.cpp:141] Setting up conv3_2
I0210 07:32:31.162703 13362 net.cpp:148] Top shape: 128 64 16 16 (2097152)
I0210 07:32:31.162705 13362 net.cpp:156] Memory required for data: 808477696
I0210 07:32:31.162710 13362 layer_factory.hpp:77] Creating layer relu3_2
I0210 07:32:31.162714 13362 net.cpp:91] Creating Layer relu3_2
I0210 07:32:31.162716 13362 net.cpp:425] relu3_2 <- conv3_2
I0210 07:32:31.162720 13362 net.cpp:386] relu3_2 -> conv3_2 (in-place)
I0210 07:32:31.162724 13362 net.cpp:141] Setting up relu3_2
I0210 07:32:31.162727 13362 net.cpp:148] Top shape: 128 64 16 16 (2097152)
I0210 07:32:31.162730 13362 net.cpp:156] Memory required for data: 816866304
I0210 07:32:31.162732 13362 layer_factory.hpp:77] Creating layer conv3_sub
I0210 07:32:31.162737 13362 net.cpp:91] Creating Layer conv3_sub
I0210 07:32:31.162740 13362 net.cpp:425] conv3_sub <- pool2_pool2_0_split_1
I0210 07:32:31.162745 13362 net.cpp:399] conv3_sub -> conv3_sub
I0210 07:32:31.162935 13362 net.cpp:141] Setting up conv3_sub
I0210 07:32:31.162940 13362 net.cpp:148] Top shape: 128 64 16 16 (2097152)
I0210 07:32:31.162942 13362 net.cpp:156] Memory required for data: 825254912
I0210 07:32:31.162950 13362 layer_factory.hpp:77] Creating layer relu3_sub
I0210 07:32:31.162956 13362 net.cpp:91] Creating Layer relu3_sub
I0210 07:32:31.162961 13362 net.cpp:425] relu3_sub <- conv3_sub
I0210 07:32:31.162966 13362 net.cpp:386] relu3_sub -> conv3_sub (in-place)
I0210 07:32:31.162969 13362 net.cpp:141] Setting up relu3_sub
I0210 07:32:31.162973 13362 net.cpp:148] Top shape: 128 64 16 16 (2097152)
I0210 07:32:31.162976 13362 net.cpp:156] Memory required for data: 833643520
I0210 07:32:31.162978 13362 layer_factory.hpp:77] Creating layer concat_conv3
I0210 07:32:31.162982 13362 net.cpp:91] Creating Layer concat_conv3
I0210 07:32:31.162986 13362 net.cpp:425] concat_conv3 <- conv3_sub
I0210 07:32:31.162987 13362 net.cpp:425] concat_conv3 <- conv3_2
I0210 07:32:31.162992 13362 net.cpp:399] concat_conv3 -> concat_conv3
I0210 07:32:31.163005 13362 net.cpp:141] Setting up concat_conv3
I0210 07:32:31.163010 13362 net.cpp:148] Top shape: 128 128 16 16 (4194304)
I0210 07:32:31.163012 13362 net.cpp:156] Memory required for data: 850420736
I0210 07:32:31.163015 13362 layer_factory.hpp:77] Creating layer pool3
I0210 07:32:31.163019 13362 net.cpp:91] Creating Layer pool3
I0210 07:32:31.163030 13362 net.cpp:425] pool3 <- concat_conv3
I0210 07:32:31.163034 13362 net.cpp:399] pool3 -> pool3
I0210 07:32:31.163064 13362 net.cpp:141] Setting up pool3
I0210 07:32:31.163069 13362 net.cpp:148] Top shape: 128 128 8 8 (1048576)
I0210 07:32:31.163070 13362 net.cpp:156] Memory required for data: 854615040
I0210 07:32:31.163072 13362 layer_factory.hpp:77] Creating layer conv4_1
I0210 07:32:31.163079 13362 net.cpp:91] Creating Layer conv4_1
I0210 07:32:31.163081 13362 net.cpp:425] conv4_1 <- pool3
I0210 07:32:31.163085 13362 net.cpp:399] conv4_1 -> conv4_1
I0210 07:32:31.163656 13362 net.cpp:141] Setting up conv4_1
I0210 07:32:31.163666 13362 net.cpp:148] Top shape: 128 64 6 6 (294912)
I0210 07:32:31.163669 13362 net.cpp:156] Memory required for data: 855794688
I0210 07:32:31.163674 13362 layer_factory.hpp:77] Creating layer relu4_1
I0210 07:32:31.163678 13362 net.cpp:91] Creating Layer relu4_1
I0210 07:32:31.163683 13362 net.cpp:425] relu4_1 <- conv4_1
I0210 07:32:31.163686 13362 net.cpp:386] relu4_1 -> conv4_1 (in-place)
I0210 07:32:31.163691 13362 net.cpp:141] Setting up relu4_1
I0210 07:32:31.163694 13362 net.cpp:148] Top shape: 128 64 6 6 (294912)
I0210 07:32:31.163697 13362 net.cpp:156] Memory required for data: 856974336
I0210 07:32:31.163699 13362 layer_factory.hpp:77] Creating layer conv4_2
I0210 07:32:31.163704 13362 net.cpp:91] Creating Layer conv4_2
I0210 07:32:31.163707 13362 net.cpp:425] conv4_2 <- conv4_1
I0210 07:32:31.163712 13362 net.cpp:399] conv4_2 -> conv4_2
I0210 07:32:31.163928 13362 net.cpp:141] Setting up conv4_2
I0210 07:32:31.163934 13362 net.cpp:148] Top shape: 128 128 4 4 (262144)
I0210 07:32:31.163938 13362 net.cpp:156] Memory required for data: 858022912
I0210 07:32:31.163942 13362 layer_factory.hpp:77] Creating layer relu4_2
I0210 07:32:31.163956 13362 net.cpp:91] Creating Layer relu4_2
I0210 07:32:31.163960 13362 net.cpp:425] relu4_2 <- conv4_2
I0210 07:32:31.163965 13362 net.cpp:386] relu4_2 -> conv4_2 (in-place)
I0210 07:32:31.163972 13362 net.cpp:141] Setting up relu4_2
I0210 07:32:31.163976 13362 net.cpp:148] Top shape: 128 128 4 4 (262144)
I0210 07:32:31.163978 13362 net.cpp:156] Memory required for data: 859071488
I0210 07:32:31.163980 13362 layer_factory.hpp:77] Creating layer conv4_3
I0210 07:32:31.163986 13362 net.cpp:91] Creating Layer conv4_3
I0210 07:32:31.163988 13362 net.cpp:425] conv4_3 <- conv4_2
I0210 07:32:31.163992 13362 net.cpp:399] conv4_3 -> conv4_3
I0210 07:32:31.165731 13362 net.cpp:141] Setting up conv4_3
I0210 07:32:31.165743 13362 net.cpp:148] Top shape: 128 128 2 2 (65536)
I0210 07:32:31.165745 13362 net.cpp:156] Memory required for data: 859333632
I0210 07:32:31.165751 13362 layer_factory.hpp:77] Creating layer relu4_3
I0210 07:32:31.165755 13362 net.cpp:91] Creating Layer relu4_3
I0210 07:32:31.165758 13362 net.cpp:425] relu4_3 <- conv4_3
I0210 07:32:31.165763 13362 net.cpp:386] relu4_3 -> conv4_3 (in-place)
I0210 07:32:31.165767 13362 net.cpp:141] Setting up relu4_3
I0210 07:32:31.165771 13362 net.cpp:148] Top shape: 128 128 2 2 (65536)
I0210 07:32:31.165773 13362 net.cpp:156] Memory required for data: 859595776
I0210 07:32:31.165776 13362 layer_factory.hpp:77] Creating layer conv5
I0210 07:32:31.165784 13362 net.cpp:91] Creating Layer conv5
I0210 07:32:31.165788 13362 net.cpp:425] conv5 <- conv4_3
I0210 07:32:31.165792 13362 net.cpp:399] conv5 -> conv5
I0210 07:32:31.166028 13362 net.cpp:141] Setting up conv5
I0210 07:32:31.166035 13362 net.cpp:148] Top shape: 128 512 2 2 (262144)
I0210 07:32:31.166038 13362 net.cpp:156] Memory required for data: 860644352
I0210 07:32:31.166043 13362 layer_factory.hpp:77] Creating layer relu5
I0210 07:32:31.166046 13362 net.cpp:91] Creating Layer relu5
I0210 07:32:31.166049 13362 net.cpp:425] relu5 <- conv5
I0210 07:32:31.166052 13362 net.cpp:386] relu5 -> conv5 (in-place)
I0210 07:32:31.166057 13362 net.cpp:141] Setting up relu5
I0210 07:32:31.166060 13362 net.cpp:148] Top shape: 128 512 2 2 (262144)
I0210 07:32:31.166062 13362 net.cpp:156] Memory required for data: 861692928
I0210 07:32:31.166075 13362 layer_factory.hpp:77] Creating layer conv5_relu5_0_split
I0210 07:32:31.166082 13362 net.cpp:91] Creating Layer conv5_relu5_0_split
I0210 07:32:31.166085 13362 net.cpp:425] conv5_relu5_0_split <- conv5
I0210 07:32:31.166090 13362 net.cpp:399] conv5_relu5_0_split -> conv5_relu5_0_split_0
I0210 07:32:31.166097 13362 net.cpp:399] conv5_relu5_0_split -> conv5_relu5_0_split_1
I0210 07:32:31.166105 13362 net.cpp:399] conv5_relu5_0_split -> conv5_relu5_0_split_2
I0210 07:32:31.166112 13362 net.cpp:399] conv5_relu5_0_split -> conv5_relu5_0_split_3
I0210 07:32:31.166118 13362 net.cpp:399] conv5_relu5_0_split -> conv5_relu5_0_split_4
I0210 07:32:31.166123 13362 net.cpp:399] conv5_relu5_0_split -> conv5_relu5_0_split_5
I0210 07:32:31.166131 13362 net.cpp:399] conv5_relu5_0_split -> conv5_relu5_0_split_6
I0210 07:32:31.166136 13362 net.cpp:399] conv5_relu5_0_split -> conv5_relu5_0_split_7
I0210 07:32:31.166141 13362 net.cpp:399] conv5_relu5_0_split -> conv5_relu5_0_split_8
I0210 07:32:31.166146 13362 net.cpp:399] conv5_relu5_0_split -> conv5_relu5_0_split_9
I0210 07:32:31.166153 13362 net.cpp:399] conv5_relu5_0_split -> conv5_relu5_0_split_10
I0210 07:32:31.166159 13362 net.cpp:399] conv5_relu5_0_split -> conv5_relu5_0_split_11
I0210 07:32:31.166278 13362 net.cpp:141] Setting up conv5_relu5_0_split
I0210 07:32:31.166283 13362 net.cpp:148] Top shape: 128 512 2 2 (262144)
I0210 07:32:31.166287 13362 net.cpp:148] Top shape: 128 512 2 2 (262144)
I0210 07:32:31.166290 13362 net.cpp:148] Top shape: 128 512 2 2 (262144)
I0210 07:32:31.166293 13362 net.cpp:148] Top shape: 128 512 2 2 (262144)
I0210 07:32:31.166296 13362 net.cpp:148] Top shape: 128 512 2 2 (262144)
I0210 07:32:31.166299 13362 net.cpp:148] Top shape: 128 512 2 2 (262144)
I0210 07:32:31.166302 13362 net.cpp:148] Top shape: 128 512 2 2 (262144)
I0210 07:32:31.166306 13362 net.cpp:148] Top shape: 128 512 2 2 (262144)
I0210 07:32:31.166307 13362 net.cpp:148] Top shape: 128 512 2 2 (262144)
I0210 07:32:31.166311 13362 net.cpp:148] Top shape: 128 512 2 2 (262144)
I0210 07:32:31.166314 13362 net.cpp:148] Top shape: 128 512 2 2 (262144)
I0210 07:32:31.166316 13362 net.cpp:148] Top shape: 128 512 2 2 (262144)
I0210 07:32:31.166318 13362 net.cpp:156] Memory required for data: 874275840
I0210 07:32:31.166321 13362 layer_factory.hpp:77] Creating layer fc1_left_eye_confidence
I0210 07:32:31.166327 13362 net.cpp:91] Creating Layer fc1_left_eye_confidence
I0210 07:32:31.166330 13362 net.cpp:425] fc1_left_eye_confidence <- conv5_relu5_0_split_0
I0210 07:32:31.166334 13362 net.cpp:399] fc1_left_eye_confidence -> fc1_left_eye_confidence
I0210 07:32:31.167026 13362 net.cpp:141] Setting up fc1_left_eye_confidence
I0210 07:32:31.167033 13362 net.cpp:148] Top shape: 128 149 (19072)
I0210 07:32:31.167035 13362 net.cpp:156] Memory required for data: 874352128
I0210 07:32:31.167040 13362 layer_factory.hpp:77] Creating layer relu_left_eye_confidence
I0210 07:32:31.167047 13362 net.cpp:91] Creating Layer relu_left_eye_confidence
I0210 07:32:31.167052 13362 net.cpp:425] relu_left_eye_confidence <- fc1_left_eye_confidence
I0210 07:32:31.167055 13362 net.cpp:386] relu_left_eye_confidence -> fc1_left_eye_confidence (in-place)
I0210 07:32:31.167060 13362 net.cpp:141] Setting up relu_left_eye_confidence
I0210 07:32:31.167063 13362 net.cpp:148] Top shape: 128 149 (19072)
I0210 07:32:31.167065 13362 net.cpp:156] Memory required for data: 874428416
I0210 07:32:31.167068 13362 layer_factory.hpp:77] Creating layer drop1_left_eye_confidence
I0210 07:32:31.167074 13362 net.cpp:91] Creating Layer drop1_left_eye_confidence
I0210 07:32:31.167078 13362 net.cpp:425] drop1_left_eye_confidence <- fc1_left_eye_confidence
I0210 07:32:31.167080 13362 net.cpp:386] drop1_left_eye_confidence -> fc1_left_eye_confidence (in-place)
I0210 07:32:31.167096 13362 net.cpp:141] Setting up drop1_left_eye_confidence
I0210 07:32:31.167101 13362 net.cpp:148] Top shape: 128 149 (19072)
I0210 07:32:31.167104 13362 net.cpp:156] Memory required for data: 874504704
I0210 07:32:31.167105 13362 layer_factory.hpp:77] Creating layer fc2_left_eye_confidence
I0210 07:32:31.167119 13362 net.cpp:91] Creating Layer fc2_left_eye_confidence
I0210 07:32:31.167124 13362 net.cpp:425] fc2_left_eye_confidence <- fc1_left_eye_confidence
I0210 07:32:31.167129 13362 net.cpp:399] fc2_left_eye_confidence -> fc2_left_eye_confidence
I0210 07:32:31.167202 13362 net.cpp:141] Setting up fc2_left_eye_confidence
I0210 07:32:31.167207 13362 net.cpp:148] Top shape: 128 1 (128)
I0210 07:32:31.167209 13362 net.cpp:156] Memory required for data: 874505216
I0210 07:32:31.167214 13362 layer_factory.hpp:77] Creating layer loss_left_eye_confidence
I0210 07:32:31.167218 13362 net.cpp:91] Creating Layer loss_left_eye_confidence
I0210 07:32:31.167220 13362 net.cpp:425] loss_left_eye_confidence <- fc2_left_eye_confidence
I0210 07:32:31.167223 13362 net.cpp:425] loss_left_eye_confidence <- eye_visibility_left
I0210 07:32:31.167229 13362 net.cpp:399] loss_left_eye_confidence -> loss_left_eye_confidence
I0210 07:32:31.167256 13362 net.cpp:141] Setting up loss_left_eye_confidence
I0210 07:32:31.167260 13362 net.cpp:148] Top shape: (1)
I0210 07:32:31.167263 13362 net.cpp:151]     with loss weight 1
I0210 07:32:31.167284 13362 net.cpp:156] Memory required for data: 874505220
I0210 07:32:31.167285 13362 layer_factory.hpp:77] Creating layer fc1_right_eye_confidence
I0210 07:32:31.167289 13362 net.cpp:91] Creating Layer fc1_right_eye_confidence
I0210 07:32:31.167292 13362 net.cpp:425] fc1_right_eye_confidence <- conv5_relu5_0_split_1
I0210 07:32:31.167299 13362 net.cpp:399] fc1_right_eye_confidence -> fc1_right_eye_confidence
I0210 07:32:31.167985 13362 net.cpp:141] Setting up fc1_right_eye_confidence
I0210 07:32:31.167995 13362 net.cpp:148] Top shape: 128 159 (20352)
I0210 07:32:31.167997 13362 net.cpp:156] Memory required for data: 874586628
I0210 07:32:31.168004 13362 layer_factory.hpp:77] Creating layer relu_right_eye_confidence
I0210 07:32:31.168009 13362 net.cpp:91] Creating Layer relu_right_eye_confidence
I0210 07:32:31.168014 13362 net.cpp:425] relu_right_eye_confidence <- fc1_right_eye_confidence
I0210 07:32:31.168018 13362 net.cpp:386] relu_right_eye_confidence -> fc1_right_eye_confidence (in-place)
I0210 07:32:31.168025 13362 net.cpp:141] Setting up relu_right_eye_confidence
I0210 07:32:31.168027 13362 net.cpp:148] Top shape: 128 159 (20352)
I0210 07:32:31.168030 13362 net.cpp:156] Memory required for data: 874668036
I0210 07:32:31.168031 13362 layer_factory.hpp:77] Creating layer drop1_right_eye_confidence
I0210 07:32:31.168036 13362 net.cpp:91] Creating Layer drop1_right_eye_confidence
I0210 07:32:31.168038 13362 net.cpp:425] drop1_right_eye_confidence <- fc1_right_eye_confidence
I0210 07:32:31.168042 13362 net.cpp:386] drop1_right_eye_confidence -> fc1_right_eye_confidence (in-place)
I0210 07:32:31.168056 13362 net.cpp:141] Setting up drop1_right_eye_confidence
I0210 07:32:31.168061 13362 net.cpp:148] Top shape: 128 159 (20352)
I0210 07:32:31.168061 13362 net.cpp:156] Memory required for data: 874749444
I0210 07:32:31.168063 13362 layer_factory.hpp:77] Creating layer fc2_right_eye_confidence
I0210 07:32:31.168071 13362 net.cpp:91] Creating Layer fc2_right_eye_confidence
I0210 07:32:31.168073 13362 net.cpp:425] fc2_right_eye_confidence <- fc1_right_eye_confidence
I0210 07:32:31.168076 13362 net.cpp:399] fc2_right_eye_confidence -> fc2_right_eye_confidence
I0210 07:32:31.168148 13362 net.cpp:141] Setting up fc2_right_eye_confidence
I0210 07:32:31.168154 13362 net.cpp:148] Top shape: 128 1 (128)
I0210 07:32:31.168155 13362 net.cpp:156] Memory required for data: 874749956
I0210 07:32:31.168165 13362 layer_factory.hpp:77] Creating layer loss_right_eye_confidence
I0210 07:32:31.168171 13362 net.cpp:91] Creating Layer loss_right_eye_confidence
I0210 07:32:31.168174 13362 net.cpp:425] loss_right_eye_confidence <- fc2_right_eye_confidence
I0210 07:32:31.168177 13362 net.cpp:425] loss_right_eye_confidence <- eye_visibility_right
I0210 07:32:31.168181 13362 net.cpp:399] loss_right_eye_confidence -> loss_right_eye_confidence
I0210 07:32:31.168207 13362 net.cpp:141] Setting up loss_right_eye_confidence
I0210 07:32:31.168220 13362 net.cpp:148] Top shape: (1)
I0210 07:32:31.168223 13362 net.cpp:151]     with loss weight 1
I0210 07:32:31.168228 13362 net.cpp:156] Memory required for data: 874749960
I0210 07:32:31.168231 13362 layer_factory.hpp:77] Creating layer fc1_nose_confidence
I0210 07:32:31.168236 13362 net.cpp:91] Creating Layer fc1_nose_confidence
I0210 07:32:31.168238 13362 net.cpp:425] fc1_nose_confidence <- conv5_relu5_0_split_2
I0210 07:32:31.168243 13362 net.cpp:399] fc1_nose_confidence -> fc1_nose_confidence
I0210 07:32:31.168895 13362 net.cpp:141] Setting up fc1_nose_confidence
I0210 07:32:31.168903 13362 net.cpp:148] Top shape: 128 153 (19584)
I0210 07:32:31.168906 13362 net.cpp:156] Memory required for data: 874828296
I0210 07:32:31.168911 13362 layer_factory.hpp:77] Creating layer relu_nose_confidence
I0210 07:32:31.168915 13362 net.cpp:91] Creating Layer relu_nose_confidence
I0210 07:32:31.168918 13362 net.cpp:425] relu_nose_confidence <- fc1_nose_confidence
I0210 07:32:31.168923 13362 net.cpp:386] relu_nose_confidence -> fc1_nose_confidence (in-place)
I0210 07:32:31.168928 13362 net.cpp:141] Setting up relu_nose_confidence
I0210 07:32:31.168931 13362 net.cpp:148] Top shape: 128 153 (19584)
I0210 07:32:31.168933 13362 net.cpp:156] Memory required for data: 874906632
I0210 07:32:31.168936 13362 layer_factory.hpp:77] Creating layer drop1_nose_confidence
I0210 07:32:31.168941 13362 net.cpp:91] Creating Layer drop1_nose_confidence
I0210 07:32:31.168942 13362 net.cpp:425] drop1_nose_confidence <- fc1_nose_confidence
I0210 07:32:31.168946 13362 net.cpp:386] drop1_nose_confidence -> fc1_nose_confidence (in-place)
I0210 07:32:31.168962 13362 net.cpp:141] Setting up drop1_nose_confidence
I0210 07:32:31.168967 13362 net.cpp:148] Top shape: 128 153 (19584)
I0210 07:32:31.168968 13362 net.cpp:156] Memory required for data: 874984968
I0210 07:32:31.168970 13362 layer_factory.hpp:77] Creating layer fc2_nose_confidence
I0210 07:32:31.168975 13362 net.cpp:91] Creating Layer fc2_nose_confidence
I0210 07:32:31.168977 13362 net.cpp:425] fc2_nose_confidence <- fc1_nose_confidence
I0210 07:32:31.168982 13362 net.cpp:399] fc2_nose_confidence -> fc2_nose_confidence
I0210 07:32:31.169055 13362 net.cpp:141] Setting up fc2_nose_confidence
I0210 07:32:31.169060 13362 net.cpp:148] Top shape: 128 1 (128)
I0210 07:32:31.169062 13362 net.cpp:156] Memory required for data: 874985480
I0210 07:32:31.169066 13362 layer_factory.hpp:77] Creating layer loss_nose_confidence
I0210 07:32:31.169070 13362 net.cpp:91] Creating Layer loss_nose_confidence
I0210 07:32:31.169072 13362 net.cpp:425] loss_nose_confidence <- fc2_nose_confidence
I0210 07:32:31.169076 13362 net.cpp:425] loss_nose_confidence <- nose_visibility
I0210 07:32:31.169081 13362 net.cpp:399] loss_nose_confidence -> loss_nose_confidence
I0210 07:32:31.169106 13362 net.cpp:141] Setting up loss_nose_confidence
I0210 07:32:31.169111 13362 net.cpp:148] Top shape: (1)
I0210 07:32:31.169112 13362 net.cpp:151]     with loss weight 1
I0210 07:32:31.169116 13362 net.cpp:156] Memory required for data: 874985484
I0210 07:32:31.169118 13362 layer_factory.hpp:77] Creating layer fc1_left_mouth_confidence
I0210 07:32:31.169124 13362 net.cpp:91] Creating Layer fc1_left_mouth_confidence
I0210 07:32:31.169126 13362 net.cpp:425] fc1_left_mouth_confidence <- conv5_relu5_0_split_3
I0210 07:32:31.169131 13362 net.cpp:399] fc1_left_mouth_confidence -> fc1_left_mouth_confidence
I0210 07:32:31.169778 13362 net.cpp:141] Setting up fc1_left_mouth_confidence
I0210 07:32:31.169787 13362 net.cpp:148] Top shape: 128 156 (19968)
I0210 07:32:31.169790 13362 net.cpp:156] Memory required for data: 875065356
I0210 07:32:31.169795 13362 layer_factory.hpp:77] Creating layer relu_left_mouth_confidence
I0210 07:32:31.169800 13362 net.cpp:91] Creating Layer relu_left_mouth_confidence
I0210 07:32:31.169805 13362 net.cpp:425] relu_left_mouth_confidence <- fc1_left_mouth_confidence
I0210 07:32:31.169808 13362 net.cpp:386] relu_left_mouth_confidence -> fc1_left_mouth_confidence (in-place)
I0210 07:32:31.169823 13362 net.cpp:141] Setting up relu_left_mouth_confidence
I0210 07:32:31.169826 13362 net.cpp:148] Top shape: 128 156 (19968)
I0210 07:32:31.169829 13362 net.cpp:156] Memory required for data: 875145228
I0210 07:32:31.169831 13362 layer_factory.hpp:77] Creating layer drop1_left_mouth_confidence
I0210 07:32:31.169836 13362 net.cpp:91] Creating Layer drop1_left_mouth_confidence
I0210 07:32:31.169838 13362 net.cpp:425] drop1_left_mouth_confidence <- fc1_left_mouth_confidence
I0210 07:32:31.169842 13362 net.cpp:386] drop1_left_mouth_confidence -> fc1_left_mouth_confidence (in-place)
I0210 07:32:31.169857 13362 net.cpp:141] Setting up drop1_left_mouth_confidence
I0210 07:32:31.169860 13362 net.cpp:148] Top shape: 128 156 (19968)
I0210 07:32:31.169862 13362 net.cpp:156] Memory required for data: 875225100
I0210 07:32:31.169864 13362 layer_factory.hpp:77] Creating layer fc2_left_mouth_confidence
I0210 07:32:31.169870 13362 net.cpp:91] Creating Layer fc2_left_mouth_confidence
I0210 07:32:31.169872 13362 net.cpp:425] fc2_left_mouth_confidence <- fc1_left_mouth_confidence
I0210 07:32:31.169876 13362 net.cpp:399] fc2_left_mouth_confidence -> fc2_left_mouth_confidence
I0210 07:32:31.169953 13362 net.cpp:141] Setting up fc2_left_mouth_confidence
I0210 07:32:31.169958 13362 net.cpp:148] Top shape: 128 1 (128)
I0210 07:32:31.169960 13362 net.cpp:156] Memory required for data: 875225612
I0210 07:32:31.169965 13362 layer_factory.hpp:77] Creating layer loss_left_mouth_confidence
I0210 07:32:31.169970 13362 net.cpp:91] Creating Layer loss_left_mouth_confidence
I0210 07:32:31.169971 13362 net.cpp:425] loss_left_mouth_confidence <- fc2_left_mouth_confidence
I0210 07:32:31.169975 13362 net.cpp:425] loss_left_mouth_confidence <- mouth_visibility_left
I0210 07:32:31.169980 13362 net.cpp:399] loss_left_mouth_confidence -> loss_left_mouth_confidence
I0210 07:32:31.170004 13362 net.cpp:141] Setting up loss_left_mouth_confidence
I0210 07:32:31.170009 13362 net.cpp:148] Top shape: (1)
I0210 07:32:31.170011 13362 net.cpp:151]     with loss weight 1
I0210 07:32:31.170016 13362 net.cpp:156] Memory required for data: 875225616
I0210 07:32:31.170018 13362 layer_factory.hpp:77] Creating layer fc1_center_mouth_confidence
I0210 07:32:31.170022 13362 net.cpp:91] Creating Layer fc1_center_mouth_confidence
I0210 07:32:31.170024 13362 net.cpp:425] fc1_center_mouth_confidence <- conv5_relu5_0_split_4
I0210 07:32:31.170030 13362 net.cpp:399] fc1_center_mouth_confidence -> fc1_center_mouth_confidence
I0210 07:32:31.170676 13362 net.cpp:141] Setting up fc1_center_mouth_confidence
I0210 07:32:31.170686 13362 net.cpp:148] Top shape: 128 156 (19968)
I0210 07:32:31.170687 13362 net.cpp:156] Memory required for data: 875305488
I0210 07:32:31.170692 13362 layer_factory.hpp:77] Creating layer relu_center_mouth_confidence
I0210 07:32:31.170697 13362 net.cpp:91] Creating Layer relu_center_mouth_confidence
I0210 07:32:31.170701 13362 net.cpp:425] relu_center_mouth_confidence <- fc1_center_mouth_confidence
I0210 07:32:31.170706 13362 net.cpp:386] relu_center_mouth_confidence -> fc1_center_mouth_confidence (in-place)
I0210 07:32:31.170711 13362 net.cpp:141] Setting up relu_center_mouth_confidence
I0210 07:32:31.170716 13362 net.cpp:148] Top shape: 128 156 (19968)
I0210 07:32:31.170717 13362 net.cpp:156] Memory required for data: 875385360
I0210 07:32:31.170719 13362 layer_factory.hpp:77] Creating layer drop1_center_mouth_confidence
I0210 07:32:31.170722 13362 net.cpp:91] Creating Layer drop1_center_mouth_confidence
I0210 07:32:31.170725 13362 net.cpp:425] drop1_center_mouth_confidence <- fc1_center_mouth_confidence
I0210 07:32:31.170729 13362 net.cpp:386] drop1_center_mouth_confidence -> fc1_center_mouth_confidence (in-place)
I0210 07:32:31.170742 13362 net.cpp:141] Setting up drop1_center_mouth_confidence
I0210 07:32:31.170747 13362 net.cpp:148] Top shape: 128 156 (19968)
I0210 07:32:31.170749 13362 net.cpp:156] Memory required for data: 875465232
I0210 07:32:31.170752 13362 layer_factory.hpp:77] Creating layer fc2_center_mouth_confidence
I0210 07:32:31.170756 13362 net.cpp:91] Creating Layer fc2_center_mouth_confidence
I0210 07:32:31.170768 13362 net.cpp:425] fc2_center_mouth_confidence <- fc1_center_mouth_confidence
I0210 07:32:31.170773 13362 net.cpp:399] fc2_center_mouth_confidence -> fc2_center_mouth_confidence
I0210 07:32:31.170846 13362 net.cpp:141] Setting up fc2_center_mouth_confidence
I0210 07:32:31.170851 13362 net.cpp:148] Top shape: 128 1 (128)
I0210 07:32:31.170853 13362 net.cpp:156] Memory required for data: 875465744
I0210 07:32:31.170858 13362 layer_factory.hpp:77] Creating layer loss_center_mouth_confidence
I0210 07:32:31.170862 13362 net.cpp:91] Creating Layer loss_center_mouth_confidence
I0210 07:32:31.170866 13362 net.cpp:425] loss_center_mouth_confidence <- fc2_center_mouth_confidence
I0210 07:32:31.170868 13362 net.cpp:425] loss_center_mouth_confidence <- mouth_visibility_center
I0210 07:32:31.170872 13362 net.cpp:399] loss_center_mouth_confidence -> loss_center_mouth_confidence
I0210 07:32:31.170897 13362 net.cpp:141] Setting up loss_center_mouth_confidence
I0210 07:32:31.170902 13362 net.cpp:148] Top shape: (1)
I0210 07:32:31.170903 13362 net.cpp:151]     with loss weight 1
I0210 07:32:31.170908 13362 net.cpp:156] Memory required for data: 875465748
I0210 07:32:31.170910 13362 layer_factory.hpp:77] Creating layer fc1_right_mouth_confidence
I0210 07:32:31.170914 13362 net.cpp:91] Creating Layer fc1_right_mouth_confidence
I0210 07:32:31.170917 13362 net.cpp:425] fc1_right_mouth_confidence <- conv5_relu5_0_split_5
I0210 07:32:31.170922 13362 net.cpp:399] fc1_right_mouth_confidence -> fc1_right_mouth_confidence
I0210 07:32:31.171552 13362 net.cpp:141] Setting up fc1_right_mouth_confidence
I0210 07:32:31.171562 13362 net.cpp:148] Top shape: 128 151 (19328)
I0210 07:32:31.171564 13362 net.cpp:156] Memory required for data: 875543060
I0210 07:32:31.171569 13362 layer_factory.hpp:77] Creating layer relu_right_mouth_confidence
I0210 07:32:31.171574 13362 net.cpp:91] Creating Layer relu_right_mouth_confidence
I0210 07:32:31.171577 13362 net.cpp:425] relu_right_mouth_confidence <- fc1_right_mouth_confidence
I0210 07:32:31.171581 13362 net.cpp:386] relu_right_mouth_confidence -> fc1_right_mouth_confidence (in-place)
I0210 07:32:31.171586 13362 net.cpp:141] Setting up relu_right_mouth_confidence
I0210 07:32:31.171589 13362 net.cpp:148] Top shape: 128 151 (19328)
I0210 07:32:31.171591 13362 net.cpp:156] Memory required for data: 875620372
I0210 07:32:31.171593 13362 layer_factory.hpp:77] Creating layer drop1_right_mouth_confidence
I0210 07:32:31.171598 13362 net.cpp:91] Creating Layer drop1_right_mouth_confidence
I0210 07:32:31.171600 13362 net.cpp:425] drop1_right_mouth_confidence <- fc1_right_mouth_confidence
I0210 07:32:31.171603 13362 net.cpp:386] drop1_right_mouth_confidence -> fc1_right_mouth_confidence (in-place)
I0210 07:32:31.171617 13362 net.cpp:141] Setting up drop1_right_mouth_confidence
I0210 07:32:31.171622 13362 net.cpp:148] Top shape: 128 151 (19328)
I0210 07:32:31.171625 13362 net.cpp:156] Memory required for data: 875697684
I0210 07:32:31.171627 13362 layer_factory.hpp:77] Creating layer fc2_right_mouth_confidence
I0210 07:32:31.171632 13362 net.cpp:91] Creating Layer fc2_right_mouth_confidence
I0210 07:32:31.171634 13362 net.cpp:425] fc2_right_mouth_confidence <- fc1_right_mouth_confidence
I0210 07:32:31.171638 13362 net.cpp:399] fc2_right_mouth_confidence -> fc2_right_mouth_confidence
I0210 07:32:31.171715 13362 net.cpp:141] Setting up fc2_right_mouth_confidence
I0210 07:32:31.171720 13362 net.cpp:148] Top shape: 128 1 (128)
I0210 07:32:31.171722 13362 net.cpp:156] Memory required for data: 875698196
I0210 07:32:31.171726 13362 layer_factory.hpp:77] Creating layer loss_right_mouth_confidence
I0210 07:32:31.171741 13362 net.cpp:91] Creating Layer loss_right_mouth_confidence
I0210 07:32:31.171746 13362 net.cpp:425] loss_right_mouth_confidence <- fc2_right_mouth_confidence
I0210 07:32:31.171751 13362 net.cpp:425] loss_right_mouth_confidence <- mouth_visibility_right
I0210 07:32:31.171756 13362 net.cpp:399] loss_right_mouth_confidence -> loss_right_mouth_confidence
I0210 07:32:31.171804 13362 net.cpp:141] Setting up loss_right_mouth_confidence
I0210 07:32:31.171810 13362 net.cpp:148] Top shape: (1)
I0210 07:32:31.171813 13362 net.cpp:151]     with loss weight 1
I0210 07:32:31.171818 13362 net.cpp:156] Memory required for data: 875698200
I0210 07:32:31.171820 13362 layer_factory.hpp:77] Creating layer fc1_left_eye_coordinate
I0210 07:32:31.171824 13362 net.cpp:91] Creating Layer fc1_left_eye_coordinate
I0210 07:32:31.171828 13362 net.cpp:425] fc1_left_eye_coordinate <- conv5_relu5_0_split_6
I0210 07:32:31.171833 13362 net.cpp:399] fc1_left_eye_coordinate -> fc1_left_eye_coordinate
I0210 07:32:31.173231 13362 net.cpp:141] Setting up fc1_left_eye_coordinate
I0210 07:32:31.173249 13362 net.cpp:148] Top shape: 128 340 (43520)
I0210 07:32:31.173251 13362 net.cpp:156] Memory required for data: 875872280
I0210 07:32:31.173259 13362 layer_factory.hpp:77] Creating layer drop1_left_eye_coordinate
I0210 07:32:31.173266 13362 net.cpp:91] Creating Layer drop1_left_eye_coordinate
I0210 07:32:31.173270 13362 net.cpp:425] drop1_left_eye_coordinate <- fc1_left_eye_coordinate
I0210 07:32:31.173277 13362 net.cpp:386] drop1_left_eye_coordinate -> fc1_left_eye_coordinate (in-place)
I0210 07:32:31.173295 13362 net.cpp:141] Setting up drop1_left_eye_coordinate
I0210 07:32:31.173300 13362 net.cpp:148] Top shape: 128 340 (43520)
I0210 07:32:31.173302 13362 net.cpp:156] Memory required for data: 876046360
I0210 07:32:31.173305 13362 layer_factory.hpp:77] Creating layer fc2_left_eye_coordinate
I0210 07:32:31.173310 13362 net.cpp:91] Creating Layer fc2_left_eye_coordinate
I0210 07:32:31.173312 13362 net.cpp:425] fc2_left_eye_coordinate <- fc1_left_eye_coordinate
I0210 07:32:31.173317 13362 net.cpp:399] fc2_left_eye_coordinate -> fc2_left_eye_coordinate
I0210 07:32:31.173403 13362 net.cpp:141] Setting up fc2_left_eye_coordinate
I0210 07:32:31.173408 13362 net.cpp:148] Top shape: 128 2 (256)
I0210 07:32:31.173409 13362 net.cpp:156] Memory required for data: 876047384
I0210 07:32:31.173414 13362 layer_factory.hpp:77] Creating layer loss_left_eye_coordinate
I0210 07:32:31.173420 13362 net.cpp:91] Creating Layer loss_left_eye_coordinate
I0210 07:32:31.173424 13362 net.cpp:425] loss_left_eye_coordinate <- fc2_left_eye_coordinate
I0210 07:32:31.173429 13362 net.cpp:425] loss_left_eye_coordinate <- left_eye
I0210 07:32:31.173434 13362 net.cpp:399] loss_left_eye_coordinate -> loss_left_eye_coordinate
I0210 07:32:31.173460 13362 net.cpp:141] Setting up loss_left_eye_coordinate
I0210 07:32:31.173463 13362 net.cpp:148] Top shape: (1)
I0210 07:32:31.173465 13362 net.cpp:151]     with loss weight 1
I0210 07:32:31.173472 13362 net.cpp:156] Memory required for data: 876047388
I0210 07:32:31.173475 13362 layer_factory.hpp:77] Creating layer fc1_right_eye_coordinate
I0210 07:32:31.173480 13362 net.cpp:91] Creating Layer fc1_right_eye_coordinate
I0210 07:32:31.173482 13362 net.cpp:425] fc1_right_eye_coordinate <- conv5_relu5_0_split_7
I0210 07:32:31.173487 13362 net.cpp:399] fc1_right_eye_coordinate -> fc1_right_eye_coordinate
I0210 07:32:31.174314 13362 net.cpp:141] Setting up fc1_right_eye_coordinate
I0210 07:32:31.174324 13362 net.cpp:148] Top shape: 128 191 (24448)
I0210 07:32:31.174326 13362 net.cpp:156] Memory required for data: 876145180
I0210 07:32:31.174331 13362 layer_factory.hpp:77] Creating layer drop1_right_eye_coordinate
I0210 07:32:31.174337 13362 net.cpp:91] Creating Layer drop1_right_eye_coordinate
I0210 07:32:31.174340 13362 net.cpp:425] drop1_right_eye_coordinate <- fc1_right_eye_coordinate
I0210 07:32:31.174346 13362 net.cpp:386] drop1_right_eye_coordinate -> fc1_right_eye_coordinate (in-place)
I0210 07:32:31.174361 13362 net.cpp:141] Setting up drop1_right_eye_coordinate
I0210 07:32:31.174367 13362 net.cpp:148] Top shape: 128 191 (24448)
I0210 07:32:31.174368 13362 net.cpp:156] Memory required for data: 876242972
I0210 07:32:31.174371 13362 layer_factory.hpp:77] Creating layer fc2_right_eye_coordinate
I0210 07:32:31.174376 13362 net.cpp:91] Creating Layer fc2_right_eye_coordinate
I0210 07:32:31.174392 13362 net.cpp:425] fc2_right_eye_coordinate <- fc1_right_eye_coordinate
I0210 07:32:31.174396 13362 net.cpp:399] fc2_right_eye_coordinate -> fc2_right_eye_coordinate
I0210 07:32:31.174490 13362 net.cpp:141] Setting up fc2_right_eye_coordinate
I0210 07:32:31.174497 13362 net.cpp:148] Top shape: 128 2 (256)
I0210 07:32:31.174499 13362 net.cpp:156] Memory required for data: 876243996
I0210 07:32:31.174504 13362 layer_factory.hpp:77] Creating layer loss_right_eye_coordinate
I0210 07:32:31.174509 13362 net.cpp:91] Creating Layer loss_right_eye_coordinate
I0210 07:32:31.174511 13362 net.cpp:425] loss_right_eye_coordinate <- fc2_right_eye_coordinate
I0210 07:32:31.174515 13362 net.cpp:425] loss_right_eye_coordinate <- right_eye
I0210 07:32:31.174520 13362 net.cpp:399] loss_right_eye_coordinate -> loss_right_eye_coordinate
I0210 07:32:31.174547 13362 net.cpp:141] Setting up loss_right_eye_coordinate
I0210 07:32:31.174552 13362 net.cpp:148] Top shape: (1)
I0210 07:32:31.174554 13362 net.cpp:151]     with loss weight 1
I0210 07:32:31.174561 13362 net.cpp:156] Memory required for data: 876244000
I0210 07:32:31.174562 13362 layer_factory.hpp:77] Creating layer fc1_nose_coordinate
I0210 07:32:31.174566 13362 net.cpp:91] Creating Layer fc1_nose_coordinate
I0210 07:32:31.174569 13362 net.cpp:425] fc1_nose_coordinate <- conv5_relu5_0_split_8
I0210 07:32:31.174576 13362 net.cpp:399] fc1_nose_coordinate -> fc1_nose_coordinate
I0210 07:32:31.175873 13362 net.cpp:141] Setting up fc1_nose_coordinate
I0210 07:32:31.175884 13362 net.cpp:148] Top shape: 128 345 (44160)
I0210 07:32:31.175887 13362 net.cpp:156] Memory required for data: 876420640
I0210 07:32:31.175894 13362 layer_factory.hpp:77] Creating layer drop1_nose_coordinate
I0210 07:32:31.175900 13362 net.cpp:91] Creating Layer drop1_nose_coordinate
I0210 07:32:31.175904 13362 net.cpp:425] drop1_nose_coordinate <- fc1_nose_coordinate
I0210 07:32:31.175910 13362 net.cpp:386] drop1_nose_coordinate -> fc1_nose_coordinate (in-place)
I0210 07:32:31.175928 13362 net.cpp:141] Setting up drop1_nose_coordinate
I0210 07:32:31.175932 13362 net.cpp:148] Top shape: 128 345 (44160)
I0210 07:32:31.175935 13362 net.cpp:156] Memory required for data: 876597280
I0210 07:32:31.175937 13362 layer_factory.hpp:77] Creating layer fc2_nose_coordinate
I0210 07:32:31.175951 13362 net.cpp:91] Creating Layer fc2_nose_coordinate
I0210 07:32:31.175956 13362 net.cpp:425] fc2_nose_coordinate <- fc1_nose_coordinate
I0210 07:32:31.175962 13362 net.cpp:399] fc2_nose_coordinate -> fc2_nose_coordinate
I0210 07:32:31.176050 13362 net.cpp:141] Setting up fc2_nose_coordinate
I0210 07:32:31.176055 13362 net.cpp:148] Top shape: 128 2 (256)
I0210 07:32:31.176057 13362 net.cpp:156] Memory required for data: 876598304
I0210 07:32:31.176061 13362 layer_factory.hpp:77] Creating layer loss_nose_coordinate
I0210 07:32:31.176067 13362 net.cpp:91] Creating Layer loss_nose_coordinate
I0210 07:32:31.176070 13362 net.cpp:425] loss_nose_coordinate <- fc2_nose_coordinate
I0210 07:32:31.176074 13362 net.cpp:425] loss_nose_coordinate <- nose
I0210 07:32:31.176079 13362 net.cpp:399] loss_nose_coordinate -> loss_nose_coordinate
I0210 07:32:31.176105 13362 net.cpp:141] Setting up loss_nose_coordinate
I0210 07:32:31.176108 13362 net.cpp:148] Top shape: (1)
I0210 07:32:31.176110 13362 net.cpp:151]     with loss weight 1
I0210 07:32:31.176115 13362 net.cpp:156] Memory required for data: 876598308
I0210 07:32:31.176118 13362 layer_factory.hpp:77] Creating layer fc1_left_mouth_coordinate
I0210 07:32:31.176123 13362 net.cpp:91] Creating Layer fc1_left_mouth_coordinate
I0210 07:32:31.176126 13362 net.cpp:425] fc1_left_mouth_coordinate <- conv5_relu5_0_split_9
I0210 07:32:31.176131 13362 net.cpp:399] fc1_left_mouth_coordinate -> fc1_left_mouth_coordinate
I0210 07:32:31.176888 13362 net.cpp:141] Setting up fc1_left_mouth_coordinate
I0210 07:32:31.176898 13362 net.cpp:148] Top shape: 128 180 (23040)
I0210 07:32:31.176899 13362 net.cpp:156] Memory required for data: 876690468
I0210 07:32:31.176904 13362 layer_factory.hpp:77] Creating layer drop1_left_mouth_coordinate
I0210 07:32:31.176923 13362 net.cpp:91] Creating Layer drop1_left_mouth_coordinate
I0210 07:32:31.176926 13362 net.cpp:425] drop1_left_mouth_coordinate <- fc1_left_mouth_coordinate
I0210 07:32:31.176933 13362 net.cpp:386] drop1_left_mouth_coordinate -> fc1_left_mouth_coordinate (in-place)
I0210 07:32:31.176949 13362 net.cpp:141] Setting up drop1_left_mouth_coordinate
I0210 07:32:31.176954 13362 net.cpp:148] Top shape: 128 180 (23040)
I0210 07:32:31.176956 13362 net.cpp:156] Memory required for data: 876782628
I0210 07:32:31.176959 13362 layer_factory.hpp:77] Creating layer fc2_left_mouth_coordinate
I0210 07:32:31.176964 13362 net.cpp:91] Creating Layer fc2_left_mouth_coordinate
I0210 07:32:31.176967 13362 net.cpp:425] fc2_left_mouth_coordinate <- fc1_left_mouth_coordinate
I0210 07:32:31.176972 13362 net.cpp:399] fc2_left_mouth_coordinate -> fc2_left_mouth_coordinate
I0210 07:32:31.177053 13362 net.cpp:141] Setting up fc2_left_mouth_coordinate
I0210 07:32:31.177058 13362 net.cpp:148] Top shape: 128 2 (256)
I0210 07:32:31.177060 13362 net.cpp:156] Memory required for data: 876783652
I0210 07:32:31.177073 13362 layer_factory.hpp:77] Creating layer loss_left_mouth_coordinate
I0210 07:32:31.177078 13362 net.cpp:91] Creating Layer loss_left_mouth_coordinate
I0210 07:32:31.177080 13362 net.cpp:425] loss_left_mouth_coordinate <- fc2_left_mouth_coordinate
I0210 07:32:31.177084 13362 net.cpp:425] loss_left_mouth_coordinate <- left_mouth
I0210 07:32:31.177089 13362 net.cpp:399] loss_left_mouth_coordinate -> loss_left_mouth_coordinate
I0210 07:32:31.177116 13362 net.cpp:141] Setting up loss_left_mouth_coordinate
I0210 07:32:31.177120 13362 net.cpp:148] Top shape: (1)
I0210 07:32:31.177124 13362 net.cpp:151]     with loss weight 1
I0210 07:32:31.177127 13362 net.cpp:156] Memory required for data: 876783656
I0210 07:32:31.177129 13362 layer_factory.hpp:77] Creating layer fc1_center_mouth_coordinate
I0210 07:32:31.177134 13362 net.cpp:91] Creating Layer fc1_center_mouth_coordinate
I0210 07:32:31.177136 13362 net.cpp:425] fc1_center_mouth_coordinate <- conv5_relu5_0_split_10
I0210 07:32:31.177142 13362 net.cpp:399] fc1_center_mouth_coordinate -> fc1_center_mouth_coordinate
I0210 07:32:31.178437 13362 net.cpp:141] Setting up fc1_center_mouth_coordinate
I0210 07:32:31.178450 13362 net.cpp:148] Top shape: 128 358 (45824)
I0210 07:32:31.178452 13362 net.cpp:156] Memory required for data: 876966952
I0210 07:32:31.178458 13362 layer_factory.hpp:77] Creating layer drop1_center_mouth_coordinate
I0210 07:32:31.178464 13362 net.cpp:91] Creating Layer drop1_center_mouth_coordinate
I0210 07:32:31.178467 13362 net.cpp:425] drop1_center_mouth_coordinate <- fc1_center_mouth_coordinate
I0210 07:32:31.178473 13362 net.cpp:386] drop1_center_mouth_coordinate -> fc1_center_mouth_coordinate (in-place)
I0210 07:32:31.178493 13362 net.cpp:141] Setting up drop1_center_mouth_coordinate
I0210 07:32:31.178495 13362 net.cpp:148] Top shape: 128 358 (45824)
I0210 07:32:31.178498 13362 net.cpp:156] Memory required for data: 877150248
I0210 07:32:31.178500 13362 layer_factory.hpp:77] Creating layer fc2_center_mouth_coordinate
I0210 07:32:31.178504 13362 net.cpp:91] Creating Layer fc2_center_mouth_coordinate
I0210 07:32:31.178508 13362 net.cpp:425] fc2_center_mouth_coordinate <- fc1_center_mouth_coordinate
I0210 07:32:31.178513 13362 net.cpp:399] fc2_center_mouth_coordinate -> fc2_center_mouth_coordinate
I0210 07:32:31.178594 13362 net.cpp:141] Setting up fc2_center_mouth_coordinate
I0210 07:32:31.178598 13362 net.cpp:148] Top shape: 128 2 (256)
I0210 07:32:31.178601 13362 net.cpp:156] Memory required for data: 877151272
I0210 07:32:31.178604 13362 layer_factory.hpp:77] Creating layer loss_center_mouth_coordinate
I0210 07:32:31.178611 13362 net.cpp:91] Creating Layer loss_center_mouth_coordinate
I0210 07:32:31.178612 13362 net.cpp:425] loss_center_mouth_coordinate <- fc2_center_mouth_coordinate
I0210 07:32:31.178616 13362 net.cpp:425] loss_center_mouth_coordinate <- center_mouth
I0210 07:32:31.178619 13362 net.cpp:399] loss_center_mouth_coordinate -> loss_center_mouth_coordinate
I0210 07:32:31.178658 13362 net.cpp:141] Setting up loss_center_mouth_coordinate
I0210 07:32:31.178661 13362 net.cpp:148] Top shape: (1)
I0210 07:32:31.178663 13362 net.cpp:151]     with loss weight 1
I0210 07:32:31.178670 13362 net.cpp:156] Memory required for data: 877151276
I0210 07:32:31.178673 13362 layer_factory.hpp:77] Creating layer fc1_right_mouth_coordinate
I0210 07:32:31.178676 13362 net.cpp:91] Creating Layer fc1_right_mouth_coordinate
I0210 07:32:31.178679 13362 net.cpp:425] fc1_right_mouth_coordinate <- conv5_relu5_0_split_11
I0210 07:32:31.178684 13362 net.cpp:399] fc1_right_mouth_coordinate -> fc1_right_mouth_coordinate
I0210 07:32:31.179601 13362 net.cpp:141] Setting up fc1_right_mouth_coordinate
I0210 07:32:31.179610 13362 net.cpp:148] Top shape: 128 232 (29696)
I0210 07:32:31.179612 13362 net.cpp:156] Memory required for data: 877270060
I0210 07:32:31.179617 13362 layer_factory.hpp:77] Creating layer drop1_right_mouth_coordinate
I0210 07:32:31.179632 13362 net.cpp:91] Creating Layer drop1_right_mouth_coordinate
I0210 07:32:31.179636 13362 net.cpp:425] drop1_right_mouth_coordinate <- fc1_right_mouth_coordinate
I0210 07:32:31.179641 13362 net.cpp:386] drop1_right_mouth_coordinate -> fc1_right_mouth_coordinate (in-place)
I0210 07:32:31.179656 13362 net.cpp:141] Setting up drop1_right_mouth_coordinate
I0210 07:32:31.179661 13362 net.cpp:148] Top shape: 128 232 (29696)
I0210 07:32:31.179662 13362 net.cpp:156] Memory required for data: 877388844
I0210 07:32:31.179664 13362 layer_factory.hpp:77] Creating layer fc2_right_mouth_coordinate
I0210 07:32:31.179671 13362 net.cpp:91] Creating Layer fc2_right_mouth_coordinate
I0210 07:32:31.179674 13362 net.cpp:425] fc2_right_mouth_coordinate <- fc1_right_mouth_coordinate
I0210 07:32:31.179678 13362 net.cpp:399] fc2_right_mouth_coordinate -> fc2_right_mouth_coordinate
I0210 07:32:31.179760 13362 net.cpp:141] Setting up fc2_right_mouth_coordinate
I0210 07:32:31.179765 13362 net.cpp:148] Top shape: 128 2 (256)
I0210 07:32:31.179769 13362 net.cpp:156] Memory required for data: 877389868
I0210 07:32:31.179772 13362 layer_factory.hpp:77] Creating layer loss_right_mouth_coordinate
I0210 07:32:31.179775 13362 net.cpp:91] Creating Layer loss_right_mouth_coordinate
I0210 07:32:31.179778 13362 net.cpp:425] loss_right_mouth_coordinate <- fc2_right_mouth_coordinate
I0210 07:32:31.179782 13362 net.cpp:425] loss_right_mouth_coordinate <- right_mouth
…
