…
  top: "left_eye"
  top: "right_eye"
  top: "nose"
  top: "left_mouth"
  top: "center_mouth"
  top: "right_mouth"
  top: "eye_visibility_left"
  top: "eye_visibility_right"
  top: "nose_visibility"
  top: "mouth_visibility_left"
  top: "mouth_visibility_center"
  top: "mouth_visibility_right"
  include {
    phase: TRAIN
  }
  hdf5_data_param {
    source: "/home/wzleong/Downloads/nottingham_with_scaling_eye_nose_mouth/hdf5_complete/train_scaled_mean_subtracted_own_data_multiple_label_complete_data_list.txt"
    batch_size: 128
    shuffle: true
  }
}
layer {
  name: "conv1"
  type: "Convolution"
  bottom: "data"
  top: "conv1"
  param {
    lr_mult: 0
    decay_mult: 0
  }
  param {
    lr_mult: 0
    decay_mult: 0
  }
  convolution_param {
    num_output: 32
    pad: 0
    kernel_size: 13
    stride: 2
  }
}
layer {
  name: "relu1"
  type: "ReLU"
  bottom: "conv1"
  top: "conv1"
}
layer {
  name: "pool1"
  type: "Pooling"
  bottom: "conv1"
  top: "pool1"
  pooling_param {
    pool: MAX
    kernel_size: 2
    stride: 2
  }
}
layer {
  name: "conv2_1"
  type: "Convolution"
  bottom: "pool1"
  top: "conv2_1"
  param {
    lr_mult: 1
    decay_mult: 1
  }
  param {
    lr_mult: 2
    decay_mult: 0
  }
  convolution_param {
    num_output: 32
    pad: 0
    kernel_size: 3
    stride: 1
  }
}
layer {
  name: "relu2_1"
  type: "ReLU"
  bottom: "conv2_1"
  top: "conv2_1"
}
layer {
  name: "conv2_2"
  type: "Convolution"
  bottom: "conv2_1"
  top: "conv2_2"
  param {
    lr_mult: 1
    decay_mult: 1
  }
  param {
    lr_mult: 2
    decay_mult: 0
  }
  convolution_param {
    num_output: 32
    pad: 0
    kernel_size: 3
    stride: 1
  }
}
layer {
  name: "relu2_2"
  type: "ReLU"
  bottom: "conv2_2"
  top: "conv2_2"
}
layer {
  name: "conv2_3"
  type: "Convolution"
  bottom: "conv2_2"
  top: "conv2_3"
  param {
    lr_mult: 1
    decay_mult: 1
  }
  param {
    lr_mult: 2
    decay_mult: 0
  }
  convolution_param {
    num_output: 32
    pad: 0
    kernel_size: 3
    stride: 1
  }
}
layer {
  name: "relu2_3"
  type: "ReLU"
  bottom: "conv2_3"
  top: "conv2_3"
}
layer {
  name: "conv2_4"
  type: "Convolution"
  bottom: "conv2_3"
  top: "conv2_4"
  param {
    lr_mult: 1
    decay_mult: 1
  }
  param {
    lr_mult: 2
    decay_mult: 0
  }
  convolution_param {
    num_output: 32
    pad: 0
    kernel_size: 3
    stride: 1
  }
}
layer {
  name: "relu2_4"
  type: "ReLU"
  bottom: "conv2_4"
  top: "conv2_4"
}
layer {
  name: "conv2_sub"
  type: "Convolution"
  bottom: "pool1"
  top: "conv2_sub"
  param {
    lr_mult: 1
    decay_mult: 1
  }
  param {
    lr_mult: 2
    decay_mult: 0
  }
  convolution_param {
    num_output: 32
    pad: 0
    kernel_size: 3
    stride: 1
    dilation: 4
  }
}
layer {
  name: "relu2_sub"
  type: "ReLU"
  bottom: "conv2_sub"
  top: "conv2_sub"
}
layer {
  name: "concat_conv2"
  type: "Concat"
  bottom: "conv2_sub"
  bottom: "conv2_4"
  top: "concat_conv2"
  concat_param {
    axis: 1
  }
}
layer {
  name: "pool2"
  type: "Pooling"
  bottom: "concat_conv2"
  top: "pool2"
  pooling_param {
    pool: MAX
    kernel_size: 2
    stride: 2
  }
}
layer {
  name: "conv3_1"
  type: "Convolution"
  bottom: "pool2"
  top: "conv3_1"
  param {
    lr_mult: 1
    decay_mult: 1
  }
  param {
    lr_mult: 2
    decay_mult: 0
  }
  convolution_param {
    num_output: 32
    pad: 0
    kernel_size: 3
    stride: 1
  }
}
layer {
  name: "relu3_1"
  type: "ReLU"
  bottom: "conv3_1"
  top: "conv3_1"
}
layer {
  name: "conv3_2"
  type: "Convolution"
  bottom: "conv3_1"
  top: "conv3_2"
  param {
    lr_mult: 1
    decay_mult: 1
  }
  param {
    lr_mult: 2
    decay_mult: 0
  }
  convolution_param {
    num_output: 64
    pad: 0
    kernel_size: 3
    stride: 1
  }
}
layer {
  name: "relu3_2"
  type: "ReLU"
  bottom: "conv3_2"
  top: "conv3_2"
}
layer {
  name: "conv3_sub"
  type: "Convolution"
  bottom: "pool2"
  top: "conv3_sub"
  param {
    lr_mult: 1
    decay_mult: 1
  }
  param {
    lr_mult: 2
    decay_mult: 0
  }
  convolution_param {
    num_output: 64
    pad: 0
    kernel_size: 3
    stride: 1
    dilation: 2
  }
}
layer {
  name: "relu3_sub"
  type: "ReLU"
  bottom: "conv3_sub"
  top: "conv3_sub"
}
layer {
  name: "concat_conv3"
  type: "Concat"
  bottom: "conv3_sub"
  bottom: "conv3_2"
  top: "concat_conv3"
  concat_param {
    axis: 1
  }
}
layer {
  name: "pool3"
  type: "Pooling"
  bottom: "concat_conv3"
  top: "pool3"
  pooling_param {
    pool: MAX
    kernel_size: 2
    stride: 2
  }
}
layer {
  name: "conv4_1"
  type: "Convolution"
  bottom: "pool3"
  top: "conv4_1"
  param {
    lr_mult: 1
    decay_mult: 1
  }
  param {
    lr_mult: 2
    decay_mult: 0
  }
  convolution_param {
    num_output: 64
    pad: 0
    kernel_size: 3
    stride: 1
  }
}
layer {
  name: "relu4_1"
  type: "ReLU"
  bottom: "conv4_1"
  top: "conv4_1"
}
layer {
  name: "conv4_2"
  type: "Convolution"
  bottom: "conv4_1"
  top: "conv4_2"
  param {
    lr_mult: 1
    decay_mult: 1
  }
  param {
    lr_mult: 2
    decay_mult: 0
  }
  convolution_param {
    num_output: 128
    pad: 0
    kernel_size: 3
    stride: 1
  }
}
layer {
  name: "relu4_2"
  type: "ReLU"
  bottom: "conv4_2"
  top: "conv4_2"
}
layer {
  name: "conv4_3"
  type: "Convolution"
  bottom: "conv4_2"
  top: "conv4_3"
  param {
    lr_mult: 1
    decay_mult: 1
  }
  param {
    lr_mult: 2
    decay_mult: 0
  }
  convolution_param {
    num_output: 128
    pad: 0
    kernel_size: 3
    stride: 1
  }
}
layer {
  name: "relu4_3"
  type: "ReLU"
  bottom: "conv4_3"
  top: "conv4_3"
}
layer {
  name: "conv5"
  type: "Convolution"
  bottom: "conv4_3"
  top: "conv5"
  param {
    lr_mult: 1
    decay_mult: 1
  }
  param {
    lr_mult: 2
    decay_mult: 0
  }
  convolution_param {
    num_output: 512
    pad: 0
    kernel_size: 1
    stride: 1
  }
}
layer {
  name: "relu5"
  type: "ReLU"
  bottom: "conv5"
  top: "conv5"
}
layer {
  name: "fc1_left_eye_confidence"
  type: "InnerProduct"
  bottom: "conv5"
  top: "fc1_left_eye_confidence"
  param {
    lr_mult: 1
    decay_mult: 1
  }
  param {
    lr_mult: 2
    decay_mult: 0
  }
  inner_product_param {
    num_output: 256
  }
}
layer {
  name: "relu_left_eye_confidence"
  type: "ReLU"
  bottom: "fc1_left_eye_confidence"
  top: "fc1_left_eye_confidence"
}
layer {
  name: "drop1_left_eye_confidence"
  type: "Dropout"
  bottom: "fc1_left_eye_confidence"
  top: "fc1_left_eye_confidence"
  dropout_param {
    dropout_ratio: 0.5
  }
}
layer {
  name: "fc2_left_eye_confidence"
  type: "InnerProduct"
  bottom: "fc1_left_eye_confidence"
  top: "fc2_left_eye_confidence"
  param {
    lr_mult: 1
    decay_mult: 1
  }
  param {
    lr_mult: 2
    decay_mult: 0
  }
  inner_product_param {
    num_output: 1
  }
}
layer {
  name: "loss_left_eye_confidence"
  type: "EuclideanLoss"
  bottom: "fc2_left_eye_confidence"
  bottom: "eye_visibility_left"
  top: "loss_left_eye_confidence"
}
layer {
  name: "fc1_right_eye_confidence"
  type: "InnerProduct"
  bottom: "conv5"
  top: "fc1_right_eye_confidence"
  param {
    lr_mult: 1
    decay_mult: 1
  }
  param {
    lr_mult: 2
    decay_mult: 0
  }
  inner_product_param {
    num_output: 256
  }
}
layer {
  name: "relu_right_eye_confidence"
  type: "ReLU"
  bottom: "fc1_right_eye_confidence"
  top: "fc1_right_eye_confidence"
}
layer {
  name: "drop1_right_eye_confidence"
  type: "Dropout"
  bottom: "fc1_right_eye_confidence"
  top: "fc1_right_eye_confidence"
  dropout_param {
    dropout_ratio: 0.5
  }
}
layer {
  name: "fc2_right_eye_confidence"
  type: "InnerProduct"
  bottom: "fc1_right_eye_confidence"
  top: "fc2_right_eye_confidence"
  param {
    lr_mult: 1
    decay_mult: 1
  }
  param {
    lr_mult: 2
    decay_mult: 0
  }
  inner_product_param {
    num_output: 1
  }
}
layer {
  name: "loss_right_eye_confidence"
  type: "EuclideanLoss"
  bottom: "fc2_right_eye_confidence"
  bottom: "eye_visibility_right"
  top: "loss_right_eye_confidence"
}
layer {
  name: "fc1_nose_confidence"
  type: "InnerProduct"
  bottom: "conv5"
  top: "fc1_nose_confidence"
  param {
    lr_mult: 1
    decay_mult: 1
  }
  param {
    lr_mult: 2
    decay_mult: 0
  }
  inner_product_param {
    num_output: 256
  }
}
layer {
  name: "relu_nose_confidence"
  type: "ReLU"
  bottom: "fc1_nose_confidence"
  top: "fc1_nose_confidence"
}
layer {
  name: "drop1_nose_confidence"
  type: "Dropout"
  bottom: "fc1_nose_confidence"
  top: "fc1_nose_confidence"
  dropout_param {
    dropout_ratio: 0.5
  }
}
layer {
  name: "fc2_nose_confidence"
  type: "InnerProduct"
  bottom: "fc1_nose_confidence"
  top: "fc2_nose_confidence"
  param {
    lr_mult: 1
    decay_mult: 1
  }
  param {
    lr_mult: 2
    decay_mult: 0
  }
  inner_product_param {
    num_output: 1
  }
}
layer {
  name: "loss_nose_confidence"
  type: "EuclideanLoss"
  bottom: "fc2_nose_confidence"
  bottom: "nose_visibility"
  top: "loss_nose_confidence"
}
layer {
  name: "fc1_left_mouth_confidence"
  type: "InnerProduct"
  bottom: "conv5"
  top: "fc1_left_mouth_confidence"
  param {
    lr_mult: 1
    decay_mult: 1
  }
  param {
    lr_mult: 2
    decay_mult: 0
  }
  inner_product_param {
    num_output: 256
  }
}
layer {
  name: "relu_left_mouth_confidence"
  type: "ReLU"
  bottom: "fc1_left_mouth_confidence"
  top: "fc1_left_mouth_confidence"
}
layer {
  name: "drop1_left_mouth_confidence"
  type: "Dropout"
  bottom: "fc1_left_mouth_confidence"
  top: "fc1_left_mouth_confidence"
  dropout_param {
    dropout_ratio: 0.5
  }
}
layer {
  name: "fc2_left_mouth_confidence"
  type: "InnerProduct"
  bottom: "fc1_left_mouth_confidence"
  top: "fc2_left_mouth_confidence"
  param {
    lr_mult: 1
    decay_mult: 1
  }
  param {
    lr_mult: 2
    decay_mult: 0
  }
  inner_product_param {
    num_output: 1
  }
}
layer {
  name: "loss_left_mouth_confidence"
  type: "EuclideanLoss"
  bottom: "fc2_left_mouth_confidence"
  bottom: "mouth_visibility_left"
  top: "loss_left_mouth_confidence"
}
layer {
  name: "fc1_center_mouth_confidence"
  type: "InnerProduct"
  bottom: "conv5"
  top: "fc1_center_mouth_confidence"
  param {
    lr_mult: 1
    decay_mult: 1
  }
  param {
    lr_mult: 2
    decay_mult: 0
  }
  inner_product_param {
    num_output: 256
  }
}
layer {
  name: "relu_center_mouth_confidence"
  type: "ReLU"
  bottom: "fc1_center_mouth_confidence"
  top: "fc1_center_mouth_confidence"
}
layer {
  name: "drop1_center_mouth_confidence"
  type: "Dropout"
  bottom: "fc1_center_mouth_confidence"
  top: "fc1_center_mouth_confidence"
  dropout_param {
    dropout_ratio: 0.5
  }
}
layer {
  name: "fc2_center_mouth_confidence"
  type: "InnerProduct"
  bottom: "fc1_center_mouth_confidence"
  top: "fc2_center_mouth_confidence"
  param {
    lr_mult: 1
    decay_mult: 1
  }
  param {
    lr_mult: 2
    decay_mult: 0
  }
  inner_product_param {
    num_output: 1
  }
}
layer {
  name: "loss_center_mouth_confidence"
  type: "EuclideanLoss"
  bottom: "fc2_center_mouth_confidence"
  bottom: "mouth_visibility_center"
  top: "loss_center_mouth_confidence"
}
layer {
  name: "fc1_right_mouth_confidence"
  type: "InnerProduct"
  bottom: "conv5"
  top: "fc1_right_mouth_confidence"
  param {
    lr_mult: 1
    decay_mult: 1
  }
  param {
    lr_mult: 2
    decay_mult: 0
  }
  inner_product_param {
    num_output: 256
  }
}
layer {
  name: "relu_right_mouth_confidence"
  type: "ReLU"
  bottom: "fc1_right_mouth_confidence"
  top: "fc1_right_mouth_confidence"
}
layer {
  name: "drop1_right_mouth_confidence"
  type: "Dropout"
  bottom: "fc1_right_mouth_confidence"
  top: "fc1_right_mouth_confidence"
  dropout_param {
    dropout_ratio: 0.5
  }
}
layer {
  name: "fc2_right_mouth_confidence"
  type: "InnerProduct"
  bottom: "fc1_right_mouth_confidence"
  top: "fc2_right_mouth_confidence"
  param {
    lr_mult: 1
    decay_mult: 1
  }
  param {
    lr_mult: 2
    decay_mult: 0
  }
  inner_product_param {
    num_output: 1
  }
}
layer {
  name: "loss_right_mouth_confidence"
  type: "EuclideanLoss"
  bottom: "fc2_right_mouth_confidence"
  bottom: "mouth_visibility_right"
  top: "loss_right_mouth_confidence"
}
layer {
  name: "fc1_left_eye_coordinate"
  type: "InnerProduct"
  bottom: "conv5"
  top: "fc1_left_eye_coordinate"
  param {
    lr_mult: 1
    decay_mult: 1
  }
  param {
    lr_mult: 2
    decay_mult: 0
  }
  inner_product_param {
    num_output: 512
    weight_filler {
      type: "xavier"
    }
    bias_filler {
      type: "constant"
    }
  }
}
layer {
  name: "drop1_left_eye_coordinate"
  type: "Dropout"
  bottom: "fc1_left_eye_coordinate"
  top: "fc1_left_eye_coordinate"
  dropout_param {
    dropout_ratio: 0.5
  }
}
layer {
  name: "fc2_left_eye_coordinate"
  type: "InnerProduct"
  bottom: "fc1_left_eye_coordinate"
  top: "fc2_left_eye_coordinate"
  param {
    lr_mult: 1
    decay_mult: 1
  }
  param {
    lr_mult: 2
    decay_mult: 0
  }
  inner_product_param {
    num_output: 2
    weight_filler {
      type: "xavier"
    }
    bias_filler {
      type: "constant"
    }
  }
}
layer {
  name: "loss_left_eye_coordinate"
  type: "EuclideanLoss"
  bottom: "fc2_left_eye_coordinate"
  bottom: "left_eye"
  top: "loss_left_eye_coordinate"
}
layer {
  name: "fc1_right_eye_coordinate"
  type: "InnerProduct"
  bottom: "conv5"
  top: "fc1_right_eye_coordinate"
  param {
    lr_mult: 1
    decay_mult: 1
  }
  param {
    lr_mult: 2
    decay_mult: 0
  }
  inner_product_param {
    num_output: 512
    weight_filler {
      type: "xavier"
    }
    bias_filler {
      type: "constant"
    }
  }
}
layer {
  name: "drop1_right_eye_coordinate"
  type: "Dropout"
  bottom: "fc1_right_eye_coordinate"
  top: "fc1_right_eye_coordinate"
  dropout_param {
    dropout_ratio: 0.5
  }
}
layer {
  name: "fc2_right_eye_coordinate"
  type: "InnerProduct"
  bottom: "fc1_right_eye_coordinate"
  top: "fc2_right_eye_coordinate"
  param {
    lr_mult: 1
    decay_mult: 1
  }
  param {
    lr_mult: 2
    decay_mult: 0
  }
  inner_product_param {
    num_output: 2
    weight_filler {
      type: "xavier"
    }
    bias_filler {
      type: "constant"
    }
  }
}
layer {
  name: "loss_right_eye_coordinate"
  type: "EuclideanLoss"
  bottom: "fc2_right_eye_coordinate"
  bottom: "right_eye"
  top: "loss_right_eye_coordinate"
}
layer {
  name: "fc1_nose_coordinate"
  type: "InnerProduct"
  bottom: "conv5"
  top: "fc1_nose_coordinate"
  param {
    lr_mult: 1
    decay_mult: 1
  }
  param {
    lr_mult: 2
    decay_mult: 0
  }
  inner_product_param {
    num_output: 512
    weight_filler {
      type: "xavier"
    }
    bias_filler {
      type: "constant"
    }
  }
}
layer {
  name: "drop1_nose_coordinate"
  type: "Dropout"
  bottom: "fc1_nose_coordinate"
  top: "fc1_nose_coordinate"
  dropout_param {
    dropout_ratio: 0.5
  }
}
layer {
  name: "fc2_nose_coordinate"
  type: "InnerProduct"
  bottom: "fc1_nose_coordinate"
  top: "fc2_nose_coordinate"
  param {
    lr_mult: 1
    decay_mult: 1
  }
  param {
    lr_mult: 2
    decay_mult: 0
  }
  inner_product_param {
    num_output: 2
    weight_filler {
      type: "xavier"
    }
    bias_filler {
      type: "constant"
    }
  }
}
layer {
  name: "loss_nose_coordinate"
  type: "EuclideanLoss"
  bottom: "fc2_nose_coordinate"
  bottom: "nose"
  top: "loss_nose_coordinate"
}
layer {
  name: "fc1_left_mouth_coordinate"
  type: "InnerProduct"
  bottom: "conv5"
  top: "fc1_left_mouth_coordinate"
  param {
    lr_mult: 1
    decay_mult: 1
  }
  param {
    lr_mult: 2
    decay_mult: 0
  }
  inner_product_param {
    num_output: 512
    weight_filler {
      type: "xavier"
    }
    bias_filler {
      type: "constant"
    }
  }
}
layer {
  name: "drop1_left_mouth_coordinate"
  type: "Dropout"
  bottom: "fc1_left_mouth_coordinate"
  top: "fc1_left_mouth_coordinate"
  dropout_param {
    dropout_ratio: 0.5
  }
}
layer {
  name: "fc2_left_mouth_coordinate"
  type: "InnerProduct"
  bottom: "fc1_left_mouth_coordinate"
  top: "fc2_left_mouth_coordinate"
  param {
    lr_mult: 1
    decay_mult: 1
  }
  param {
    lr_mult: 2
    decay_mult: 0
  }
  inner_product_param {
    num_output: 2
    weight_filler {
      type: "xavier"
    }
    bias_filler {
      type: "constant"
    }
  }
}
layer {
  name: "loss_left_mouth_coordinate"
  type: "EuclideanLoss"
  bottom: "fc2_left_mouth_coordinate"
  bottom: "left_mouth"
  top: "loss_left_mouth_coordinate"
}
layer {
  name: "fc1_center_mouth_coordinate"
  type: "InnerProduct"
  bottom: "conv5"
  top: "fc1_center_mouth_coordinate"
  param {
    lr_mult: 1
    decay_mult: 1
  }
  param {
    lr_mult: 2
    decay_mult: 0
  }
  inner_product_param {
    num_output: 512
    weight_filler {
      type: "xavier"
    }
    bias_filler {
      type: "constant"
    }
  }
}
layer {
  name: "drop1_center_mouth_coordinate"
  type: "Dropout"
  bottom: "fc1_center_mouth_coordinate"
  top: "fc1_center_mouth_coordinate"
  dropout_param {
    dropout_ratio: 0.5
  }
}
layer {
  name: "fc2_center_mouth_coordinate"
  type: "InnerProduct"
  bottom: "fc1_center_mouth_coordinate"
  top: "fc2_center_mouth_coordinate"
  param {
    lr_mult: 1
    decay_mult: 1
  }
  param {
    lr_mult: 2
    decay_mult: 0
  }
  inner_product_param {
    num_output: 2
    weight_filler {
      type: "xavier"
    }
    bias_filler {
      type: "constant"
    }
  }
}
layer {
  name: "loss_center_mouth_coordinate"
  type: "EuclideanLoss"
  bottom: "fc2_center_mouth_coordinate"
  bottom: "center_mouth"
  top: "loss_center_mouth_coordinate"
}
layer {
  name: "fc1_right_mouth_coordinate"
  type: "InnerProduct"
  bottom: "conv5"
  top: "fc1_right_mouth_coordinate"
  param {
    lr_mult: 1
    decay_mult: 1
  }
  param {
    lr_mult: 2
    decay_mult: 0
  }
  inner_product_param {
    num_output: 512
    weight_filler {
      type: "xavier"
    }
    bias_filler {
      type: "constant"
    }
  }
}
layer {
  name: "drop1_right_mouth_coordinate"
  type: "Dropout"
  bottom: "fc1_right_mouth_coordinate"
  top: "fc1_right_mouth_coordinate"
  dropout_param {
    dropout_ratio: 0.5
  }
}
layer {
  name: "fc2_right_mouth_coordinate"
  type: "InnerProduct"
  bottom: "fc1_right_mouth_coordinate"
  top: "fc2_right_mouth_coordinate"
  param {
    lr_mult: 1
    decay_mult: 1
  }
  param {
    lr_mult: 2
    decay_mult: 0
  }
  inner_product_param {
    num_output: 2
    weight_filler {
      type: "xavier"
    }
    bias_filler {
      type: "constant"
    }
  }
}
layer {
  name: "loss_right_mouth_coordinate"
  type: "EuclideanLoss"
  bottom: "fc2_right_mouth_coordinate"
  bottom: "right_mouth"
  top: "loss_right_mouth_coordinate"
}
I0209 18:50:48.434742  5886 layer_factory.hpp:77] Creating layer data
I0209 18:50:48.434758  5886 net.cpp:91] Creating Layer data
I0209 18:50:48.434764  5886 net.cpp:399] data -> data
I0209 18:50:48.434785  5886 net.cpp:399] data -> left_eye
I0209 18:50:48.434795  5886 net.cpp:399] data -> right_eye
I0209 18:50:48.434803  5886 net.cpp:399] data -> nose
I0209 18:50:48.434808  5886 net.cpp:399] data -> left_mouth
I0209 18:50:48.434815  5886 net.cpp:399] data -> center_mouth
I0209 18:50:48.434821  5886 net.cpp:399] data -> right_mouth
I0209 18:50:48.434828  5886 net.cpp:399] data -> eye_visibility_left
I0209 18:50:48.434834  5886 net.cpp:399] data -> eye_visibility_right
I0209 18:50:48.434840  5886 net.cpp:399] data -> nose_visibility
I0209 18:50:48.434845  5886 net.cpp:399] data -> mouth_visibility_left
I0209 18:50:48.434851  5886 net.cpp:399] data -> mouth_visibility_center
I0209 18:50:48.434856  5886 net.cpp:399] data -> mouth_visibility_right
I0209 18:50:48.434862  5886 hdf5_data_layer.cpp:79] Loading list of HDF5 filenames from: /home/wzleong/Downloads/nottingham_with_scaling_eye_nose_mouth/hdf5_complete/train_scaled_mean_subtracted_own_data_multiple_label_complete_data_list.txt
I0209 18:50:48.434898  5886 hdf5_data_layer.cpp:93] Number of HDF5 files: 8
I0209 18:50:48.435641  5886 hdf5.cpp:32] Datatype class: H5T_FLOAT
I0209 18:50:48.721294  5886 net.cpp:141] Setting up data
I0209 18:50:48.721318  5886 net.cpp:148] Top shape: 128 1 200 200 (5120000)
I0209 18:50:48.721321  5886 net.cpp:148] Top shape: 128 2 (256)
I0209 18:50:48.721325  5886 net.cpp:148] Top shape: 128 2 (256)
I0209 18:50:48.721328  5886 net.cpp:148] Top shape: 128 2 (256)
I0209 18:50:48.721331  5886 net.cpp:148] Top shape: 128 2 (256)
I0209 18:50:48.721333  5886 net.cpp:148] Top shape: 128 2 (256)
I0209 18:50:48.721336  5886 net.cpp:148] Top shape: 128 2 (256)
I0209 18:50:48.721339  5886 net.cpp:148] Top shape: 128 1 (128)
I0209 18:50:48.721343  5886 net.cpp:148] Top shape: 128 1 (128)
I0209 18:50:48.721344  5886 net.cpp:148] Top shape: 128 1 (128)
I0209 18:50:48.721349  5886 net.cpp:148] Top shape: 128 1 (128)
I0209 18:50:48.721350  5886 net.cpp:148] Top shape: 128 1 (128)
I0209 18:50:48.721354  5886 net.cpp:148] Top shape: 128 1 (128)
I0209 18:50:48.721355  5886 net.cpp:156] Memory required for data: 20489216
I0209 18:50:48.721362  5886 layer_factory.hpp:77] Creating layer conv1
I0209 18:50:48.721379  5886 net.cpp:91] Creating Layer conv1
I0209 18:50:48.721384  5886 net.cpp:425] conv1 <- data
I0209 18:50:48.721393  5886 net.cpp:399] conv1 -> conv1
I0209 18:50:48.721590  5886 net.cpp:141] Setting up conv1
I0209 18:50:48.721597  5886 net.cpp:148] Top shape: 128 32 94 94 (36192256)
I0209 18:50:48.721599  5886 net.cpp:156] Memory required for data: 165258240
I0209 18:50:48.721614  5886 layer_factory.hpp:77] Creating layer relu1
I0209 18:50:48.721621  5886 net.cpp:91] Creating Layer relu1
I0209 18:50:48.721623  5886 net.cpp:425] relu1 <- conv1
I0209 18:50:48.721628  5886 net.cpp:386] relu1 -> conv1 (in-place)
I0209 18:50:48.721633  5886 net.cpp:141] Setting up relu1
I0209 18:50:48.721637  5886 net.cpp:148] Top shape: 128 32 94 94 (36192256)
I0209 18:50:48.721639  5886 net.cpp:156] Memory required for data: 310027264
I0209 18:50:48.721642  5886 layer_factory.hpp:77] Creating layer pool1
I0209 18:50:48.721647  5886 net.cpp:91] Creating Layer pool1
I0209 18:50:48.721649  5886 net.cpp:425] pool1 <- conv1
I0209 18:50:48.721654  5886 net.cpp:399] pool1 -> pool1
I0209 18:50:48.721698  5886 net.cpp:141] Setting up pool1
I0209 18:50:48.721702  5886 net.cpp:148] Top shape: 128 32 47 47 (9048064)
I0209 18:50:48.721705  5886 net.cpp:156] Memory required for data: 346219520
I0209 18:50:48.721707  5886 layer_factory.hpp:77] Creating layer pool1_pool1_0_split
I0209 18:50:48.721712  5886 net.cpp:91] Creating Layer pool1_pool1_0_split
I0209 18:50:48.721715  5886 net.cpp:425] pool1_pool1_0_split <- pool1
I0209 18:50:48.721719  5886 net.cpp:399] pool1_pool1_0_split -> pool1_pool1_0_split_0
I0209 18:50:48.721724  5886 net.cpp:399] pool1_pool1_0_split -> pool1_pool1_0_split_1
I0209 18:50:48.721751  5886 net.cpp:141] Setting up pool1_pool1_0_split
I0209 18:50:48.721755  5886 net.cpp:148] Top shape: 128 32 47 47 (9048064)
I0209 18:50:48.721760  5886 net.cpp:148] Top shape: 128 32 47 47 (9048064)
I0209 18:50:48.721761  5886 net.cpp:156] Memory required for data: 418604032
I0209 18:50:48.721763  5886 layer_factory.hpp:77] Creating layer conv2_1
I0209 18:50:48.721770  5886 net.cpp:91] Creating Layer conv2_1
I0209 18:50:48.721772  5886 net.cpp:425] conv2_1 <- pool1_pool1_0_split_0
I0209 18:50:48.721776  5886 net.cpp:399] conv2_1 -> conv2_1
I0209 18:50:48.722313  5886 net.cpp:141] Setting up conv2_1
I0209 18:50:48.722322  5886 net.cpp:148] Top shape: 128 32 45 45 (8294400)
I0209 18:50:48.722326  5886 net.cpp:156] Memory required for data: 451781632
I0209 18:50:48.722332  5886 layer_factory.hpp:77] Creating layer relu2_1
I0209 18:50:48.722337  5886 net.cpp:91] Creating Layer relu2_1
I0209 18:50:48.722340  5886 net.cpp:425] relu2_1 <- conv2_1
I0209 18:50:48.722344  5886 net.cpp:386] relu2_1 -> conv2_1 (in-place)
I0209 18:50:48.722363  5886 net.cpp:141] Setting up relu2_1
I0209 18:50:48.722367  5886 net.cpp:148] Top shape: 128 32 45 45 (8294400)
I0209 18:50:48.722369  5886 net.cpp:156] Memory required for data: 484959232
I0209 18:50:48.722373  5886 layer_factory.hpp:77] Creating layer conv2_2
I0209 18:50:48.722378  5886 net.cpp:91] Creating Layer conv2_2
I0209 18:50:48.722381  5886 net.cpp:425] conv2_2 <- conv2_1
I0209 18:50:48.722386  5886 net.cpp:399] conv2_2 -> conv2_2
I0209 18:50:48.722568  5886 net.cpp:141] Setting up conv2_2
I0209 18:50:48.722573  5886 net.cpp:148] Top shape: 128 32 43 43 (7573504)
I0209 18:50:48.722574  5886 net.cpp:156] Memory required for data: 515253248
I0209 18:50:48.722581  5886 layer_factory.hpp:77] Creating layer relu2_2
I0209 18:50:48.722586  5886 net.cpp:91] Creating Layer relu2_2
I0209 18:50:48.722589  5886 net.cpp:425] relu2_2 <- conv2_2
I0209 18:50:48.722592  5886 net.cpp:386] relu2_2 -> conv2_2 (in-place)
I0209 18:50:48.722596  5886 net.cpp:141] Setting up relu2_2
I0209 18:50:48.722600  5886 net.cpp:148] Top shape: 128 32 43 43 (7573504)
I0209 18:50:48.722604  5886 net.cpp:156] Memory required for data: 545547264
I0209 18:50:48.722605  5886 layer_factory.hpp:77] Creating layer conv2_3
I0209 18:50:48.722610  5886 net.cpp:91] Creating Layer conv2_3
I0209 18:50:48.722614  5886 net.cpp:425] conv2_3 <- conv2_2
I0209 18:50:48.722616  5886 net.cpp:399] conv2_3 -> conv2_3
I0209 18:50:48.722792  5886 net.cpp:141] Setting up conv2_3
I0209 18:50:48.722798  5886 net.cpp:148] Top shape: 128 32 41 41 (6885376)
I0209 18:50:48.722801  5886 net.cpp:156] Memory required for data: 573088768
I0209 18:50:48.722805  5886 layer_factory.hpp:77] Creating layer relu2_3
I0209 18:50:48.722808  5886 net.cpp:91] Creating Layer relu2_3
I0209 18:50:48.722811  5886 net.cpp:425] relu2_3 <- conv2_3
I0209 18:50:48.722815  5886 net.cpp:386] relu2_3 -> conv2_3 (in-place)
I0209 18:50:48.722818  5886 net.cpp:141] Setting up relu2_3
I0209 18:50:48.722821  5886 net.cpp:148] Top shape: 128 32 41 41 (6885376)
I0209 18:50:48.722823  5886 net.cpp:156] Memory required for data: 600630272
I0209 18:50:48.722826  5886 layer_factory.hpp:77] Creating layer conv2_4
I0209 18:50:48.722831  5886 net.cpp:91] Creating Layer conv2_4
I0209 18:50:48.722833  5886 net.cpp:425] conv2_4 <- conv2_3
I0209 18:50:48.722837  5886 net.cpp:399] conv2_4 -> conv2_4
I0209 18:50:48.723008  5886 net.cpp:141] Setting up conv2_4
I0209 18:50:48.723013  5886 net.cpp:148] Top shape: 128 32 39 39 (6230016)
I0209 18:50:48.723016  5886 net.cpp:156] Memory required for data: 625550336
I0209 18:50:48.723022  5886 layer_factory.hpp:77] Creating layer relu2_4
I0209 18:50:48.723026  5886 net.cpp:91] Creating Layer relu2_4
I0209 18:50:48.723028  5886 net.cpp:425] relu2_4 <- conv2_4
I0209 18:50:48.723032  5886 net.cpp:386] relu2_4 -> conv2_4 (in-place)
I0209 18:50:48.723036  5886 net.cpp:141] Setting up relu2_4
I0209 18:50:48.723039  5886 net.cpp:148] Top shape: 128 32 39 39 (6230016)
I0209 18:50:48.723042  5886 net.cpp:156] Memory required for data: 650470400
I0209 18:50:48.723044  5886 layer_factory.hpp:77] Creating layer conv2_sub
I0209 18:50:48.723049  5886 net.cpp:91] Creating Layer conv2_sub
I0209 18:50:48.723052  5886 net.cpp:425] conv2_sub <- pool1_pool1_0_split_1
I0209 18:50:48.723057  5886 net.cpp:399] conv2_sub -> conv2_sub
I0209 18:50:48.723237  5886 net.cpp:141] Setting up conv2_sub
I0209 18:50:48.723242  5886 net.cpp:148] Top shape: 128 32 39 39 (6230016)
I0209 18:50:48.723244  5886 net.cpp:156] Memory required for data: 675390464
I0209 18:50:48.723248  5886 layer_factory.hpp:77] Creating layer relu2_sub
I0209 18:50:48.723253  5886 net.cpp:91] Creating Layer relu2_sub
I0209 18:50:48.723254  5886 net.cpp:425] relu2_sub <- conv2_sub
I0209 18:50:48.723259  5886 net.cpp:386] relu2_sub -> conv2_sub (in-place)
I0209 18:50:48.723263  5886 net.cpp:141] Setting up relu2_sub
I0209 18:50:48.723265  5886 net.cpp:148] Top shape: 128 32 39 39 (6230016)
I0209 18:50:48.723268  5886 net.cpp:156] Memory required for data: 700310528
I0209 18:50:48.723270  5886 layer_factory.hpp:77] Creating layer concat_conv2
I0209 18:50:48.723281  5886 net.cpp:91] Creating Layer concat_conv2
I0209 18:50:48.723284  5886 net.cpp:425] concat_conv2 <- conv2_sub
I0209 18:50:48.723287  5886 net.cpp:425] concat_conv2 <- conv2_4
I0209 18:50:48.723291  5886 net.cpp:399] concat_conv2 -> concat_conv2
I0209 18:50:48.723312  5886 net.cpp:141] Setting up concat_conv2
I0209 18:50:48.723317  5886 net.cpp:148] Top shape: 128 64 39 39 (12460032)
I0209 18:50:48.723320  5886 net.cpp:156] Memory required for data: 750150656
I0209 18:50:48.723322  5886 layer_factory.hpp:77] Creating layer pool2
I0209 18:50:48.723327  5886 net.cpp:91] Creating Layer pool2
I0209 18:50:48.723330  5886 net.cpp:425] pool2 <- concat_conv2
I0209 18:50:48.723335  5886 net.cpp:399] pool2 -> pool2
I0209 18:50:48.723362  5886 net.cpp:141] Setting up pool2
I0209 18:50:48.723366  5886 net.cpp:148] Top shape: 128 64 20 20 (3276800)
I0209 18:50:48.723367  5886 net.cpp:156] Memory required for data: 763257856
I0209 18:50:48.723369  5886 layer_factory.hpp:77] Creating layer pool2_pool2_0_split
I0209 18:50:48.723374  5886 net.cpp:91] Creating Layer pool2_pool2_0_split
I0209 18:50:48.723376  5886 net.cpp:425] pool2_pool2_0_split <- pool2
I0209 18:50:48.723381  5886 net.cpp:399] pool2_pool2_0_split -> pool2_pool2_0_split_0
I0209 18:50:48.723386  5886 net.cpp:399] pool2_pool2_0_split -> pool2_pool2_0_split_1
I0209 18:50:48.723409  5886 net.cpp:141] Setting up pool2_pool2_0_split
I0209 18:50:48.723414  5886 net.cpp:148] Top shape: 128 64 20 20 (3276800)
I0209 18:50:48.723417  5886 net.cpp:148] Top shape: 128 64 20 20 (3276800)
I0209 18:50:48.723419  5886 net.cpp:156] Memory required for data: 789472256
I0209 18:50:48.723423  5886 layer_factory.hpp:77] Creating layer conv3_1
I0209 18:50:48.723426  5886 net.cpp:91] Creating Layer conv3_1
I0209 18:50:48.723429  5886 net.cpp:425] conv3_1 <- pool2_pool2_0_split_0
I0209 18:50:48.723433  5886 net.cpp:399] conv3_1 -> conv3_1
I0209 18:50:48.724313  5886 net.cpp:141] Setting up conv3_1
I0209 18:50:48.724323  5886 net.cpp:148] Top shape: 128 32 18 18 (1327104)
I0209 18:50:48.724326  5886 net.cpp:156] Memory required for data: 794780672
I0209 18:50:48.724331  5886 layer_factory.hpp:77] Creating layer relu3_1
I0209 18:50:48.724336  5886 net.cpp:91] Creating Layer relu3_1
I0209 18:50:48.724339  5886 net.cpp:425] relu3_1 <- conv3_1
I0209 18:50:48.724344  5886 net.cpp:386] relu3_1 -> conv3_1 (in-place)
I0209 18:50:48.724347  5886 net.cpp:141] Setting up relu3_1
I0209 18:50:48.724351  5886 net.cpp:148] Top shape: 128 32 18 18 (1327104)
I0209 18:50:48.724354  5886 net.cpp:156] Memory required for data: 800089088
I0209 18:50:48.724355  5886 layer_factory.hpp:77] Creating layer conv3_2
I0209 18:50:48.724360  5886 net.cpp:91] Creating Layer conv3_2
I0209 18:50:48.724364  5886 net.cpp:425] conv3_2 <- conv3_1
I0209 18:50:48.724367  5886 net.cpp:399] conv3_2 -> conv3_2
I0209 18:50:48.724551  5886 net.cpp:141] Setting up conv3_2
I0209 18:50:48.724557  5886 net.cpp:148] Top shape: 128 64 16 16 (2097152)
I0209 18:50:48.724560  5886 net.cpp:156] Memory required for data: 808477696
I0209 18:50:48.724565  5886 layer_factory.hpp:77] Creating layer relu3_2
I0209 18:50:48.724568  5886 net.cpp:91] Creating Layer relu3_2
I0209 18:50:48.724570  5886 net.cpp:425] relu3_2 <- conv3_2
I0209 18:50:48.724575  5886 net.cpp:386] relu3_2 -> conv3_2 (in-place)
I0209 18:50:48.724578  5886 net.cpp:141] Setting up relu3_2
I0209 18:50:48.724581  5886 net.cpp:148] Top shape: 128 64 16 16 (2097152)
I0209 18:50:48.724583  5886 net.cpp:156] Memory required for data: 816866304
I0209 18:50:48.724586  5886 layer_factory.hpp:77] Creating layer conv3_sub
I0209 18:50:48.724591  5886 net.cpp:91] Creating Layer conv3_sub
I0209 18:50:48.724594  5886 net.cpp:425] conv3_sub <- pool2_pool2_0_split_1
I0209 18:50:48.724598  5886 net.cpp:399] conv3_sub -> conv3_sub
I0209 18:50:48.724782  5886 net.cpp:141] Setting up conv3_sub
I0209 18:50:48.724788  5886 net.cpp:148] Top shape: 128 64 16 16 (2097152)
I0209 18:50:48.724791  5886 net.cpp:156] Memory required for data: 825254912
I0209 18:50:48.724807  5886 layer_factory.hpp:77] Creating layer relu3_sub
I0209 18:50:48.724812  5886 net.cpp:91] Creating Layer relu3_sub
I0209 18:50:48.724815  5886 net.cpp:425] relu3_sub <- conv3_sub
I0209 18:50:48.724818  5886 net.cpp:386] relu3_sub -> conv3_sub (in-place)
I0209 18:50:48.724822  5886 net.cpp:141] Setting up relu3_sub
I0209 18:50:48.724827  5886 net.cpp:148] Top shape: 128 64 16 16 (2097152)
I0209 18:50:48.724828  5886 net.cpp:156] Memory required for data: 833643520
I0209 18:50:48.724830  5886 layer_factory.hpp:77] Creating layer concat_conv3
I0209 18:50:48.724834  5886 net.cpp:91] Creating Layer concat_conv3
I0209 18:50:48.724838  5886 net.cpp:425] concat_conv3 <- conv3_sub
I0209 18:50:48.724839  5886 net.cpp:425] concat_conv3 <- conv3_2
I0209 18:50:48.724843  5886 net.cpp:399] concat_conv3 -> concat_conv3
I0209 18:50:48.724860  5886 net.cpp:141] Setting up concat_conv3
I0209 18:50:48.724865  5886 net.cpp:148] Top shape: 128 128 16 16 (4194304)
I0209 18:50:48.724867  5886 net.cpp:156] Memory required for data: 850420736
I0209 18:50:48.724869  5886 layer_factory.hpp:77] Creating layer pool3
I0209 18:50:48.724874  5886 net.cpp:91] Creating Layer pool3
I0209 18:50:48.724876  5886 net.cpp:425] pool3 <- concat_conv3
I0209 18:50:48.724879  5886 net.cpp:399] pool3 -> pool3
I0209 18:50:48.724905  5886 net.cpp:141] Setting up pool3
I0209 18:50:48.724910  5886 net.cpp:148] Top shape: 128 128 8 8 (1048576)
I0209 18:50:48.724911  5886 net.cpp:156] Memory required for data: 854615040
I0209 18:50:48.724915  5886 layer_factory.hpp:77] Creating layer conv4_1
I0209 18:50:48.724918  5886 net.cpp:91] Creating Layer conv4_1
I0209 18:50:48.724921  5886 net.cpp:425] conv4_1 <- pool3
I0209 18:50:48.724925  5886 net.cpp:399] conv4_1 -> conv4_1
I0209 18:50:48.725499  5886 net.cpp:141] Setting up conv4_1
I0209 18:50:48.725508  5886 net.cpp:148] Top shape: 128 64 6 6 (294912)
I0209 18:50:48.725510  5886 net.cpp:156] Memory required for data: 855794688
I0209 18:50:48.725515  5886 layer_factory.hpp:77] Creating layer relu4_1
I0209 18:50:48.725520  5886 net.cpp:91] Creating Layer relu4_1
I0209 18:50:48.725522  5886 net.cpp:425] relu4_1 <- conv4_1
I0209 18:50:48.725527  5886 net.cpp:386] relu4_1 -> conv4_1 (in-place)
I0209 18:50:48.725531  5886 net.cpp:141] Setting up relu4_1
I0209 18:50:48.725534  5886 net.cpp:148] Top shape: 128 64 6 6 (294912)
I0209 18:50:48.725536  5886 net.cpp:156] Memory required for data: 856974336
I0209 18:50:48.725538  5886 layer_factory.hpp:77] Creating layer conv4_2
I0209 18:50:48.725544  5886 net.cpp:91] Creating Layer conv4_2
I0209 18:50:48.725546  5886 net.cpp:425] conv4_2 <- conv4_1
I0209 18:50:48.725550  5886 net.cpp:399] conv4_2 -> conv4_2
I0209 18:50:48.725760  5886 net.cpp:141] Setting up conv4_2
I0209 18:50:48.725767  5886 net.cpp:148] Top shape: 128 128 4 4 (262144)
I0209 18:50:48.725769  5886 net.cpp:156] Memory required for data: 858022912
I0209 18:50:48.725774  5886 layer_factory.hpp:77] Creating layer relu4_2
I0209 18:50:48.725777  5886 net.cpp:91] Creating Layer relu4_2
I0209 18:50:48.725780  5886 net.cpp:425] relu4_2 <- conv4_2
I0209 18:50:48.725783  5886 net.cpp:386] relu4_2 -> conv4_2 (in-place)
I0209 18:50:48.725787  5886 net.cpp:141] Setting up relu4_2
I0209 18:50:48.725790  5886 net.cpp:148] Top shape: 128 128 4 4 (262144)
I0209 18:50:48.725793  5886 net.cpp:156] Memory required for data: 859071488
I0209 18:50:48.725795  5886 layer_factory.hpp:77] Creating layer conv4_3
I0209 18:50:48.725800  5886 net.cpp:91] Creating Layer conv4_3
I0209 18:50:48.725802  5886 net.cpp:425] conv4_3 <- conv4_2
I0209 18:50:48.725806  5886 net.cpp:399] conv4_3 -> conv4_3
I0209 18:50:48.726423  5886 net.cpp:141] Setting up conv4_3
I0209 18:50:48.726433  5886 net.cpp:148] Top shape: 128 128 2 2 (65536)
I0209 18:50:48.726434  5886 net.cpp:156] Memory required for data: 859333632
I0209 18:50:48.726440  5886 layer_factory.hpp:77] Creating layer relu4_3
I0209 18:50:48.726444  5886 net.cpp:91] Creating Layer relu4_3
I0209 18:50:48.726446  5886 net.cpp:425] relu4_3 <- conv4_3
I0209 18:50:48.726450  5886 net.cpp:386] relu4_3 -> conv4_3 (in-place)
I0209 18:50:48.726464  5886 net.cpp:141] Setting up relu4_3
I0209 18:50:48.726467  5886 net.cpp:148] Top shape: 128 128 2 2 (65536)
I0209 18:50:48.726469  5886 net.cpp:156] Memory required for data: 859595776
I0209 18:50:48.726471  5886 layer_factory.hpp:77] Creating layer conv5
I0209 18:50:48.726480  5886 net.cpp:91] Creating Layer conv5
I0209 18:50:48.726485  5886 net.cpp:425] conv5 <- conv4_3
I0209 18:50:48.726487  5886 net.cpp:399] conv5 -> conv5
I0209 18:50:48.726721  5886 net.cpp:141] Setting up conv5
I0209 18:50:48.726728  5886 net.cpp:148] Top shape: 128 512 2 2 (262144)
I0209 18:50:48.726730  5886 net.cpp:156] Memory required for data: 860644352
I0209 18:50:48.726735  5886 layer_factory.hpp:77] Creating layer relu5
I0209 18:50:48.726738  5886 net.cpp:91] Creating Layer relu5
I0209 18:50:48.726742  5886 net.cpp:425] relu5 <- conv5
I0209 18:50:48.726745  5886 net.cpp:386] relu5 -> conv5 (in-place)
I0209 18:50:48.726749  5886 net.cpp:141] Setting up relu5
I0209 18:50:48.726752  5886 net.cpp:148] Top shape: 128 512 2 2 (262144)
I0209 18:50:48.726755  5886 net.cpp:156] Memory required for data: 861692928
I0209 18:50:48.726758  5886 layer_factory.hpp:77] Creating layer conv5_relu5_0_split
I0209 18:50:48.726763  5886 net.cpp:91] Creating Layer conv5_relu5_0_split
I0209 18:50:48.726766  5886 net.cpp:425] conv5_relu5_0_split <- conv5
I0209 18:50:48.726773  5886 net.cpp:399] conv5_relu5_0_split -> conv5_relu5_0_split_0
I0209 18:50:48.726781  5886 net.cpp:399] conv5_relu5_0_split -> conv5_relu5_0_split_1
I0209 18:50:48.726788  5886 net.cpp:399] conv5_relu5_0_split -> conv5_relu5_0_split_2
I0209 18:50:48.726796  5886 net.cpp:399] conv5_relu5_0_split -> conv5_relu5_0_split_3
I0209 18:50:48.726804  5886 net.cpp:399] conv5_relu5_0_split -> conv5_relu5_0_split_4
I0209 18:50:48.726809  5886 net.cpp:399] conv5_relu5_0_split -> conv5_relu5_0_split_5
I0209 18:50:48.726815  5886 net.cpp:399] conv5_relu5_0_split -> conv5_relu5_0_split_6
I0209 18:50:48.726821  5886 net.cpp:399] conv5_relu5_0_split -> conv5_relu5_0_split_7
I0209 18:50:48.726830  5886 net.cpp:399] conv5_relu5_0_split -> conv5_relu5_0_split_8
I0209 18:50:48.726835  5886 net.cpp:399] conv5_relu5_0_split -> conv5_relu5_0_split_9
I0209 18:50:48.726841  5886 net.cpp:399] conv5_relu5_0_split -> conv5_relu5_0_split_10
I0209 18:50:48.726847  5886 net.cpp:399] conv5_relu5_0_split -> conv5_relu5_0_split_11
I0209 18:50:48.726965  5886 net.cpp:141] Setting up conv5_relu5_0_split
I0209 18:50:48.726970  5886 net.cpp:148] Top shape: 128 512 2 2 (262144)
I0209 18:50:48.726974  5886 net.cpp:148] Top shape: 128 512 2 2 (262144)
I0209 18:50:48.726976  5886 net.cpp:148] Top shape: 128 512 2 2 (262144)
I0209 18:50:48.726981  5886 net.cpp:148] Top shape: 128 512 2 2 (262144)
I0209 18:50:48.726984  5886 net.cpp:148] Top shape: 128 512 2 2 (262144)
I0209 18:50:48.726986  5886 net.cpp:148] Top shape: 128 512 2 2 (262144)
I0209 18:50:48.726989  5886 net.cpp:148] Top shape: 128 512 2 2 (262144)
I0209 18:50:48.726994  5886 net.cpp:148] Top shape: 128 512 2 2 (262144)
I0209 18:50:48.726997  5886 net.cpp:148] Top shape: 128 512 2 2 (262144)
I0209 18:50:48.726999  5886 net.cpp:148] Top shape: 128 512 2 2 (262144)
I0209 18:50:48.727002  5886 net.cpp:148] Top shape: 128 512 2 2 (262144)
I0209 18:50:48.727007  5886 net.cpp:148] Top shape: 128 512 2 2 (262144)
I0209 18:50:48.727010  5886 net.cpp:156] Memory required for data: 874275840
I0209 18:50:48.727012  5886 layer_factory.hpp:77] Creating layer fc1_left_eye_confidence
I0209 18:50:48.727018  5886 net.cpp:91] Creating Layer fc1_left_eye_confidence
I0209 18:50:48.727022  5886 net.cpp:425] fc1_left_eye_confidence <- conv5_relu5_0_split_0
I0209 18:50:48.727026  5886 net.cpp:399] fc1_left_eye_confidence -> fc1_left_eye_confidence
I0209 18:50:48.727977  5886 net.cpp:141] Setting up fc1_left_eye_confidence
I0209 18:50:48.727988  5886 net.cpp:148] Top shape: 128 256 (32768)
I0209 18:50:48.727990  5886 net.cpp:156] Memory required for data: 874406912
I0209 18:50:48.727995  5886 layer_factory.hpp:77] Creating layer relu_left_eye_confidence
I0209 18:50:48.728010  5886 net.cpp:91] Creating Layer relu_left_eye_confidence
I0209 18:50:48.728013  5886 net.cpp:425] relu_left_eye_confidence <- fc1_left_eye_confidence
I0209 18:50:48.728020  5886 net.cpp:386] relu_left_eye_confidence -> fc1_left_eye_confidence (in-place)
I0209 18:50:48.728027  5886 net.cpp:141] Setting up relu_left_eye_confidence
I0209 18:50:48.728031  5886 net.cpp:148] Top shape: 128 256 (32768)
I0209 18:50:48.728032  5886 net.cpp:156] Memory required for data: 874537984
I0209 18:50:48.728035  5886 layer_factory.hpp:77] Creating layer drop1_left_eye_confidence
I0209 18:50:48.728040  5886 net.cpp:91] Creating Layer drop1_left_eye_confidence
I0209 18:50:48.728044  5886 net.cpp:425] drop1_left_eye_confidence <- fc1_left_eye_confidence
I0209 18:50:48.728049  5886 net.cpp:386] drop1_left_eye_confidence -> fc1_left_eye_confidence (in-place)
I0209 18:50:48.728066  5886 net.cpp:141] Setting up drop1_left_eye_confidence
I0209 18:50:48.728070  5886 net.cpp:148] Top shape: 128 256 (32768)
I0209 18:50:48.728072  5886 net.cpp:156] Memory required for data: 874669056
I0209 18:50:48.728075  5886 layer_factory.hpp:77] Creating layer fc2_left_eye_confidence
I0209 18:50:48.728081  5886 net.cpp:91] Creating Layer fc2_left_eye_confidence
I0209 18:50:48.728085  5886 net.cpp:425] fc2_left_eye_confidence <- fc1_left_eye_confidence
I0209 18:50:48.728088  5886 net.cpp:399] fc2_left_eye_confidence -> fc2_left_eye_confidence
I0209 18:50:48.728160  5886 net.cpp:141] Setting up fc2_left_eye_confidence
I0209 18:50:48.728220  5886 net.cpp:148] Top shape: 128 1 (128)
I0209 18:50:48.728224  5886 net.cpp:156] Memory required for data: 874669568
I0209 18:50:48.728227  5886 layer_factory.hpp:77] Creating layer loss_left_eye_confidence
I0209 18:50:48.728232  5886 net.cpp:91] Creating Layer loss_left_eye_confidence
I0209 18:50:48.728236  5886 net.cpp:425] loss_left_eye_confidence <- fc2_left_eye_confidence
I0209 18:50:48.728240  5886 net.cpp:425] loss_left_eye_confidence <- eye_visibility_left
I0209 18:50:48.728245  5886 net.cpp:399] loss_left_eye_confidence -> loss_left_eye_confidence
I0209 18:50:48.728274  5886 net.cpp:141] Setting up loss_left_eye_confidence
I0209 18:50:48.728279  5886 net.cpp:148] Top shape: (1)
I0209 18:50:48.728281  5886 net.cpp:151]     with loss weight 1
I0209 18:50:48.728296  5886 net.cpp:156] Memory required for data: 874669572
I0209 18:50:48.728298  5886 layer_factory.hpp:77] Creating layer fc1_right_eye_confidence
I0209 18:50:48.728304  5886 net.cpp:91] Creating Layer fc1_right_eye_confidence
I0209 18:50:48.728307  5886 net.cpp:425] fc1_right_eye_confidence <- conv5_relu5_0_split_1
I0209 18:50:48.728312  5886 net.cpp:399] fc1_right_eye_confidence -> fc1_right_eye_confidence
I0209 18:50:48.729249  5886 net.cpp:141] Setting up fc1_right_eye_confidence
I0209 18:50:48.729259  5886 net.cpp:148] Top shape: 128 256 (32768)
I0209 18:50:48.729261  5886 net.cpp:156] Memory required for data: 874800644
I0209 18:50:48.729266  5886 layer_factory.hpp:77] Creating layer relu_right_eye_confidence
I0209 18:50:48.729274  5886 net.cpp:91] Creating Layer relu_right_eye_confidence
I0209 18:50:48.729277  5886 net.cpp:425] relu_right_eye_confidence <- fc1_right_eye_confidence
I0209 18:50:48.729282  5886 net.cpp:386] relu_right_eye_confidence -> fc1_right_eye_confidence (in-place)
I0209 18:50:48.729290  5886 net.cpp:141] Setting up relu_right_eye_confidence
I0209 18:50:48.729293  5886 net.cpp:148] Top shape: 128 256 (32768)
I0209 18:50:48.729295  5886 net.cpp:156] Memory required for data: 874931716
I0209 18:50:48.729297  5886 layer_factory.hpp:77] Creating layer drop1_right_eye_confidence
I0209 18:50:48.729301  5886 net.cpp:91] Creating Layer drop1_right_eye_confidence
I0209 18:50:48.729305  5886 net.cpp:425] drop1_right_eye_confidence <- fc1_right_eye_confidence
I0209 18:50:48.729307  5886 net.cpp:386] drop1_right_eye_confidence -> fc1_right_eye_confidence (in-place)
I0209 18:50:48.729322  5886 net.cpp:141] Setting up drop1_right_eye_confidence
I0209 18:50:48.729326  5886 net.cpp:148] Top shape: 128 256 (32768)
I0209 18:50:48.729338  5886 net.cpp:156] Memory required for data: 875062788
I0209 18:50:48.729341  5886 layer_factory.hpp:77] Creating layer fc2_right_eye_confidence
I0209 18:50:48.729346  5886 net.cpp:91] Creating Layer fc2_right_eye_confidence
I0209 18:50:48.729348  5886 net.cpp:425] fc2_right_eye_confidence <- fc1_right_eye_confidence
I0209 18:50:48.729353  5886 net.cpp:399] fc2_right_eye_confidence -> fc2_right_eye_confidence
I0209 18:50:48.729427  5886 net.cpp:141] Setting up fc2_right_eye_confidence
I0209 18:50:48.729434  5886 net.cpp:148] Top shape: 128 1 (128)
I0209 18:50:48.729435  5886 net.cpp:156] Memory required for data: 875063300
I0209 18:50:48.729445  5886 layer_factory.hpp:77] Creating layer loss_right_eye_confidence
I0209 18:50:48.729450  5886 net.cpp:91] Creating Layer loss_right_eye_confidence
I0209 18:50:48.729455  5886 net.cpp:425] loss_right_eye_confidence <- fc2_right_eye_confidence
I0209 18:50:48.729459  5886 net.cpp:425] loss_right_eye_confidence <- eye_visibility_right
I0209 18:50:48.729462  5886 net.cpp:399] loss_right_eye_confidence -> loss_right_eye_confidence
I0209 18:50:48.729486  5886 net.cpp:141] Setting up loss_right_eye_confidence
I0209 18:50:48.729491  5886 net.cpp:148] Top shape: (1)
I0209 18:50:48.729493  5886 net.cpp:151]     with loss weight 1
I0209 18:50:48.729501  5886 net.cpp:156] Memory required for data: 875063304
I0209 18:50:48.729502  5886 layer_factory.hpp:77] Creating layer fc1_nose_confidence
I0209 18:50:48.729507  5886 net.cpp:91] Creating Layer fc1_nose_confidence
I0209 18:50:48.729509  5886 net.cpp:425] fc1_nose_confidence <- conv5_relu5_0_split_2
I0209 18:50:48.729513  5886 net.cpp:399] fc1_nose_confidence -> fc1_nose_confidence
I0209 18:50:48.730443  5886 net.cpp:141] Setting up fc1_nose_confidence
I0209 18:50:48.730453  5886 net.cpp:148] Top shape: 128 256 (32768)
I0209 18:50:48.730454  5886 net.cpp:156] Memory required for data: 875194376
I0209 18:50:48.730459  5886 layer_factory.hpp:77] Creating layer relu_nose_confidence
I0209 18:50:48.730465  5886 net.cpp:91] Creating Layer relu_nose_confidence
I0209 18:50:48.730469  5886 net.cpp:425] relu_nose_confidence <- fc1_nose_confidence
I0209 18:50:48.730474  5886 net.cpp:386] relu_nose_confidence -> fc1_nose_confidence (in-place)
I0209 18:50:48.730480  5886 net.cpp:141] Setting up relu_nose_confidence
I0209 18:50:48.730484  5886 net.cpp:148] Top shape: 128 256 (32768)
I0209 18:50:48.730486  5886 net.cpp:156] Memory required for data: 875325448
I0209 18:50:48.730489  5886 layer_factory.hpp:77] Creating layer drop1_nose_confidence
I0209 18:50:48.730492  5886 net.cpp:91] Creating Layer drop1_nose_confidence
I0209 18:50:48.730494  5886 net.cpp:425] drop1_nose_confidence <- fc1_nose_confidence
I0209 18:50:48.730499  5886 net.cpp:386] drop1_nose_confidence -> fc1_nose_confidence (in-place)
I0209 18:50:48.730511  5886 net.cpp:141] Setting up drop1_nose_confidence
I0209 18:50:48.730515  5886 net.cpp:148] Top shape: 128 256 (32768)
I0209 18:50:48.730517  5886 net.cpp:156] Memory required for data: 875456520
I0209 18:50:48.730520  5886 layer_factory.hpp:77] Creating layer fc2_nose_confidence
I0209 18:50:48.730525  5886 net.cpp:91] Creating Layer fc2_nose_confidence
I0209 18:50:48.730528  5886 net.cpp:425] fc2_nose_confidence <- fc1_nose_confidence
I0209 18:50:48.730531  5886 net.cpp:399] fc2_nose_confidence -> fc2_nose_confidence
I0209 18:50:48.730604  5886 net.cpp:141] Setting up fc2_nose_confidence
I0209 18:50:48.730610  5886 net.cpp:148] Top shape: 128 1 (128)
I0209 18:50:48.730612  5886 net.cpp:156] Memory required for data: 875457032
I0209 18:50:48.730617  5886 layer_factory.hpp:77] Creating layer loss_nose_confidence
I0209 18:50:48.730621  5886 net.cpp:91] Creating Layer loss_nose_confidence
I0209 18:50:48.730624  5886 net.cpp:425] loss_nose_confidence <- fc2_nose_confidence
I0209 18:50:48.730628  5886 net.cpp:425] loss_nose_confidence <- nose_visibility
I0209 18:50:48.730631  5886 net.cpp:399] loss_nose_confidence -> loss_nose_confidence
I0209 18:50:48.730657  5886 net.cpp:141] Setting up loss_nose_confidence
I0209 18:50:48.730661  5886 net.cpp:148] Top shape: (1)
I0209 18:50:48.730672  5886 net.cpp:151]     with loss weight 1
I0209 18:50:48.730677  5886 net.cpp:156] Memory required for data: 875457036
I0209 18:50:48.730680  5886 layer_factory.hpp:77] Creating layer fc1_left_mouth_confidence
I0209 18:50:48.730684  5886 net.cpp:91] Creating Layer fc1_left_mouth_confidence
I0209 18:50:48.730689  5886 net.cpp:425] fc1_left_mouth_confidence <- conv5_relu5_0_split_3
I0209 18:50:48.730695  5886 net.cpp:399] fc1_left_mouth_confidence -> fc1_left_mouth_confidence
I0209 18:50:48.731623  5886 net.cpp:141] Setting up fc1_left_mouth_confidence
I0209 18:50:48.731633  5886 net.cpp:148] Top shape: 128 256 (32768)
I0209 18:50:48.731636  5886 net.cpp:156] Memory required for data: 875588108
I0209 18:50:48.731640  5886 layer_factory.hpp:77] Creating layer relu_left_mouth_confidence
I0209 18:50:48.731649  5886 net.cpp:91] Creating Layer relu_left_mouth_confidence
I0209 18:50:48.731653  5886 net.cpp:425] relu_left_mouth_confidence <- fc1_left_mouth_confidence
I0209 18:50:48.731657  5886 net.cpp:386] relu_left_mouth_confidence -> fc1_left_mouth_confidence (in-place)
I0209 18:50:48.731662  5886 net.cpp:141] Setting up relu_left_mouth_confidence
I0209 18:50:48.731667  5886 net.cpp:148] Top shape: 128 256 (32768)
I0209 18:50:48.731668  5886 net.cpp:156] Memory required for data: 875719180
I0209 18:50:48.731670  5886 layer_factory.hpp:77] Creating layer drop1_left_mouth_confidence
I0209 18:50:48.731674  5886 net.cpp:91] Creating Layer drop1_left_mouth_confidence
I0209 18:50:48.731678  5886 net.cpp:425] drop1_left_mouth_confidence <- fc1_left_mouth_confidence
I0209 18:50:48.731681  5886 net.cpp:386] drop1_left_mouth_confidence -> fc1_left_mouth_confidence (in-place)
I0209 18:50:48.731694  5886 net.cpp:141] Setting up drop1_left_mouth_confidence
I0209 18:50:48.731699  5886 net.cpp:148] Top shape: 128 256 (32768)
I0209 18:50:48.731703  5886 net.cpp:156] Memory required for data: 875850252
I0209 18:50:48.731704  5886 layer_factory.hpp:77] Creating layer fc2_left_mouth_confidence
I0209 18:50:48.731709  5886 net.cpp:91] Creating Layer fc2_left_mouth_confidence
I0209 18:50:48.731710  5886 net.cpp:425] fc2_left_mouth_confidence <- fc1_left_mouth_confidence
I0209 18:50:48.731715  5886 net.cpp:399] fc2_left_mouth_confidence -> fc2_left_mouth_confidence
I0209 18:50:48.731786  5886 net.cpp:141] Setting up fc2_left_mouth_confidence
I0209 18:50:48.731791  5886 net.cpp:148] Top shape: 128 1 (128)
I0209 18:50:48.731793  5886 net.cpp:156] Memory required for data: 875850764
I0209 18:50:48.731798  5886 layer_factory.hpp:77] Creating layer loss_left_mouth_confidence
I0209 18:50:48.731804  5886 net.cpp:91] Creating Layer loss_left_mouth_confidence
I0209 18:50:48.731806  5886 net.cpp:425] loss_left_mouth_confidence <- fc2_left_mouth_confidence
I0209 18:50:48.731809  5886 net.cpp:425] loss_left_mouth_confidence <- mouth_visibility_left
I0209 18:50:48.731814  5886 net.cpp:399] loss_left_mouth_confidence -> loss_left_mouth_confidence
I0209 18:50:48.731840  5886 net.cpp:141] Setting up loss_left_mouth_confidence
I0209 18:50:48.731844  5886 net.cpp:148] Top shape: (1)
I0209 18:50:48.731847  5886 net.cpp:151]     with loss weight 1
I0209 18:50:48.731853  5886 net.cpp:156] Memory required for data: 875850768
I0209 18:50:48.731856  5886 layer_factory.hpp:77] Creating layer fc1_center_mouth_confidence
I0209 18:50:48.731861  5886 net.cpp:91] Creating Layer fc1_center_mouth_confidence
I0209 18:50:48.731864  5886 net.cpp:425] fc1_center_mouth_confidence <- conv5_relu5_0_split_4
I0209 18:50:48.731870  5886 net.cpp:399] fc1_center_mouth_confidence -> fc1_center_mouth_confidence
I0209 18:50:48.732815  5886 net.cpp:141] Setting up fc1_center_mouth_confidence
I0209 18:50:48.732826  5886 net.cpp:148] Top shape: 128 256 (32768)
I0209 18:50:48.732828  5886 net.cpp:156] Memory required for data: 875981840
I0209 18:50:48.732834  5886 layer_factory.hpp:77] Creating layer relu_center_mouth_confidence
I0209 18:50:48.732841  5886 net.cpp:91] Creating Layer relu_center_mouth_confidence
I0209 18:50:48.732843  5886 net.cpp:425] relu_center_mouth_confidence <- fc1_center_mouth_confidence
I0209 18:50:48.732861  5886 net.cpp:386] relu_center_mouth_confidence -> fc1_center_mouth_confidence (in-place)
I0209 18:50:48.732868  5886 net.cpp:141] Setting up relu_center_mouth_confidence
I0209 18:50:48.732872  5886 net.cpp:148] Top shape: 128 256 (32768)
I0209 18:50:48.732874  5886 net.cpp:156] Memory required for data: 876112912
I0209 18:50:48.732877  5886 layer_factory.hpp:77] Creating layer drop1_center_mouth_confidence
I0209 18:50:48.732882  5886 net.cpp:91] Creating Layer drop1_center_mouth_confidence
I0209 18:50:48.732884  5886 net.cpp:425] drop1_center_mouth_confidence <- fc1_center_mouth_confidence
I0209 18:50:48.732889  5886 net.cpp:386] drop1_center_mouth_confidence -> fc1_center_mouth_confidence (in-place)
I0209 18:50:48.732903  5886 net.cpp:141] Setting up drop1_center_mouth_confidence
I0209 18:50:48.732908  5886 net.cpp:148] Top shape: 128 256 (32768)
I0209 18:50:48.732909  5886 net.cpp:156] Memory required for data: 876243984
I0209 18:50:48.732911  5886 layer_factory.hpp:77] Creating layer fc2_center_mouth_confidence
I0209 18:50:48.732915  5886 net.cpp:91] Creating Layer fc2_center_mouth_confidence
I0209 18:50:48.732919  5886 net.cpp:425] fc2_center_mouth_confidence <- fc1_center_mouth_confidence
I0209 18:50:48.732924  5886 net.cpp:399] fc2_center_mouth_confidence -> fc2_center_mouth_confidence
I0209 18:50:48.732997  5886 net.cpp:141] Setting up fc2_center_mouth_confidence
I0209 18:50:48.733002  5886 net.cpp:148] Top shape: 128 1 (128)
I0209 18:50:48.733005  5886 net.cpp:156] Memory required for data: 876244496
I0209 18:50:48.733008  5886 layer_factory.hpp:77] Creating layer loss_center_mouth_confidence
I0209 18:50:48.733012  5886 net.cpp:91] Creating Layer loss_center_mouth_confidence
I0209 18:50:48.733014  5886 net.cpp:425] loss_center_mouth_confidence <- fc2_center_mouth_confidence
I0209 18:50:48.733018  5886 net.cpp:425] loss_center_mouth_confidence <- mouth_visibility_center
I0209 18:50:48.733024  5886 net.cpp:399] loss_center_mouth_confidence -> loss_center_mouth_confidence
I0209 18:50:48.733048  5886 net.cpp:141] Setting up loss_center_mouth_confidence
I0209 18:50:48.733053  5886 net.cpp:148] Top shape: (1)
I0209 18:50:48.733055  5886 net.cpp:151]     with loss weight 1
I0209 18:50:48.733062  5886 net.cpp:156] Memory required for data: 876244500
I0209 18:50:48.733064  5886 layer_factory.hpp:77] Creating layer fc1_right_mouth_confidence
I0209 18:50:48.733069  5886 net.cpp:91] Creating Layer fc1_right_mouth_confidence
I0209 18:50:48.733073  5886 net.cpp:425] fc1_right_mouth_confidence <- conv5_relu5_0_split_5
I0209 18:50:48.733078  5886 net.cpp:399] fc1_right_mouth_confidence -> fc1_right_mouth_confidence
I0209 18:50:48.734040  5886 net.cpp:141] Setting up fc1_right_mouth_confidence
I0209 18:50:48.734052  5886 net.cpp:148] Top shape: 128 256 (32768)
I0209 18:50:48.734055  5886 net.cpp:156] Memory required for data: 876375572
I0209 18:50:48.734061  5886 layer_factory.hpp:77] Creating layer relu_right_mouth_confidence
I0209 18:50:48.734067  5886 net.cpp:91] Creating Layer relu_right_mouth_confidence
I0209 18:50:48.734071  5886 net.cpp:425] relu_right_mouth_confidence <- fc1_right_mouth_confidence
I0209 18:50:48.734076  5886 net.cpp:386] relu_right_mouth_confidence -> fc1_right_mouth_confidence (in-place)
I0209 18:50:48.734084  5886 net.cpp:141] Setting up relu_right_mouth_confidence
I0209 18:50:48.734087  5886 net.cpp:148] Top shape: 128 256 (32768)
I0209 18:50:48.734089  5886 net.cpp:156] Memory required for data: 876506644
I0209 18:50:48.734092  5886 layer_factory.hpp:77] Creating layer drop1_right_mouth_confidence
I0209 18:50:48.734097  5886 net.cpp:91] Creating Layer drop1_right_mouth_confidence
I0209 18:50:48.734100  5886 net.cpp:425] drop1_right_mouth_confidence <- fc1_right_mouth_confidence
I0209 18:50:48.734103  5886 net.cpp:386] drop1_right_mouth_confidence -> fc1_right_mouth_confidence (in-place)
I0209 18:50:48.734118  5886 net.cpp:141] Setting up drop1_right_mouth_confidence
I0209 18:50:48.734123  5886 net.cpp:148] Top shape: 128 256 (32768)
I0209 18:50:48.734134  5886 net.cpp:156] Memory required for data: 876637716
I0209 18:50:48.734138  5886 layer_factory.hpp:77] Creating layer fc2_right_mouth_confidence
I0209 18:50:48.734143  5886 net.cpp:91] Creating Layer fc2_right_mouth_confidence
I0209 18:50:48.734145  5886 net.cpp:425] fc2_right_mouth_confidence <- fc1_right_mouth_confidence
I0209 18:50:48.734149  5886 net.cpp:399] fc2_right_mouth_confidence -> fc2_right_mouth_confidence
I0209 18:50:48.734220  5886 net.cpp:141] Setting up fc2_right_mouth_confidence
I0209 18:50:48.734228  5886 net.cpp:148] Top shape: 128 1 (128)
I0209 18:50:48.734230  5886 net.cpp:156] Memory required for data: 876638228
I0209 18:50:48.734235  5886 layer_factory.hpp:77] Creating layer loss_right_mouth_confidence
I0209 18:50:48.734248  5886 net.cpp:91] Creating Layer loss_right_mouth_confidence
I0209 18:50:48.734252  5886 net.cpp:425] loss_right_mouth_confidence <- fc2_right_mouth_confidence
I0209 18:50:48.734256  5886 net.cpp:425] loss_right_mouth_confidence <- mouth_visibility_right
I0209 18:50:48.734261  5886 net.cpp:399] loss_right_mouth_confidence -> loss_right_mouth_confidence
I0209 18:50:48.734293  5886 net.cpp:141] Setting up loss_right_mouth_confidence
I0209 18:50:48.734302  5886 net.cpp:148] Top shape: (1)
I0209 18:50:48.734307  5886 net.cpp:151]     with loss weight 1
I0209 18:50:48.734314  5886 net.cpp:156] Memory required for data: 876638232
I0209 18:50:48.734318  5886 layer_factory.hpp:77] Creating layer fc1_left_eye_coordinate
I0209 18:50:48.734326  5886 net.cpp:91] Creating Layer fc1_left_eye_coordinate
I0209 18:50:48.734333  5886 net.cpp:425] fc1_left_eye_coordinate <- conv5_relu5_0_split_6
I0209 18:50:48.734341  5886 net.cpp:399] fc1_left_eye_coordinate -> fc1_left_eye_coordinate
I0209 18:50:48.743559  5886 net.cpp:141] Setting up fc1_left_eye_coordinate
I0209 18:50:48.743578  5886 net.cpp:148] Top shape: 128 512 (65536)
I0209 18:50:48.743582  5886 net.cpp:156] Memory required for data: 876900376
I0209 18:50:48.743592  5886 layer_factory.hpp:77] Creating layer drop1_left_eye_coordinate
I0209 18:50:48.743602  5886 net.cpp:91] Creating Layer drop1_left_eye_coordinate
I0209 18:50:48.743607  5886 net.cpp:425] drop1_left_eye_coordinate <- fc1_left_eye_coordinate
I0209 18:50:48.743616  5886 net.cpp:386] drop1_left_eye_coordinate -> fc1_left_eye_coordinate (in-place)
I0209 18:50:48.743643  5886 net.cpp:141] Setting up drop1_left_eye_coordinate
I0209 18:50:48.743647  5886 net.cpp:148] Top shape: 128 512 (65536)
I0209 18:50:48.743650  5886 net.cpp:156] Memory required for data: 877162520
I0209 18:50:48.743655  5886 layer_factory.hpp:77] Creating layer fc2_left_eye_coordinate
I0209 18:50:48.743664  5886 net.cpp:91] Creating Layer fc2_left_eye_coordinate
I0209 18:50:48.743669  5886 net.cpp:425] fc2_left_eye_coordinate <- fc1_left_eye_coordinate
I0209 18:50:48.743677  5886 net.cpp:399] fc2_left_eye_coordinate -> fc2_left_eye_coordinate
I0209 18:50:48.743769  5886 net.cpp:141] Setting up fc2_left_eye_coordinate
I0209 18:50:48.743777  5886 net.cpp:148] Top shape: 128 2 (256)
I0209 18:50:48.743778  5886 net.cpp:156] Memory required for data: 877163544
I0209 18:50:48.743785  5886 layer_factory.hpp:77] Creating layer loss_left_eye_coordinate
I0209 18:50:48.743793  5886 net.cpp:91] Creating Layer loss_left_eye_coordinate
I0209 18:50:48.743799  5886 net.cpp:425] loss_left_eye_coordinate <- fc2_left_eye_coordinate
I0209 18:50:48.743804  5886 net.cpp:425] loss_left_eye_coordinate <- left_eye
I0209 18:50:48.743810  5886 net.cpp:399] loss_left_eye_coordinate -> loss_left_eye_coordinate
I0209 18:50:48.743841  5886 net.cpp:141] Setting up loss_left_eye_coordinate
I0209 18:50:48.743847  5886 net.cpp:148] Top shape: (1)
I0209 18:50:48.743850  5886 net.cpp:151]     with loss weight 1
I0209 18:50:48.743860  5886 net.cpp:156] Memory required for data: 877163548
I0209 18:50:48.743865  5886 layer_factory.hpp:77] Creating layer fc1_right_eye_coordinate
I0209 18:50:48.743872  5886 net.cpp:91] Creating Layer fc1_right_eye_coordinate
I0209 18:50:48.743878  5886 net.cpp:425] fc1_right_eye_coordinate <- conv5_relu5_0_split_7
I0209 18:50:48.743899  5886 net.cpp:399] fc1_right_eye_coordinate -> fc1_right_eye_coordinate
I0209 18:50:48.750535  5886 net.cpp:141] Setting up fc1_right_eye_coordinate
I0209 18:50:48.750555  5886 net.cpp:148] Top shape: 128 512 (65536)
I0209 18:50:48.750560  5886 net.cpp:156] Memory required for data: 877425692
I0209 18:50:48.750569  5886 layer_factory.hpp:77] Creating layer drop1_right_eye_coordinate
I0209 18:50:48.750581  5886 net.cpp:91] Creating Layer drop1_right_eye_coordinate
I0209 18:50:48.750586  5886 net.cpp:425] drop1_right_eye_coordinate <- fc1_right_eye_coordinate
I0209 18:50:48.750598  5886 net.cpp:386] drop1_right_eye_coordinate -> fc1_right_eye_coordinate (in-place)
I0209 18:50:48.750623  5886 net.cpp:141] Setting up drop1_right_eye_coordinate
I0209 18:50:48.750632  5886 net.cpp:148] Top shape: 128 512 (65536)
I0209 18:50:48.750634  5886 net.cpp:156] Memory required for data: 877687836
I0209 18:50:48.750639  5886 layer_factory.hpp:77] Creating layer fc2_right_eye_coordinate
I0209 18:50:48.750653  5886 net.cpp:91] Creating Layer fc2_right_eye_coordinate
I0209 18:50:48.750658  5886 net.cpp:425] fc2_right_eye_coordinate <- fc1_right_eye_coordinate
I0209 18:50:48.750666  5886 net.cpp:399] fc2_right_eye_coordinate -> fc2_right_eye_coordinate
I0209 18:50:48.750759  5886 net.cpp:141] Setting up fc2_right_eye_coordinate
I0209 18:50:48.750766  5886 net.cpp:148] Top shape: 128 2 (256)
I0209 18:50:48.750768  5886 net.cpp:156] Memory required for data: 877688860
I0209 18:50:48.750775  5886 layer_factory.hpp:77] Creating layer loss_right_eye_coordinate
I0209 18:50:48.750784  5886 net.cpp:91] Creating Layer loss_right_eye_coordinate
I0209 18:50:48.750790  5886 net.cpp:425] loss_right_eye_coordinate <- fc2_right_eye_coordinate
I0209 18:50:48.750795  5886 net.cpp:425] loss_right_eye_coordinate <- right_eye
I0209 18:50:48.750802  5886 net.cpp:399] loss_right_eye_coordinate -> loss_right_eye_coordinate
I0209 18:50:48.750838  5886 net.cpp:141] Setting up loss_right_eye_coordinate
I0209 18:50:48.750843  5886 net.cpp:148] Top shape: (1)
I0209 18:50:48.750845  5886 net.cpp:151]     with loss weight 1
I0209 18:50:48.750856  5886 net.cpp:156] Memory required for data: 877688864
I0209 18:50:48.750861  5886 layer_factory.hpp:77] Creating layer fc1_nose_coordinate
I0209 18:50:48.750869  5886 net.cpp:91] Creating Layer fc1_nose_coordinate
I0209 18:50:48.750874  5886 net.cpp:425] fc1_nose_coordinate <- conv5_relu5_0_split_8
I0209 18:50:48.750882  5886 net.cpp:399] fc1_nose_coordinate -> fc1_nose_coordinate
I0209 18:50:48.757649  5886 net.cpp:141] Setting up fc1_nose_coordinate
I0209 18:50:48.757669  5886 net.cpp:148] Top shape: 128 512 (65536)
I0209 18:50:48.757673  5886 net.cpp:156] Memory required for data: 877951008
I0209 18:50:48.757683  5886 layer_factory.hpp:77] Creating layer drop1_nose_coordinate
I0209 18:50:48.757694  5886 net.cpp:91] Creating Layer drop1_nose_coordinate
I0209 18:50:48.757701  5886 net.cpp:425] drop1_nose_coordinate <- fc1_nose_coordinate
I0209 18:50:48.757710  5886 net.cpp:386] drop1_nose_coordinate -> fc1_nose_coordinate (in-place)
I0209 18:50:48.757735  5886 net.cpp:141] Setting up drop1_nose_coordinate
I0209 18:50:48.757742  5886 net.cpp:148] Top shape: 128 512 (65536)
I0209 18:50:48.757745  5886 net.cpp:156] Memory required for data: 878213152
I0209 18:50:48.757750  5886 layer_factory.hpp:77] Creating layer fc2_nose_coordinate
I0209 18:50:48.757757  5886 net.cpp:91] Creating Layer fc2_nose_coordinate
I0209 18:50:48.757762  5886 net.cpp:425] fc2_nose_coordinate <- fc1_nose_coordinate
I0209 18:50:48.757771  5886 net.cpp:399] fc2_nose_coordinate -> fc2_nose_coordinate
I0209 18:50:48.757861  5886 net.cpp:141] Setting up fc2_nose_coordinate
I0209 18:50:48.757869  5886 net.cpp:148] Top shape: 128 2 (256)
I0209 18:50:48.757872  5886 net.cpp:156] Memory required for data: 878214176
I0209 18:50:48.757879  5886 layer_factory.hpp:77] Creating layer loss_nose_coordinate
I0209 18:50:48.757887  5886 net.cpp:91] Creating Layer loss_nose_coordinate
I0209 18:50:48.757892  5886 net.cpp:425] loss_nose_coordinate <- fc2_nose_coordinate
I0209 18:50:48.757910  5886 net.cpp:425] loss_nose_coordinate <- nose
I0209 18:50:48.757920  5886 net.cpp:399] loss_nose_coordinate -> loss_nose_coordinate
I0209 18:50:48.757952  5886 net.cpp:141] Setting up loss_nose_coordinate
I0209 18:50:48.757958  5886 net.cpp:148] Top shape: (1)
I0209 18:50:48.757961  5886 net.cpp:151]     with loss weight 1
I0209 18:50:48.757972  5886 net.cpp:156] Memory required for data: 878214180
I0209 18:50:48.757977  5886 layer_factory.hpp:77] Creating layer fc1_left_mouth_coordinate
I0209 18:50:48.757984  5886 net.cpp:91] Creating Layer fc1_left_mouth_coordinate
I0209 18:50:48.757990  5886 net.cpp:425] fc1_left_mouth_coordinate <- conv5_relu5_0_split_9
I0209 18:50:48.757998  5886 net.cpp:399] fc1_left_mouth_coordinate -> fc1_left_mouth_coordinate
I0209 18:50:48.764602  5886 net.cpp:141] Setting up fc1_left_mouth_coordinate
I0209 18:50:48.764618  5886 net.cpp:148] Top shape: 128 512 (65536)
I0209 18:50:48.764621  5886 net.cpp:156] Memory required for data: 878476324
I0209 18:50:48.764631  5886 layer_factory.hpp:77] Creating layer drop1_left_mouth_coordinate
I0209 18:50:48.764641  5886 net.cpp:91] Creating Layer drop1_left_mouth_coordinate
I0209 18:50:48.764645  5886 net.cpp:425] drop1_left_mouth_coordinate <- fc1_left_mouth_coordinate
I0209 18:50:48.764652  5886 net.cpp:386] drop1_left_mouth_coordinate -> fc1_left_mouth_coordinate (in-place)
I0209 18:50:48.764674  5886 net.cpp:141] Setting up drop1_left_mouth_coordinate
I0209 18:50:48.764681  5886 net.cpp:148] Top shape: 128 512 (65536)
I0209 18:50:48.764684  5886 net.cpp:156] Memory required for data: 878738468
I0209 18:50:48.764688  5886 layer_factory.hpp:77] Creating layer fc2_left_mouth_coordinate
I0209 18:50:48.764695  5886 net.cpp:91] Creating Layer fc2_left_mouth_coordinate
I0209 18:50:48.764700  5886 net.cpp:425] fc2_left_mouth_coordinate <- fc1_left_mouth_coordinate
I0209 18:50:48.764709  5886 net.cpp:399] fc2_left_mouth_coordinate -> fc2_left_mouth_coordinate
I0209 18:50:48.764792  5886 net.cpp:141] Setting up fc2_left_mouth_coordinate
I0209 18:50:48.764798  5886 net.cpp:148] Top shape: 128 2 (256)
I0209 18:50:48.764802  5886 net.cpp:156] Memory required for data: 878739492
I0209 18:50:48.764822  5886 layer_factory.hpp:77] Creating layer loss_left_mouth_coordinate
I0209 18:50:48.764829  5886 net.cpp:91] Creating Layer loss_left_mouth_coordinate
I0209 18:50:48.764833  5886 net.cpp:425] loss_left_mouth_coordinate <- fc2_left_mouth_coordinate
I0209 18:50:48.764838  5886 net.cpp:425] loss_left_mouth_coordinate <- left_mouth
I0209 18:50:48.764845  5886 net.cpp:399] loss_left_mouth_coordinate -> loss_left_mouth_coordinate
I0209 18:50:48.764876  5886 net.cpp:141] Setting up loss_left_mouth_coordinate
I0209 18:50:48.764883  5886 net.cpp:148] Top shape: (1)
I0209 18:50:48.764886  5886 net.cpp:151]     with loss weight 1
I0209 18:50:48.764894  5886 net.cpp:156] Memory required for data: 878739496
I0209 18:50:48.764897  5886 layer_factory.hpp:77] Creating layer fc1_center_mouth_coordinate
I0209 18:50:48.764904  5886 net.cpp:91] Creating Layer fc1_center_mouth_coordinate
I0209 18:50:48.764909  5886 net.cpp:425] fc1_center_mouth_coordinate <- conv5_relu5_0_split_10
I0209 18:50:48.764919  5886 net.cpp:399] fc1_center_mouth_coordinate -> fc1_center_mouth_coordinate
I0209 18:50:48.771246  5886 net.cpp:141] Setting up fc1_center_mouth_coordinate
I0209 18:50:48.771262  5886 net.cpp:148] Top shape: 128 512 (65536)
I0209 18:50:48.771266  5886 net.cpp:156] Memory required for data: 879001640
I0209 18:50:48.771275  5886 layer_factory.hpp:77] Creating layer drop1_center_mouth_coordinate
I0209 18:50:48.771282  5886 net.cpp:91] Creating Layer drop1_center_mouth_coordinate
I0209 18:50:48.771288  5886 net.cpp:425] drop1_center_mouth_coordinate <- fc1_center_mouth_coordinate
I0209 18:50:48.771297  5886 net.cpp:386] drop1_center_mouth_coordinate -> fc1_center_mouth_coordinate (in-place)
I0209 18:50:48.771317  5886 net.cpp:141] Setting up drop1_center_mouth_coordinate
I0209 18:50:48.771323  5886 net.cpp:148] Top shape: 128 512 (65536)
I0209 18:50:48.771337  5886 net.cpp:156] Memory required for data: 879263784
I0209 18:50:48.771342  5886 layer_factory.hpp:77] Creating layer fc2_center_mouth_coordinate
I0209 18:50:48.771353  5886 net.cpp:91] Creating Layer fc2_center_mouth_coordinate
I0209 18:50:48.771356  5886 net.cpp:425] fc2_center_mouth_coordinate <- fc1_center_mouth_coordinate
I0209 18:50:48.771363  5886 net.cpp:399] fc2_center_mouth_coordinate -> fc2_center_mouth_coordinate
I0209 18:50:48.771451  5886 net.cpp:141] Setting up fc2_center_mouth_coordinate
I0209 18:50:48.771457  5886 net.cpp:148] Top shape: 128 2 (256)
I0209 18:50:48.771461  5886 net.cpp:156] Memory required for data: 879264808
I0209 18:50:48.771466  5886 layer_factory.hpp:77] Creating layer loss_center_mouth_coordinate
I0209 18:50:48.771474  5886 net.cpp:91] Creating Layer loss_center_mouth_coordinate
I0209 18:50:48.771479  5886 net.cpp:425] loss_center_mouth_coordinate <- fc2_center_mouth_coordinate
I0209 18:50:48.771483  5886 net.cpp:425] loss_center_mouth_coordinate <- center_mouth
I0209 18:50:48.771491  5886 net.cpp:399] loss_center_mouth_coordinate -> loss_center_mouth_coordinate
I0209 18:50:48.771522  5886 net.cpp:141] Setting up loss_center_mouth_coordinate
I0209 18:50:48.771527  5886 net.cpp:148] Top shape: (1)
I0209 18:50:48.771529  5886 net.cpp:151]     with loss weight 1
I0209 18:50:48.771539  5886 net.cpp:156] Memory required for data: 879264812
I0209 18:50:48.771543  5886 layer_factory.hpp:77] Creating layer fc1_right_mouth_coordinate
I0209 18:50:48.771550  5886 net.cpp:91] Creating Layer fc1_right_mouth_coordinate
I0209 18:50:48.771555  5886 net.cpp:425] fc1_right_mouth_coordinate <- conv5_relu5_0_split_11
I0209 18:50:48.771564  5886 net.cpp:399] fc1_right_mouth_coordinate -> fc1_right_mouth_coordinate
I0209 18:50:48.777663  5886 net.cpp:141] Setting up fc1_right_mouth_coordinate
I0209 18:50:48.777679  5886 net.cpp:148] Top shape: 128 512 (65536)
I0209 18:50:48.777683  5886 net.cpp:156] Memory required for data: 879526956
I0209 18:50:48.777690  5886 layer_factory.hpp:77] Creating layer drop1_right_mouth_coordinate
I0209 18:50:48.777703  5886 net.cpp:91] Creating Layer drop1_right_mouth_coordinate
I0209 18:50:48.777709  5886 net.cpp:425] drop1_right_mouth_coordinate <- fc1_right_mouth_coordinate
I0209 18:50:48.777715  5886 net.cpp:386] drop1_right_mouth_coordinate -> fc1_right_mouth_coordinate (in-place)
I0209 18:50:48.777737  5886 net.cpp:141] Setting up drop1_right_mouth_coordinate
I0209 18:50:48.777746  5886 net.cpp:148] Top shape: 128 512 (65536)
I0209 18:50:48.777750  5886 net.cpp:156] Memory required for data: 879789100
I0209 18:50:48.777752  5886 layer_factory.hpp:77] Creating layer fc2_right_mouth_coordinate
I0209 18:50:48.777762  5886 net.cpp:91] Creating Layer fc2_right_mouth_coordinate
I0209 18:50:48.777766  5886 net.cpp:425] fc2_right_mouth_coordinate <- fc1_right_mouth_coordinate
I0209 18:50:48.777775  5886 net.cpp:399] fc2_right_mouth_coordinate -> fc2_right_mouth_coordinate
I0209 18:50:48.777853  5886 net.cpp:141] Setting up fc2_right_mouth_coordinate
I0209 18:50:48.777858  5886 net.cpp:148] Top shape: 128 2 (256)
I0209 18:50:48.777863  5886 net.cpp:156] Memory required for data: 879790124
I0209 18:50:48.777868  5886 layer_factory.hpp:77] Creating layer loss_right_mouth_coordinate
I0209 18:50:48.777873  5886 net.cpp:91] Creating Layer loss_right_mouth_coordinate
I0209 18:50:48.777878  5886 net.cpp:425] loss_right_mouth_coordinate <- fc2_right_mouth_coordinate
I0209 18:50:48.777884  5886 net.cpp:425] loss_right_mouth_coordinate <- right_mouth
…
