…
I0209 10:46:57.144965  4975 net.cpp:49] Initializing net from parameters: 
name: "FaceNet"
state {
  phase: TRAIN
}
layer {
  name: "data"
  type: "HDF5Data"
  top: "data"
  top: "eye_visibility_left"
  top: "eye_visibility_right"
  top: "nose_visibility"
  top: "mouth_visibility_left"
  top: "mouth_visibility_center"
  top: "mouth_visibility_right"
  include {
    phase: TRAIN
  }
  hdf5_data_param {
    source: "/home/wzleong/Downloads/nottingham_with_scaling_eye_nose_mouth/train_scaled_mean_subtracted_own_data_multiple_label_data_list.txt"
    batch_size: 128
    shuffle: true
  }
}
layer {
  name: "conv1"
  type: "Convolution"
  bottom: "data"
  top: "conv1"
  param {
    lr_mult: 1
    decay_mult: 1
  }
  param {
    lr_mult: 2
    decay_mult: 0
  }
  convolution_param {
    num_output: 32
    pad: 0
    kernel_size: 13
    stride: 2
    weight_filler {
      type: "xavier"
    }
    bias_filler {
      type: "constant"
    }
  }
}
layer {
  name: "relu1"
  type: "ReLU"
  bottom: "conv1"
  top: "conv1"
}
layer {
  name: "pool1"
  type: "Pooling"
  bottom: "conv1"
  top: "pool1"
  pooling_param {
    pool: MAX
    kernel_size: 2
    stride: 2
  }
}
layer {
  name: "conv2_1"
  type: "Convolution"
  bottom: "pool1"
  top: "conv2_1"
  param {
    lr_mult: 1
    decay_mult: 1
  }
  param {
    lr_mult: 2
    decay_mult: 0
  }
  convolution_param {
    num_output: 32
    pad: 0
    kernel_size: 3
    stride: 1
    weight_filler {
      type: "xavier"
    }
    bias_filler {
      type: "constant"
    }
  }
}
layer {
  name: "relu2_1"
  type: "ReLU"
  bottom: "conv2_1"
  top: "conv2_1"
}
layer {
  name: "conv2_2"
  type: "Convolution"
  bottom: "conv2_1"
  top: "conv2_2"
  param {
    lr_mult: 1
    decay_mult: 1
  }
  param {
    lr_mult: 2
    decay_mult: 0
  }
  convolution_param {
    num_output: 32
    pad: 0
    kernel_size: 3
    stride: 1
    weight_filler {
      type: "xavier"
    }
    bias_filler {
      type: "constant"
    }
  }
}
layer {
  name: "relu2_2"
  type: "ReLU"
  bottom: "conv2_2"
  top: "conv2_2"
}
layer {
  name: "conv2_3"
  type: "Convolution"
  bottom: "conv2_2"
  top: "conv2_3"
  param {
    lr_mult: 1
    decay_mult: 1
  }
  param {
    lr_mult: 2
    decay_mult: 0
  }
  convolution_param {
    num_output: 32
    pad: 0
    kernel_size: 3
    stride: 1
    weight_filler {
      type: "xavier"
    }
    bias_filler {
      type: "constant"
    }
  }
}
layer {
  name: "relu2_3"
  type: "ReLU"
  bottom: "conv2_3"
  top: "conv2_3"
}
layer {
  name: "conv2_4"
  type: "Convolution"
  bottom: "conv2_3"
  top: "conv2_4"
  param {
    lr_mult: 1
    decay_mult: 1
  }
  param {
    lr_mult: 2
    decay_mult: 0
  }
  convolution_param {
    num_output: 32
    pad: 0
    kernel_size: 3
    stride: 1
    weight_filler {
      type: "xavier"
    }
    bias_filler {
      type: "constant"
    }
  }
}
layer {
  name: "relu2_4"
  type: "ReLU"
  bottom: "conv2_4"
  top: "conv2_4"
}
layer {
  name: "conv2_sub"
  type: "Convolution"
  bottom: "pool1"
  top: "conv2_sub"
  param {
    lr_mult: 1
    decay_mult: 1
  }
  param {
    lr_mult: 2
    decay_mult: 0
  }
  convolution_param {
    num_output: 32
    pad: 0
    kernel_size: 3
    stride: 1
    weight_filler {
      type: "xavier"
    }
    bias_filler {
      type: "constant"
    }
    dilation: 4
  }
}
layer {
  name: "relu2_sub"
  type: "ReLU"
  bottom: "conv2_sub"
  top: "conv2_sub"
}
layer {
  name: "concat_conv2"
  type: "Concat"
  bottom: "conv2_sub"
  bottom: "conv2_4"
  top: "concat_conv2"
  concat_param {
    axis: 1
  }
}
layer {
  name: "pool2"
  type: "Pooling"
  bottom: "concat_conv2"
  top: "pool2"
  pooling_param {
    pool: MAX
    kernel_size: 2
    stride: 2
  }
}
layer {
  name: "conv3_1"
  type: "Convolution"
  bottom: "pool2"
  top: "conv3_1"
  param {
    lr_mult: 1
    decay_mult: 1
  }
  param {
    lr_mult: 2
    decay_mult: 0
  }
  convolution_param {
    num_output: 32
    pad: 0
    kernel_size: 3
    stride: 1
    weight_filler {
      type: "xavier"
    }
    bias_filler {
      type: "constant"
    }
  }
}
layer {
  name: "relu3_1"
  type: "ReLU"
  bottom: "conv3_1"
  top: "conv3_1"
}
layer {
  name: "conv3_2"
  type: "Convolution"
  bottom: "conv3_1"
  top: "conv3_2"
  param {
    lr_mult: 1
    decay_mult: 1
  }
  param {
    lr_mult: 2
    decay_mult: 0
  }
  convolution_param {
    num_output: 64
    pad: 0
    kernel_size: 3
    stride: 1
    weight_filler {
      type: "xavier"
    }
    bias_filler {
      type: "constant"
    }
  }
}
layer {
  name: "relu3_2"
  type: "ReLU"
  bottom: "conv3_2"
  top: "conv3_2"
}
layer {
  name: "conv3_sub"
  type: "Convolution"
  bottom: "pool2"
  top: "conv3_sub"
  param {
    lr_mult: 1
    decay_mult: 1
  }
  param {
    lr_mult: 2
    decay_mult: 0
  }
  convolution_param {
    num_output: 64
    pad: 0
    kernel_size: 3
    stride: 1
    weight_filler {
      type: "xavier"
    }
    bias_filler {
      type: "constant"
    }
    dilation: 2
  }
}
layer {
  name: "relu3_sub"
  type: "ReLU"
  bottom: "conv3_sub"
  top: "conv3_sub"
}
layer {
  name: "concat_conv3"
  type: "Concat"
  bottom: "conv3_sub"
  bottom: "conv3_2"
  top: "concat_conv3"
  concat_param {
    axis: 1
  }
}
layer {
  name: "pool3"
  type: "Pooling"
  bottom: "concat_conv3"
  top: "pool3"
  pooling_param {
    pool: MAX
    kernel_size: 2
    stride: 2
  }
}
layer {
  name: "conv4_1"
  type: "Convolution"
  bottom: "pool3"
  top: "conv4_1"
  param {
    lr_mult: 1
    decay_mult: 1
  }
  param {
    lr_mult: 2
    decay_mult: 0
  }
  convolution_param {
    num_output: 64
    pad: 0
    kernel_size: 3
    stride: 1
    weight_filler {
      type: "xavier"
    }
    bias_filler {
      type: "constant"
    }
  }
}
layer {
  name: "relu4_1"
  type: "ReLU"
  bottom: "conv4_1"
  top: "conv4_1"
}
layer {
  name: "conv4_2"
  type: "Convolution"
  bottom: "conv4_1"
  top: "conv4_2"
  param {
    lr_mult: 1
    decay_mult: 1
  }
  param {
    lr_mult: 2
    decay_mult: 0
  }
  convolution_param {
    num_output: 128
    pad: 0
    kernel_size: 3
    stride: 1
    weight_filler {
      type: "xavier"
    }
    bias_filler {
      type: "constant"
    }
  }
}
layer {
  name: "relu4_2"
  type: "ReLU"
  bottom: "conv4_2"
  top: "conv4_2"
}
layer {
  name: "conv4_3"
  type: "Convolution"
  bottom: "conv4_2"
  top: "conv4_3"
  param {
    lr_mult: 1
    decay_mult: 1
  }
  param {
    lr_mult: 2
    decay_mult: 0
  }
  convolution_param {
    num_output: 128
    pad: 0
    kernel_size: 3
    stride: 1
    weight_filler {
      type: "xavier"
    }
    bias_filler {
      type: "constant"
    }
  }
}
layer {
  name: "relu4_3"
  type: "ReLU"
  bottom: "conv4_3"
  top: "conv4_3"
}
layer {
  name: "conv5"
  type: "Convolution"
  bottom: "conv4_3"
  top: "conv5"
  param {
    lr_mult: 1
    decay_mult: 1
  }
  param {
    lr_mult: 2
    decay_mult: 0
  }
  convolution_param {
    num_output: 512
    pad: 0
    kernel_size: 1
    stride: 1
    weight_filler {
      type: "xavier"
    }
    bias_filler {
      type: "constant"
    }
  }
}
layer {
  name: "relu5"
  type: "ReLU"
  bottom: "conv5"
  top: "conv5"
}
layer {
  name: "fc1_left_eye_confidence"
  type: "InnerProduct"
  bottom: "conv5"
  top: "fc1_left_eye_confidence"
  param {
    lr_mult: 1
    decay_mult: 1
  }
  param {
    lr_mult: 2
    decay_mult: 0
  }
  inner_product_param {
    num_output: 256
    weight_filler {
      type: "xavier"
    }
    bias_filler {
      type: "constant"
      value: 0.1
    }
  }
}
layer {
  name: "relu_left_eye_confidence"
  type: "ReLU"
  bottom: "fc1_left_eye_confidence"
  top: "fc1_left_eye_confidence"
}
layer {
  name: "drop1_left_eye_confidence"
  type: "Dropout"
  bottom: "fc1_left_eye_confidence"
  top: "fc1_left_eye_confidence"
  dropout_param {
    dropout_ratio: 0.5
  }
}
layer {
  name: "fc2_left_eye_confidence"
  type: "InnerProduct"
  bottom: "fc1_left_eye_confidence"
  top: "fc2_left_eye_confidence"
  param {
    lr_mult: 1
    decay_mult: 1
  }
  param {
    lr_mult: 2
    decay_mult: 0
  }
  inner_product_param {
    num_output: 1
    weight_filler {
      type: "gaussian"
      std: 0.5
    }
    bias_filler {
      type: "constant"
      value: 0.5
    }
  }
}
layer {
  name: "loss_left_eye_confidence"
  type: "EuclideanLoss"
  bottom: "fc2_left_eye_confidence"
  bottom: "eye_visibility_left"
  top: "loss_left_eye_confidence"
}
layer {
  name: "fc1_right_eye_confidence"
  type: "InnerProduct"
  bottom: "conv5"
  top: "fc1_right_eye_confidence"
  param {
    lr_mult: 1
    decay_mult: 1
  }
  param {
    lr_mult: 2
    decay_mult: 0
  }
  inner_product_param {
    num_output: 256
    weight_filler {
      type: "xavier"
    }
    bias_filler {
      type: "constant"
      value: 0.1
    }
  }
}
layer {
  name: "relu_right_eye_confidence"
  type: "ReLU"
  bottom: "fc1_right_eye_confidence"
  top: "fc1_right_eye_confidence"
}
layer {
  name: "drop1_right_eye_confidence"
  type: "Dropout"
  bottom: "fc1_right_eye_confidence"
  top: "fc1_right_eye_confidence"
  dropout_param {
    dropout_ratio: 0.5
  }
}
layer {
  name: "fc2_right_eye_confidence"
  type: "InnerProduct"
  bottom: "fc1_right_eye_confidence"
  top: "fc2_right_eye_confidence"
  param {
    lr_mult: 1
    decay_mult: 1
  }
  param {
    lr_mult: 2
    decay_mult: 0
  }
  inner_product_param {
    num_output: 1
    weight_filler {
      type: "gaussian"
      std: 0.5
    }
    bias_filler {
      type: "constant"
      value: 0.5
    }
  }
}
layer {
  name: "loss_right_eye_confidence"
  type: "EuclideanLoss"
  bottom: "fc2_right_eye_confidence"
  bottom: "eye_visibility_right"
  top: "loss_right_eye_confidence"
}
layer {
  name: "fc1_nose_confidence"
  type: "InnerProduct"
  bottom: "conv5"
  top: "fc1_nose_confidence"
  param {
    lr_mult: 1
    decay_mult: 1
  }
  param {
    lr_mult: 2
    decay_mult: 0
  }
  inner_product_param {
    num_output: 256
    weight_filler {
      type: "xavier"
    }
    bias_filler {
      type: "constant"
      value: 0.1
    }
  }
}
layer {
  name: "relu_nose_confidence"
  type: "ReLU"
  bottom: "fc1_nose_confidence"
  top: "fc1_nose_confidence"
}
layer {
  name: "drop1_nose_confidence"
  type: "Dropout"
  bottom: "fc1_nose_confidence"
  top: "fc1_nose_confidence"
  dropout_param {
    dropout_ratio: 0.5
  }
}
layer {
  name: "fc2_nose_confidence"
  type: "InnerProduct"
  bottom: "fc1_nose_confidence"
  top: "fc2_nose_confidence"
  param {
    lr_mult: 1
    decay_mult: 1
  }
  param {
    lr_mult: 2
    decay_mult: 0
  }
  inner_product_param {
    num_output: 1
    weight_filler {
      type: "gaussian"
      std: 0.5
    }
    bias_filler {
      type: "constant"
      value: 0.5
    }
  }
}
layer {
  name: "loss_nose_confidence"
  type: "EuclideanLoss"
  bottom: "fc2_nose_confidence"
  bottom: "nose_visibility"
  top: "loss_nose_confidence"
}
layer {
  name: "fc1_left_mouth_confidence"
  type: "InnerProduct"
  bottom: "conv5"
  top: "fc1_left_mouth_confidence"
  param {
    lr_mult: 1
    decay_mult: 1
  }
  param {
    lr_mult: 2
    decay_mult: 0
  }
  inner_product_param {
    num_output: 256
    weight_filler {
      type: "xavier"
    }
    bias_filler {
      type: "constant"
      value: 0.1
    }
  }
}
layer {
  name: "relu_left_mouth_confidence"
  type: "ReLU"
  bottom: "fc1_left_mouth_confidence"
  top: "fc1_left_mouth_confidence"
}
layer {
  name: "drop1_left_mouth_confidence"
  type: "Dropout"
  bottom: "fc1_left_mouth_confidence"
  top: "fc1_left_mouth_confidence"
  dropout_param {
    dropout_ratio: 0.5
  }
}
layer {
  name: "fc2_left_mouth_confidence"
  type: "InnerProduct"
  bottom: "fc1_left_mouth_confidence"
  top: "fc2_left_mouth_confidence"
  param {
    lr_mult: 1
    decay_mult: 1
  }
  param {
    lr_mult: 2
    decay_mult: 0
  }
  inner_product_param {
    num_output: 1
    weight_filler {
      type: "gaussian"
      std: 0.5
    }
    bias_filler {
      type: "constant"
      value: 0.5
    }
  }
}
layer {
  name: "loss_left_mouth_confidence"
  type: "EuclideanLoss"
  bottom: "fc2_left_mouth_confidence"
  bottom: "mouth_visibility_left"
  top: "loss_left_mouth_confidence"
}
layer {
  name: "fc1_center_mouth_confidence"
  type: "InnerProduct"
  bottom: "conv5"
  top: "fc1_center_mouth_confidence"
  param {
    lr_mult: 1
    decay_mult: 1
  }
  param {
    lr_mult: 2
    decay_mult: 0
  }
  inner_product_param {
    num_output: 256
    weight_filler {
      type: "xavier"
    }
    bias_filler {
      type: "constant"
      value: 0.1
    }
  }
}
layer {
  name: "relu_center_mouth_confidence"
  type: "ReLU"
  bottom: "fc1_center_mouth_confidence"
  top: "fc1_center_mouth_confidence"
}
layer {
  name: "drop1_center_mouth_confidence"
  type: "Dropout"
  bottom: "fc1_center_mouth_confidence"
  top: "fc1_center_mouth_confidence"
  dropout_param {
    dropout_ratio: 0.5
  }
}
layer {
  name: "fc2_center_mouth_confidence"
  type: "InnerProduct"
  bottom: "fc1_center_mouth_confidence"
  top: "fc2_center_mouth_confidence"
  param {
    lr_mult: 1
    decay_mult: 1
  }
  param {
    lr_mult: 2
    decay_mult: 0
  }
  inner_product_param {
    num_output: 1
    weight_filler {
      type: "gaussian"
      std: 0.5
    }
    bias_filler {
      type: "constant"
      value: 0.5
    }
  }
}
layer {
  name: "loss_center_mouth_confidence"
  type: "EuclideanLoss"
  bottom: "fc2_center_mouth_confidence"
  bottom: "mouth_visibility_center"
  top: "loss_center_mouth_confidence"
}
layer {
  name: "fc1_right_mouth_confidence"
  type: "InnerProduct"
  bottom: "conv5"
  top: "fc1_right_mouth_confidence"
  param {
    lr_mult: 1
    decay_mult: 1
  }
  param {
    lr_mult: 2
    decay_mult: 0
  }
  inner_product_param {
    num_output: 256
    weight_filler {
      type: "xavier"
    }
    bias_filler {
      type: "constant"
      value: 0.1
    }
  }
}
layer {
  name: "relu_right_mouth_confidence"
  type: "ReLU"
  bottom: "fc1_right_mouth_confidence"
  top: "fc1_right_mouth_confidence"
}
layer {
  name: "drop1_right_mouth_confidence"
  type: "Dropout"
  bottom: "fc1_right_mouth_confidence"
  top: "fc1_right_mouth_confidence"
  dropout_param {
    dropout_ratio: 0.5
  }
}
layer {
  name: "fc2_right_mouth_confidence"
  type: "InnerProduct"
  bottom: "fc1_right_mouth_confidence"
  top: "fc2_right_mouth_confidence"
  param {
    lr_mult: 1
    decay_mult: 1
  }
  param {
    lr_mult: 2
    decay_mult: 0
  }
  inner_product_param {
    num_output: 1
    weight_filler {
      type: "gaussian"
      std: 0.5
    }
    bias_filler {
      type: "constant"
      value: 0.5
    }
  }
}
layer {
  name: "loss_right_mouth_confidence"
  type: "EuclideanLoss"
  bottom: "fc2_right_mouth_confidence"
  bottom: "mouth_visibility_right"
  top: "loss_right_mouth_confidence"
}
I0209 10:46:57.145313  4975 layer_factory.hpp:77] Creating layer data
I0209 10:46:57.145328  4975 net.cpp:91] Creating Layer data
I0209 10:46:57.145334  4975 net.cpp:399] data -> data
I0209 10:46:57.145390  4975 net.cpp:399] data -> eye_visibility_left
I0209 10:46:57.145401  4975 net.cpp:399] data -> eye_visibility_right
I0209 10:46:57.145423  4975 net.cpp:399] data -> nose_visibility
I0209 10:46:57.145447  4975 net.cpp:399] data -> mouth_visibility_left
I0209 10:46:57.145455  4975 net.cpp:399] data -> mouth_visibility_center
I0209 10:46:57.145478  4975 net.cpp:399] data -> mouth_visibility_right
I0209 10:46:57.145484  4975 hdf5_data_layer.cpp:79] Loading list of HDF5 filenames from: /home/wzleong/Downloads/nottingham_with_scaling_eye_nose_mouth/train_scaled_mean_subtracted_own_data_multiple_label_data_list.txt
I0209 10:46:57.145548  4975 hdf5_data_layer.cpp:93] Number of HDF5 files: 8
I0209 10:46:57.146363  4975 hdf5.cpp:32] Datatype class: H5T_FLOAT
I0209 10:46:57.443421  4975 net.cpp:141] Setting up data
I0209 10:46:57.443441  4975 net.cpp:148] Top shape: 128 1 200 200 (5120000)
I0209 10:46:57.443445  4975 net.cpp:148] Top shape: 128 1 (128)
I0209 10:46:57.443449  4975 net.cpp:148] Top shape: 128 1 (128)
I0209 10:46:57.443451  4975 net.cpp:148] Top shape: 128 1 (128)
I0209 10:46:57.443454  4975 net.cpp:148] Top shape: 128 1 (128)
I0209 10:46:57.443457  4975 net.cpp:148] Top shape: 128 1 (128)
I0209 10:46:57.443460  4975 net.cpp:148] Top shape: 128 1 (128)
I0209 10:46:57.443461  4975 net.cpp:156] Memory required for data: 20483072
I0209 10:46:57.443469  4975 layer_factory.hpp:77] Creating layer conv1
I0209 10:46:57.443485  4975 net.cpp:91] Creating Layer conv1
I0209 10:46:57.443491  4975 net.cpp:425] conv1 <- data
I0209 10:46:57.443500  4975 net.cpp:399] conv1 -> conv1
I0209 10:46:57.444128  4975 net.cpp:141] Setting up conv1
I0209 10:46:57.444135  4975 net.cpp:148] Top shape: 128 32 94 94 (36192256)
I0209 10:46:57.444139  4975 net.cpp:156] Memory required for data: 165252096
I0209 10:46:57.444154  4975 layer_factory.hpp:77] Creating layer relu1
I0209 10:46:57.444159  4975 net.cpp:91] Creating Layer relu1
I0209 10:46:57.444161  4975 net.cpp:425] relu1 <- conv1
I0209 10:46:57.444166  4975 net.cpp:386] relu1 -> conv1 (in-place)
I0209 10:46:57.444174  4975 net.cpp:141] Setting up relu1
I0209 10:46:57.444180  4975 net.cpp:148] Top shape: 128 32 94 94 (36192256)
I0209 10:46:57.444182  4975 net.cpp:156] Memory required for data: 310021120
I0209 10:46:57.444185  4975 layer_factory.hpp:77] Creating layer pool1
I0209 10:46:57.444195  4975 net.cpp:91] Creating Layer pool1
I0209 10:46:57.444200  4975 net.cpp:425] pool1 <- conv1
I0209 10:46:57.444205  4975 net.cpp:399] pool1 -> pool1
I0209 10:46:57.444244  4975 net.cpp:141] Setting up pool1
I0209 10:46:57.444250  4975 net.cpp:148] Top shape: 128 32 47 47 (9048064)
I0209 10:46:57.444253  4975 net.cpp:156] Memory required for data: 346213376
I0209 10:46:57.444255  4975 layer_factory.hpp:77] Creating layer pool1_pool1_0_split
I0209 10:46:57.444259  4975 net.cpp:91] Creating Layer pool1_pool1_0_split
I0209 10:46:57.444262  4975 net.cpp:425] pool1_pool1_0_split <- pool1
I0209 10:46:57.444267  4975 net.cpp:399] pool1_pool1_0_split -> pool1_pool1_0_split_0
I0209 10:46:57.444270  4975 net.cpp:399] pool1_pool1_0_split -> pool1_pool1_0_split_1
I0209 10:46:57.444298  4975 net.cpp:141] Setting up pool1_pool1_0_split
I0209 10:46:57.444304  4975 net.cpp:148] Top shape: 128 32 47 47 (9048064)
I0209 10:46:57.444308  4975 net.cpp:148] Top shape: 128 32 47 47 (9048064)
I0209 10:46:57.444308  4975 net.cpp:156] Memory required for data: 418597888
I0209 10:46:57.444310  4975 layer_factory.hpp:77] Creating layer conv2_1
I0209 10:46:57.444319  4975 net.cpp:91] Creating Layer conv2_1
I0209 10:46:57.444320  4975 net.cpp:425] conv2_1 <- pool1_pool1_0_split_0
I0209 10:46:57.444324  4975 net.cpp:399] conv2_1 -> conv2_1
I0209 10:46:57.444903  4975 net.cpp:141] Setting up conv2_1
I0209 10:46:57.444912  4975 net.cpp:148] Top shape: 128 32 45 45 (8294400)
I0209 10:46:57.444916  4975 net.cpp:156] Memory required for data: 451775488
I0209 10:46:57.444922  4975 layer_factory.hpp:77] Creating layer relu2_1
I0209 10:46:57.444926  4975 net.cpp:91] Creating Layer relu2_1
I0209 10:46:57.444929  4975 net.cpp:425] relu2_1 <- conv2_1
I0209 10:46:57.444933  4975 net.cpp:386] relu2_1 -> conv2_1 (in-place)
I0209 10:46:57.444938  4975 net.cpp:141] Setting up relu2_1
I0209 10:46:57.444941  4975 net.cpp:148] Top shape: 128 32 45 45 (8294400)
I0209 10:46:57.444944  4975 net.cpp:156] Memory required for data: 484953088
I0209 10:46:57.444948  4975 layer_factory.hpp:77] Creating layer conv2_2
I0209 10:46:57.444957  4975 net.cpp:91] Creating Layer conv2_2
I0209 10:46:57.444962  4975 net.cpp:425] conv2_2 <- conv2_1
I0209 10:46:57.444967  4975 net.cpp:399] conv2_2 -> conv2_2
I0209 10:46:57.445189  4975 net.cpp:141] Setting up conv2_2
I0209 10:46:57.445195  4975 net.cpp:148] Top shape: 128 32 43 43 (7573504)
I0209 10:46:57.445209  4975 net.cpp:156] Memory required for data: 515247104
I0209 10:46:57.445216  4975 layer_factory.hpp:77] Creating layer relu2_2
I0209 10:46:57.445221  4975 net.cpp:91] Creating Layer relu2_2
I0209 10:46:57.445225  4975 net.cpp:425] relu2_2 <- conv2_2
I0209 10:46:57.445227  4975 net.cpp:386] relu2_2 -> conv2_2 (in-place)
I0209 10:46:57.445232  4975 net.cpp:141] Setting up relu2_2
I0209 10:46:57.445238  4975 net.cpp:148] Top shape: 128 32 43 43 (7573504)
I0209 10:46:57.445240  4975 net.cpp:156] Memory required for data: 545541120
I0209 10:46:57.445243  4975 layer_factory.hpp:77] Creating layer conv2_3
I0209 10:46:57.445252  4975 net.cpp:91] Creating Layer conv2_3
I0209 10:46:57.445256  4975 net.cpp:425] conv2_3 <- conv2_2
I0209 10:46:57.445261  4975 net.cpp:399] conv2_3 -> conv2_3
I0209 10:46:57.445472  4975 net.cpp:141] Setting up conv2_3
I0209 10:46:57.445479  4975 net.cpp:148] Top shape: 128 32 41 41 (6885376)
I0209 10:46:57.445482  4975 net.cpp:156] Memory required for data: 573082624
I0209 10:46:57.445485  4975 layer_factory.hpp:77] Creating layer relu2_3
I0209 10:46:57.445489  4975 net.cpp:91] Creating Layer relu2_3
I0209 10:46:57.445492  4975 net.cpp:425] relu2_3 <- conv2_3
I0209 10:46:57.445495  4975 net.cpp:386] relu2_3 -> conv2_3 (in-place)
I0209 10:46:57.445498  4975 net.cpp:141] Setting up relu2_3
I0209 10:46:57.445502  4975 net.cpp:148] Top shape: 128 32 41 41 (6885376)
I0209 10:46:57.445504  4975 net.cpp:156] Memory required for data: 600624128
I0209 10:46:57.445507  4975 layer_factory.hpp:77] Creating layer conv2_4
I0209 10:46:57.445513  4975 net.cpp:91] Creating Layer conv2_4
I0209 10:46:57.445516  4975 net.cpp:425] conv2_4 <- conv2_3
I0209 10:46:57.445523  4975 net.cpp:399] conv2_4 -> conv2_4
I0209 10:46:57.445739  4975 net.cpp:141] Setting up conv2_4
I0209 10:46:57.445744  4975 net.cpp:148] Top shape: 128 32 39 39 (6230016)
I0209 10:46:57.445745  4975 net.cpp:156] Memory required for data: 625544192
I0209 10:46:57.445752  4975 layer_factory.hpp:77] Creating layer relu2_4
I0209 10:46:57.445756  4975 net.cpp:91] Creating Layer relu2_4
I0209 10:46:57.445758  4975 net.cpp:425] relu2_4 <- conv2_4
I0209 10:46:57.445761  4975 net.cpp:386] relu2_4 -> conv2_4 (in-place)
I0209 10:46:57.445765  4975 net.cpp:141] Setting up relu2_4
I0209 10:46:57.445768  4975 net.cpp:148] Top shape: 128 32 39 39 (6230016)
I0209 10:46:57.445770  4975 net.cpp:156] Memory required for data: 650464256
I0209 10:46:57.445773  4975 layer_factory.hpp:77] Creating layer conv2_sub
I0209 10:46:57.445781  4975 net.cpp:91] Creating Layer conv2_sub
I0209 10:46:57.445785  4975 net.cpp:425] conv2_sub <- pool1_pool1_0_split_1
I0209 10:46:57.445791  4975 net.cpp:399] conv2_sub -> conv2_sub
I0209 10:46:57.446004  4975 net.cpp:141] Setting up conv2_sub
I0209 10:46:57.446010  4975 net.cpp:148] Top shape: 128 32 39 39 (6230016)
I0209 10:46:57.446013  4975 net.cpp:156] Memory required for data: 675384320
I0209 10:46:57.446017  4975 layer_factory.hpp:77] Creating layer relu2_sub
I0209 10:46:57.446020  4975 net.cpp:91] Creating Layer relu2_sub
I0209 10:46:57.446023  4975 net.cpp:425] relu2_sub <- conv2_sub
I0209 10:46:57.446027  4975 net.cpp:386] relu2_sub -> conv2_sub (in-place)
I0209 10:46:57.446030  4975 net.cpp:141] Setting up relu2_sub
I0209 10:46:57.446033  4975 net.cpp:148] Top shape: 128 32 39 39 (6230016)
I0209 10:46:57.446036  4975 net.cpp:156] Memory required for data: 700304384
I0209 10:46:57.446038  4975 layer_factory.hpp:77] Creating layer concat_conv2
I0209 10:46:57.446043  4975 net.cpp:91] Creating Layer concat_conv2
I0209 10:46:57.446044  4975 net.cpp:425] concat_conv2 <- conv2_sub
I0209 10:46:57.446048  4975 net.cpp:425] concat_conv2 <- conv2_4
I0209 10:46:57.446050  4975 net.cpp:399] concat_conv2 -> concat_conv2
I0209 10:46:57.446071  4975 net.cpp:141] Setting up concat_conv2
I0209 10:46:57.446075  4975 net.cpp:148] Top shape: 128 64 39 39 (12460032)
I0209 10:46:57.446079  4975 net.cpp:156] Memory required for data: 750144512
I0209 10:46:57.446080  4975 layer_factory.hpp:77] Creating layer pool2
I0209 10:46:57.446092  4975 net.cpp:91] Creating Layer pool2
I0209 10:46:57.446095  4975 net.cpp:425] pool2 <- concat_conv2
I0209 10:46:57.446100  4975 net.cpp:399] pool2 -> pool2
I0209 10:46:57.446126  4975 net.cpp:141] Setting up pool2
I0209 10:46:57.446131  4975 net.cpp:148] Top shape: 128 64 20 20 (3276800)
I0209 10:46:57.446133  4975 net.cpp:156] Memory required for data: 763251712
I0209 10:46:57.446136  4975 layer_factory.hpp:77] Creating layer pool2_pool2_0_split
I0209 10:46:57.446140  4975 net.cpp:91] Creating Layer pool2_pool2_0_split
I0209 10:46:57.446142  4975 net.cpp:425] pool2_pool2_0_split <- pool2
I0209 10:46:57.446146  4975 net.cpp:399] pool2_pool2_0_split -> pool2_pool2_0_split_0
I0209 10:46:57.446156  4975 net.cpp:399] pool2_pool2_0_split -> pool2_pool2_0_split_1
I0209 10:46:57.446185  4975 net.cpp:141] Setting up pool2_pool2_0_split
I0209 10:46:57.446189  4975 net.cpp:148] Top shape: 128 64 20 20 (3276800)
I0209 10:46:57.446192  4975 net.cpp:148] Top shape: 128 64 20 20 (3276800)
I0209 10:46:57.446195  4975 net.cpp:156] Memory required for data: 789466112
I0209 10:46:57.446197  4975 layer_factory.hpp:77] Creating layer conv3_1
I0209 10:46:57.446203  4975 net.cpp:91] Creating Layer conv3_1
I0209 10:46:57.446205  4975 net.cpp:425] conv3_1 <- pool2_pool2_0_split_0
I0209 10:46:57.446210  4975 net.cpp:399] conv3_1 -> conv3_1
I0209 10:46:57.447160  4975 net.cpp:141] Setting up conv3_1
I0209 10:46:57.447168  4975 net.cpp:148] Top shape: 128 32 18 18 (1327104)
I0209 10:46:57.447170  4975 net.cpp:156] Memory required for data: 794774528
I0209 10:46:57.447176  4975 layer_factory.hpp:77] Creating layer relu3_1
I0209 10:46:57.447180  4975 net.cpp:91] Creating Layer relu3_1
I0209 10:46:57.447182  4975 net.cpp:425] relu3_1 <- conv3_1
I0209 10:46:57.447186  4975 net.cpp:386] relu3_1 -> conv3_1 (in-place)
I0209 10:46:57.447191  4975 net.cpp:141] Setting up relu3_1
I0209 10:46:57.447194  4975 net.cpp:148] Top shape: 128 32 18 18 (1327104)
I0209 10:46:57.447197  4975 net.cpp:156] Memory required for data: 800082944
I0209 10:46:57.447199  4975 layer_factory.hpp:77] Creating layer conv3_2
I0209 10:46:57.447206  4975 net.cpp:91] Creating Layer conv3_2
I0209 10:46:57.447209  4975 net.cpp:425] conv3_2 <- conv3_1
I0209 10:46:57.447214  4975 net.cpp:399] conv3_2 -> conv3_2
I0209 10:46:57.447484  4975 net.cpp:141] Setting up conv3_2
I0209 10:46:57.447489  4975 net.cpp:148] Top shape: 128 64 16 16 (2097152)
I0209 10:46:57.447491  4975 net.cpp:156] Memory required for data: 808471552
I0209 10:46:57.447495  4975 layer_factory.hpp:77] Creating layer relu3_2
I0209 10:46:57.447499  4975 net.cpp:91] Creating Layer relu3_2
I0209 10:46:57.447501  4975 net.cpp:425] relu3_2 <- conv3_2
I0209 10:46:57.447504  4975 net.cpp:386] relu3_2 -> conv3_2 (in-place)
I0209 10:46:57.447509  4975 net.cpp:141] Setting up relu3_2
I0209 10:46:57.447511  4975 net.cpp:148] Top shape: 128 64 16 16 (2097152)
I0209 10:46:57.447513  4975 net.cpp:156] Memory required for data: 816860160
I0209 10:46:57.447516  4975 layer_factory.hpp:77] Creating layer conv3_sub
I0209 10:46:57.447522  4975 net.cpp:91] Creating Layer conv3_sub
I0209 10:46:57.447525  4975 net.cpp:425] conv3_sub <- pool2_pool2_0_split_1
I0209 10:46:57.447530  4975 net.cpp:399] conv3_sub -> conv3_sub
I0209 10:46:57.447881  4975 net.cpp:141] Setting up conv3_sub
I0209 10:46:57.447887  4975 net.cpp:148] Top shape: 128 64 16 16 (2097152)
I0209 10:46:57.447890  4975 net.cpp:156] Memory required for data: 825248768
I0209 10:46:57.447896  4975 layer_factory.hpp:77] Creating layer relu3_sub
I0209 10:46:57.447901  4975 net.cpp:91] Creating Layer relu3_sub
I0209 10:46:57.447902  4975 net.cpp:425] relu3_sub <- conv3_sub
I0209 10:46:57.447906  4975 net.cpp:386] relu3_sub -> conv3_sub (in-place)
I0209 10:46:57.447911  4975 net.cpp:141] Setting up relu3_sub
I0209 10:46:57.447913  4975 net.cpp:148] Top shape: 128 64 16 16 (2097152)
I0209 10:46:57.447916  4975 net.cpp:156] Memory required for data: 833637376
I0209 10:46:57.447917  4975 layer_factory.hpp:77] Creating layer concat_conv3
I0209 10:46:57.447922  4975 net.cpp:91] Creating Layer concat_conv3
I0209 10:46:57.447934  4975 net.cpp:425] concat_conv3 <- conv3_sub
I0209 10:46:57.447937  4975 net.cpp:425] concat_conv3 <- conv3_2
I0209 10:46:57.447942  4975 net.cpp:399] concat_conv3 -> concat_conv3
I0209 10:46:57.447969  4975 net.cpp:141] Setting up concat_conv3
I0209 10:46:57.447976  4975 net.cpp:148] Top shape: 128 128 16 16 (4194304)
I0209 10:46:57.447983  4975 net.cpp:156] Memory required for data: 850414592
I0209 10:46:57.447985  4975 layer_factory.hpp:77] Creating layer pool3
I0209 10:46:57.447993  4975 net.cpp:91] Creating Layer pool3
I0209 10:46:57.447998  4975 net.cpp:425] pool3 <- concat_conv3
I0209 10:46:57.448002  4975 net.cpp:399] pool3 -> pool3
I0209 10:46:57.448035  4975 net.cpp:141] Setting up pool3
I0209 10:46:57.448042  4975 net.cpp:148] Top shape: 128 128 8 8 (1048576)
I0209 10:46:57.448046  4975 net.cpp:156] Memory required for data: 854608896
I0209 10:46:57.448050  4975 layer_factory.hpp:77] Creating layer conv4_1
I0209 10:46:57.448058  4975 net.cpp:91] Creating Layer conv4_1
I0209 10:46:57.448065  4975 net.cpp:425] conv4_1 <- pool3
I0209 10:46:57.448071  4975 net.cpp:399] conv4_1 -> conv4_1
I0209 10:46:57.448985  4975 net.cpp:141] Setting up conv4_1
I0209 10:46:57.448995  4975 net.cpp:148] Top shape: 128 64 6 6 (294912)
I0209 10:46:57.449000  4975 net.cpp:156] Memory required for data: 855788544
I0209 10:46:57.449007  4975 layer_factory.hpp:77] Creating layer relu4_1
I0209 10:46:57.449014  4975 net.cpp:91] Creating Layer relu4_1
I0209 10:46:57.449019  4975 net.cpp:425] relu4_1 <- conv4_1
I0209 10:46:57.449028  4975 net.cpp:386] relu4_1 -> conv4_1 (in-place)
I0209 10:46:57.449035  4975 net.cpp:141] Setting up relu4_1
I0209 10:46:57.449041  4975 net.cpp:148] Top shape: 128 64 6 6 (294912)
I0209 10:46:57.449045  4975 net.cpp:156] Memory required for data: 856968192
I0209 10:46:57.449049  4975 layer_factory.hpp:77] Creating layer conv4_2
I0209 10:46:57.449060  4975 net.cpp:91] Creating Layer conv4_2
I0209 10:46:57.449064  4975 net.cpp:425] conv4_2 <- conv4_1
I0209 10:46:57.449071  4975 net.cpp:399] conv4_2 -> conv4_2
I0209 10:46:57.449628  4975 net.cpp:141] Setting up conv4_2
I0209 10:46:57.449635  4975 net.cpp:148] Top shape: 128 128 4 4 (262144)
I0209 10:46:57.449640  4975 net.cpp:156] Memory required for data: 858016768
I0209 10:46:57.449646  4975 layer_factory.hpp:77] Creating layer relu4_2
I0209 10:46:57.449653  4975 net.cpp:91] Creating Layer relu4_2
I0209 10:46:57.449657  4975 net.cpp:425] relu4_2 <- conv4_2
I0209 10:46:57.449662  4975 net.cpp:386] relu4_2 -> conv4_2 (in-place)
I0209 10:46:57.449671  4975 net.cpp:141] Setting up relu4_2
I0209 10:46:57.449677  4975 net.cpp:148] Top shape: 128 128 4 4 (262144)
I0209 10:46:57.449681  4975 net.cpp:156] Memory required for data: 859065344
I0209 10:46:57.449684  4975 layer_factory.hpp:77] Creating layer conv4_3
I0209 10:46:57.449692  4975 net.cpp:91] Creating Layer conv4_3
I0209 10:46:57.449698  4975 net.cpp:425] conv4_3 <- conv4_2
I0209 10:46:57.449704  4975 net.cpp:399] conv4_3 -> conv4_3
I0209 10:46:57.451006  4975 net.cpp:141] Setting up conv4_3
I0209 10:46:57.451016  4975 net.cpp:148] Top shape: 128 128 2 2 (65536)
I0209 10:46:57.451021  4975 net.cpp:156] Memory required for data: 859327488
I0209 10:46:57.451030  4975 layer_factory.hpp:77] Creating layer relu4_3
I0209 10:46:57.451035  4975 net.cpp:91] Creating Layer relu4_3
I0209 10:46:57.451040  4975 net.cpp:425] relu4_3 <- conv4_3
I0209 10:46:57.451047  4975 net.cpp:386] relu4_3 -> conv4_3 (in-place)
I0209 10:46:57.451056  4975 net.cpp:141] Setting up relu4_3
I0209 10:46:57.451061  4975 net.cpp:148] Top shape: 128 128 2 2 (65536)
I0209 10:46:57.451066  4975 net.cpp:156] Memory required for data: 859589632
I0209 10:46:57.451069  4975 layer_factory.hpp:77] Creating layer conv5
I0209 10:46:57.451082  4975 net.cpp:91] Creating Layer conv5
I0209 10:46:57.451086  4975 net.cpp:425] conv5 <- conv4_3
I0209 10:46:57.451092  4975 net.cpp:399] conv5 -> conv5
I0209 10:46:57.451625  4975 net.cpp:141] Setting up conv5
I0209 10:46:57.451632  4975 net.cpp:148] Top shape: 128 512 2 2 (262144)
I0209 10:46:57.451644  4975 net.cpp:156] Memory required for data: 860638208
I0209 10:46:57.451653  4975 layer_factory.hpp:77] Creating layer relu5
I0209 10:46:57.451659  4975 net.cpp:91] Creating Layer relu5
I0209 10:46:57.451665  4975 net.cpp:425] relu5 <- conv5
I0209 10:46:57.451673  4975 net.cpp:386] relu5 -> conv5 (in-place)
I0209 10:46:57.451679  4975 net.cpp:141] Setting up relu5
I0209 10:46:57.451688  4975 net.cpp:148] Top shape: 128 512 2 2 (262144)
I0209 10:46:57.451691  4975 net.cpp:156] Memory required for data: 861686784
I0209 10:46:57.451694  4975 layer_factory.hpp:77] Creating layer conv5_relu5_0_split
I0209 10:46:57.451701  4975 net.cpp:91] Creating Layer conv5_relu5_0_split
I0209 10:46:57.451706  4975 net.cpp:425] conv5_relu5_0_split <- conv5
I0209 10:46:57.451714  4975 net.cpp:399] conv5_relu5_0_split -> conv5_relu5_0_split_0
I0209 10:46:57.451725  4975 net.cpp:399] conv5_relu5_0_split -> conv5_relu5_0_split_1
I0209 10:46:57.451733  4975 net.cpp:399] conv5_relu5_0_split -> conv5_relu5_0_split_2
I0209 10:46:57.451745  4975 net.cpp:399] conv5_relu5_0_split -> conv5_relu5_0_split_3
I0209 10:46:57.451759  4975 net.cpp:399] conv5_relu5_0_split -> conv5_relu5_0_split_4
I0209 10:46:57.451767  4975 net.cpp:399] conv5_relu5_0_split -> conv5_relu5_0_split_5
I0209 10:46:57.451834  4975 net.cpp:141] Setting up conv5_relu5_0_split
I0209 10:46:57.451841  4975 net.cpp:148] Top shape: 128 512 2 2 (262144)
I0209 10:46:57.451846  4975 net.cpp:148] Top shape: 128 512 2 2 (262144)
I0209 10:46:57.451851  4975 net.cpp:148] Top shape: 128 512 2 2 (262144)
I0209 10:46:57.451856  4975 net.cpp:148] Top shape: 128 512 2 2 (262144)
I0209 10:46:57.451863  4975 net.cpp:148] Top shape: 128 512 2 2 (262144)
I0209 10:46:57.451869  4975 net.cpp:148] Top shape: 128 512 2 2 (262144)
I0209 10:46:57.451871  4975 net.cpp:156] Memory required for data: 867978240
I0209 10:46:57.451875  4975 layer_factory.hpp:77] Creating layer fc1_left_eye_confidence
I0209 10:46:57.451885  4975 net.cpp:91] Creating Layer fc1_left_eye_confidence
I0209 10:46:57.451890  4975 net.cpp:425] fc1_left_eye_confidence <- conv5_relu5_0_split_0
I0209 10:46:57.451897  4975 net.cpp:399] fc1_left_eye_confidence -> fc1_left_eye_confidence
I0209 10:46:57.455313  4975 net.cpp:141] Setting up fc1_left_eye_confidence
I0209 10:46:57.455327  4975 net.cpp:148] Top shape: 128 256 (32768)
I0209 10:46:57.455330  4975 net.cpp:156] Memory required for data: 868109312
I0209 10:46:57.455338  4975 layer_factory.hpp:77] Creating layer relu_left_eye_confidence
I0209 10:46:57.455345  4975 net.cpp:91] Creating Layer relu_left_eye_confidence
I0209 10:46:57.455351  4975 net.cpp:425] relu_left_eye_confidence <- fc1_left_eye_confidence
I0209 10:46:57.455358  4975 net.cpp:386] relu_left_eye_confidence -> fc1_left_eye_confidence (in-place)
I0209 10:46:57.455368  4975 net.cpp:141] Setting up relu_left_eye_confidence
I0209 10:46:57.455374  4975 net.cpp:148] Top shape: 128 256 (32768)
I0209 10:46:57.455377  4975 net.cpp:156] Memory required for data: 868240384
I0209 10:46:57.455380  4975 layer_factory.hpp:77] Creating layer drop1_left_eye_confidence
I0209 10:46:57.455387  4975 net.cpp:91] Creating Layer drop1_left_eye_confidence
I0209 10:46:57.455392  4975 net.cpp:425] drop1_left_eye_confidence <- fc1_left_eye_confidence
I0209 10:46:57.455399  4975 net.cpp:386] drop1_left_eye_confidence -> fc1_left_eye_confidence (in-place)
I0209 10:46:57.455423  4975 net.cpp:141] Setting up drop1_left_eye_confidence
I0209 10:46:57.455430  4975 net.cpp:148] Top shape: 128 256 (32768)
I0209 10:46:57.455432  4975 net.cpp:156] Memory required for data: 868371456
I0209 10:46:57.455435  4975 layer_factory.hpp:77] Creating layer fc2_left_eye_confidence
I0209 10:46:57.455446  4975 net.cpp:91] Creating Layer fc2_left_eye_confidence
I0209 10:46:57.455451  4975 net.cpp:425] fc2_left_eye_confidence <- fc1_left_eye_confidence
I0209 10:46:57.455457  4975 net.cpp:399] fc2_left_eye_confidence -> fc2_left_eye_confidence
I0209 10:46:57.455560  4975 net.cpp:141] Setting up fc2_left_eye_confidence
I0209 10:46:57.455567  4975 net.cpp:148] Top shape: 128 1 (128)
I0209 10:46:57.455582  4975 net.cpp:156] Memory required for data: 868371968
I0209 10:46:57.455590  4975 layer_factory.hpp:77] Creating layer loss_left_eye_confidence
I0209 10:46:57.455596  4975 net.cpp:91] Creating Layer loss_left_eye_confidence
I0209 10:46:57.455602  4975 net.cpp:425] loss_left_eye_confidence <- fc2_left_eye_confidence
I0209 10:46:57.455607  4975 net.cpp:425] loss_left_eye_confidence <- eye_visibility_left
I0209 10:46:57.455615  4975 net.cpp:399] loss_left_eye_confidence -> loss_left_eye_confidence
I0209 10:46:57.455649  4975 net.cpp:141] Setting up loss_left_eye_confidence
I0209 10:46:57.455656  4975 net.cpp:148] Top shape: (1)
I0209 10:46:57.455658  4975 net.cpp:151]     with loss weight 1
I0209 10:46:57.455677  4975 net.cpp:156] Memory required for data: 868371972
I0209 10:46:57.455679  4975 layer_factory.hpp:77] Creating layer fc1_right_eye_confidence
I0209 10:46:57.455689  4975 net.cpp:91] Creating Layer fc1_right_eye_confidence
I0209 10:46:57.455693  4975 net.cpp:425] fc1_right_eye_confidence <- conv5_relu5_0_split_1
I0209 10:46:57.455700  4975 net.cpp:399] fc1_right_eye_confidence -> fc1_right_eye_confidence
I0209 10:46:57.459331  4975 net.cpp:141] Setting up fc1_right_eye_confidence
I0209 10:46:57.459349  4975 net.cpp:148] Top shape: 128 256 (32768)
I0209 10:46:57.459352  4975 net.cpp:156] Memory required for data: 868503044
I0209 10:46:57.459362  4975 layer_factory.hpp:77] Creating layer relu_right_eye_confidence
I0209 10:46:57.459372  4975 net.cpp:91] Creating Layer relu_right_eye_confidence
I0209 10:46:57.459378  4975 net.cpp:425] relu_right_eye_confidence <- fc1_right_eye_confidence
I0209 10:46:57.459386  4975 net.cpp:386] relu_right_eye_confidence -> fc1_right_eye_confidence (in-place)
I0209 10:46:57.459398  4975 net.cpp:141] Setting up relu_right_eye_confidence
I0209 10:46:57.459403  4975 net.cpp:148] Top shape: 128 256 (32768)
I0209 10:46:57.459408  4975 net.cpp:156] Memory required for data: 868634116
I0209 10:46:57.459411  4975 layer_factory.hpp:77] Creating layer drop1_right_eye_confidence
I0209 10:46:57.459419  4975 net.cpp:91] Creating Layer drop1_right_eye_confidence
I0209 10:46:57.459422  4975 net.cpp:425] drop1_right_eye_confidence <- fc1_right_eye_confidence
I0209 10:46:57.459429  4975 net.cpp:386] drop1_right_eye_confidence -> fc1_right_eye_confidence (in-place)
I0209 10:46:57.459450  4975 net.cpp:141] Setting up drop1_right_eye_confidence
I0209 10:46:57.459455  4975 net.cpp:148] Top shape: 128 256 (32768)
I0209 10:46:57.459457  4975 net.cpp:156] Memory required for data: 868765188
I0209 10:46:57.459462  4975 layer_factory.hpp:77] Creating layer fc2_right_eye_confidence
I0209 10:46:57.459470  4975 net.cpp:91] Creating Layer fc2_right_eye_confidence
I0209 10:46:57.459473  4975 net.cpp:425] fc2_right_eye_confidence <- fc1_right_eye_confidence
I0209 10:46:57.459482  4975 net.cpp:399] fc2_right_eye_confidence -> fc2_right_eye_confidence
I0209 10:46:57.459566  4975 net.cpp:141] Setting up fc2_right_eye_confidence
I0209 10:46:57.459573  4975 net.cpp:148] Top shape: 128 1 (128)
I0209 10:46:57.459575  4975 net.cpp:156] Memory required for data: 868765700
I0209 10:46:57.459589  4975 layer_factory.hpp:77] Creating layer loss_right_eye_confidence
I0209 10:46:57.459597  4975 net.cpp:91] Creating Layer loss_right_eye_confidence
I0209 10:46:57.459601  4975 net.cpp:425] loss_right_eye_confidence <- fc2_right_eye_confidence
I0209 10:46:57.459606  4975 net.cpp:425] loss_right_eye_confidence <- eye_visibility_right
I0209 10:46:57.459614  4975 net.cpp:399] loss_right_eye_confidence -> loss_right_eye_confidence
I0209 10:46:57.459645  4975 net.cpp:141] Setting up loss_right_eye_confidence
I0209 10:46:57.459650  4975 net.cpp:148] Top shape: (1)
I0209 10:46:57.459652  4975 net.cpp:151]     with loss weight 1
I0209 10:46:57.459663  4975 net.cpp:156] Memory required for data: 868765704
I0209 10:46:57.459668  4975 layer_factory.hpp:77] Creating layer fc1_nose_confidence
I0209 10:46:57.459676  4975 net.cpp:91] Creating Layer fc1_nose_confidence
I0209 10:46:57.459681  4975 net.cpp:425] fc1_nose_confidence <- conv5_relu5_0_split_2
I0209 10:46:57.459699  4975 net.cpp:399] fc1_nose_confidence -> fc1_nose_confidence
I0209 10:46:57.463129  4975 net.cpp:141] Setting up fc1_nose_confidence
I0209 10:46:57.463140  4975 net.cpp:148] Top shape: 128 256 (32768)
I0209 10:46:57.463143  4975 net.cpp:156] Memory required for data: 868896776
I0209 10:46:57.463151  4975 layer_factory.hpp:77] Creating layer relu_nose_confidence
I0209 10:46:57.463158  4975 net.cpp:91] Creating Layer relu_nose_confidence
I0209 10:46:57.463165  4975 net.cpp:425] relu_nose_confidence <- fc1_nose_confidence
I0209 10:46:57.463172  4975 net.cpp:386] relu_nose_confidence -> fc1_nose_confidence (in-place)
I0209 10:46:57.463181  4975 net.cpp:141] Setting up relu_nose_confidence
I0209 10:46:57.463186  4975 net.cpp:148] Top shape: 128 256 (32768)
I0209 10:46:57.463189  4975 net.cpp:156] Memory required for data: 869027848
I0209 10:46:57.463193  4975 layer_factory.hpp:77] Creating layer drop1_nose_confidence
I0209 10:46:57.463199  4975 net.cpp:91] Creating Layer drop1_nose_confidence
I0209 10:46:57.463203  4975 net.cpp:425] drop1_nose_confidence <- fc1_nose_confidence
I0209 10:46:57.463208  4975 net.cpp:386] drop1_nose_confidence -> fc1_nose_confidence (in-place)
I0209 10:46:57.463224  4975 net.cpp:141] Setting up drop1_nose_confidence
I0209 10:46:57.463230  4975 net.cpp:148] Top shape: 128 256 (32768)
I0209 10:46:57.463233  4975 net.cpp:156] Memory required for data: 869158920
I0209 10:46:57.463237  4975 layer_factory.hpp:77] Creating layer fc2_nose_confidence
I0209 10:46:57.463243  4975 net.cpp:91] Creating Layer fc2_nose_confidence
I0209 10:46:57.463248  4975 net.cpp:425] fc2_nose_confidence <- fc1_nose_confidence
I0209 10:46:57.463259  4975 net.cpp:399] fc2_nose_confidence -> fc2_nose_confidence
I0209 10:46:57.463336  4975 net.cpp:141] Setting up fc2_nose_confidence
I0209 10:46:57.463342  4975 net.cpp:148] Top shape: 128 1 (128)
I0209 10:46:57.463346  4975 net.cpp:156] Memory required for data: 869159432
I0209 10:46:57.463352  4975 layer_factory.hpp:77] Creating layer loss_nose_confidence
I0209 10:46:57.463358  4975 net.cpp:91] Creating Layer loss_nose_confidence
I0209 10:46:57.463362  4975 net.cpp:425] loss_nose_confidence <- fc2_nose_confidence
I0209 10:46:57.463367  4975 net.cpp:425] loss_nose_confidence <- nose_visibility
I0209 10:46:57.463376  4975 net.cpp:399] loss_nose_confidence -> loss_nose_confidence
I0209 10:46:57.463405  4975 net.cpp:141] Setting up loss_nose_confidence
I0209 10:46:57.463410  4975 net.cpp:148] Top shape: (1)
I0209 10:46:57.463413  4975 net.cpp:151]     with loss weight 1
I0209 10:46:57.463421  4975 net.cpp:156] Memory required for data: 869159436
I0209 10:46:57.463425  4975 layer_factory.hpp:77] Creating layer fc1_left_mouth_confidence
I0209 10:46:57.463433  4975 net.cpp:91] Creating Layer fc1_left_mouth_confidence
I0209 10:46:57.463438  4975 net.cpp:425] fc1_left_mouth_confidence <- conv5_relu5_0_split_3
I0209 10:46:57.463448  4975 net.cpp:399] fc1_left_mouth_confidence -> fc1_left_mouth_confidence
I0209 10:46:57.466758  4975 net.cpp:141] Setting up fc1_left_mouth_confidence
I0209 10:46:57.466768  4975 net.cpp:148] Top shape: 128 256 (32768)
I0209 10:46:57.466770  4975 net.cpp:156] Memory required for data: 869290508
I0209 10:46:57.466779  4975 layer_factory.hpp:77] Creating layer relu_left_mouth_confidence
I0209 10:46:57.466787  4975 net.cpp:91] Creating Layer relu_left_mouth_confidence
I0209 10:46:57.466792  4975 net.cpp:425] relu_left_mouth_confidence <- fc1_left_mouth_confidence
I0209 10:46:57.466799  4975 net.cpp:386] relu_left_mouth_confidence -> fc1_left_mouth_confidence (in-place)
I0209 10:46:57.466809  4975 net.cpp:141] Setting up relu_left_mouth_confidence
I0209 10:46:57.466814  4975 net.cpp:148] Top shape: 128 256 (32768)
I0209 10:46:57.466816  4975 net.cpp:156] Memory required for data: 869421580
I0209 10:46:57.466820  4975 layer_factory.hpp:77] Creating layer drop1_left_mouth_confidence
I0209 10:46:57.466826  4975 net.cpp:91] Creating Layer drop1_left_mouth_confidence
I0209 10:46:57.466830  4975 net.cpp:425] drop1_left_mouth_confidence <- fc1_left_mouth_confidence
I0209 10:46:57.466843  4975 net.cpp:386] drop1_left_mouth_confidence -> fc1_left_mouth_confidence (in-place)
I0209 10:46:57.466861  4975 net.cpp:141] Setting up drop1_left_mouth_confidence
I0209 10:46:57.466867  4975 net.cpp:148] Top shape: 128 256 (32768)
I0209 10:46:57.466871  4975 net.cpp:156] Memory required for data: 869552652
I0209 10:46:57.466873  4975 layer_factory.hpp:77] Creating layer fc2_left_mouth_confidence
I0209 10:46:57.466881  4975 net.cpp:91] Creating Layer fc2_left_mouth_confidence
I0209 10:46:57.466884  4975 net.cpp:425] fc2_left_mouth_confidence <- fc1_left_mouth_confidence
I0209 10:46:57.466891  4975 net.cpp:399] fc2_left_mouth_confidence -> fc2_left_mouth_confidence
I0209 10:46:57.466964  4975 net.cpp:141] Setting up fc2_left_mouth_confidence
I0209 10:46:57.466969  4975 net.cpp:148] Top shape: 128 1 (128)
I0209 10:46:57.466974  4975 net.cpp:156] Memory required for data: 869553164
I0209 10:46:57.466979  4975 layer_factory.hpp:77] Creating layer loss_left_mouth_confidence
I0209 10:46:57.466984  4975 net.cpp:91] Creating Layer loss_left_mouth_confidence
I0209 10:46:57.466989  4975 net.cpp:425] loss_left_mouth_confidence <- fc2_left_mouth_confidence
I0209 10:46:57.466995  4975 net.cpp:425] loss_left_mouth_confidence <- mouth_visibility_left
I0209 10:46:57.467003  4975 net.cpp:399] loss_left_mouth_confidence -> loss_left_mouth_confidence
I0209 10:46:57.467031  4975 net.cpp:141] Setting up loss_left_mouth_confidence
I0209 10:46:57.467036  4975 net.cpp:148] Top shape: (1)
I0209 10:46:57.467039  4975 net.cpp:151]     with loss weight 1
I0209 10:46:57.467047  4975 net.cpp:156] Memory required for data: 869553168
I0209 10:46:57.467051  4975 layer_factory.hpp:77] Creating layer fc1_center_mouth_confidence
I0209 10:46:57.467058  4975 net.cpp:91] Creating Layer fc1_center_mouth_confidence
I0209 10:46:57.467063  4975 net.cpp:425] fc1_center_mouth_confidence <- conv5_relu5_0_split_4
I0209 10:46:57.467070  4975 net.cpp:399] fc1_center_mouth_confidence -> fc1_center_mouth_confidence
I0209 10:46:57.470249  4975 net.cpp:141] Setting up fc1_center_mouth_confidence
I0209 10:46:57.470259  4975 net.cpp:148] Top shape: 128 256 (32768)
I0209 10:46:57.470263  4975 net.cpp:156] Memory required for data: 869684240
I0209 10:46:57.470270  4975 layer_factory.hpp:77] Creating layer relu_center_mouth_confidence
I0209 10:46:57.470276  4975 net.cpp:91] Creating Layer relu_center_mouth_confidence
I0209 10:46:57.470281  4975 net.cpp:425] relu_center_mouth_confidence <- fc1_center_mouth_confidence
I0209 10:46:57.470288  4975 net.cpp:386] relu_center_mouth_confidence -> fc1_center_mouth_confidence (in-place)
I0209 10:46:57.470295  4975 net.cpp:141] Setting up relu_center_mouth_confidence
I0209 10:46:57.470301  4975 net.cpp:148] Top shape: 128 256 (32768)
I0209 10:46:57.470304  4975 net.cpp:156] Memory required for data: 869815312
I0209 10:46:57.470307  4975 layer_factory.hpp:77] Creating layer drop1_center_mouth_confidence
I0209 10:46:57.470316  4975 net.cpp:91] Creating Layer drop1_center_mouth_confidence
I0209 10:46:57.470320  4975 net.cpp:425] drop1_center_mouth_confidence <- fc1_center_mouth_confidence
I0209 10:46:57.470325  4975 net.cpp:386] drop1_center_mouth_confidence -> fc1_center_mouth_confidence (in-place)
I0209 10:46:57.470343  4975 net.cpp:141] Setting up drop1_center_mouth_confidence
I0209 10:46:57.470348  4975 net.cpp:148] Top shape: 128 256 (32768)
I0209 10:46:57.470351  4975 net.cpp:156] Memory required for data: 869946384
I0209 10:46:57.470355  4975 layer_factory.hpp:77] Creating layer fc2_center_mouth_confidence
I0209 10:46:57.470361  4975 net.cpp:91] Creating Layer fc2_center_mouth_confidence
I0209 10:46:57.470366  4975 net.cpp:425] fc2_center_mouth_confidence <- fc1_center_mouth_confidence
I0209 10:46:57.470373  4975 net.cpp:399] fc2_center_mouth_confidence -> fc2_center_mouth_confidence
I0209 10:46:57.470446  4975 net.cpp:141] Setting up fc2_center_mouth_confidence
I0209 10:46:57.470453  4975 net.cpp:148] Top shape: 128 1 (128)
I0209 10:46:57.470465  4975 net.cpp:156] Memory required for data: 869946896
I0209 10:46:57.470471  4975 layer_factory.hpp:77] Creating layer loss_center_mouth_confidence
I0209 10:46:57.470477  4975 net.cpp:91] Creating Layer loss_center_mouth_confidence
I0209 10:46:57.470481  4975 net.cpp:425] loss_center_mouth_confidence <- fc2_center_mouth_confidence
I0209 10:46:57.470487  4975 net.cpp:425] loss_center_mouth_confidence <- mouth_visibility_center
I0209 10:46:57.470495  4975 net.cpp:399] loss_center_mouth_confidence -> loss_center_mouth_confidence
I0209 10:46:57.470540  4975 net.cpp:141] Setting up loss_center_mouth_confidence
I0209 10:46:57.470544  4975 net.cpp:148] Top shape: (1)
I0209 10:46:57.470548  4975 net.cpp:151]     with loss weight 1
I0209 10:46:57.470557  4975 net.cpp:156] Memory required for data: 869946900
I0209 10:46:57.470561  4975 layer_factory.hpp:77] Creating layer fc1_right_mouth_confidence
I0209 10:46:57.470568  4975 net.cpp:91] Creating Layer fc1_right_mouth_confidence
I0209 10:46:57.470573  4975 net.cpp:425] fc1_right_mouth_confidence <- conv5_relu5_0_split_5
I0209 10:46:57.470579  4975 net.cpp:399] fc1_right_mouth_confidence -> fc1_right_mouth_confidence
I0209 10:46:57.473949  4975 net.cpp:141] Setting up fc1_right_mouth_confidence
I0209 10:46:57.473965  4975 net.cpp:148] Top shape: 128 256 (32768)
I0209 10:46:57.473968  4975 net.cpp:156] Memory required for data: 870077972
I0209 10:46:57.473978  4975 layer_factory.hpp:77] Creating layer relu_right_mouth_confidence
I0209 10:46:57.473989  4975 net.cpp:91] Creating Layer relu_right_mouth_confidence
I0209 10:46:57.473994  4975 net.cpp:425] relu_right_mouth_confidence <- fc1_right_mouth_confidence
I0209 10:46:57.474001  4975 net.cpp:386] relu_right_mouth_confidence -> fc1_right_mouth_confidence (in-place)
I0209 10:46:57.474014  4975 net.cpp:141] Setting up relu_right_mouth_confidence
I0209 10:46:57.474020  4975 net.cpp:148] Top shape: 128 256 (32768)
I0209 10:46:57.474022  4975 net.cpp:156] Memory required for data: 870209044
I0209 10:46:57.474026  4975 layer_factory.hpp:77] Creating layer drop1_right_mouth_confidence
I0209 10:46:57.474033  4975 net.cpp:91] Creating Layer drop1_right_mouth_confidence
I0209 10:46:57.474037  4975 net.cpp:425] drop1_right_mouth_confidence <- fc1_right_mouth_confidence
I0209 10:46:57.474043  4975 net.cpp:386] drop1_right_mouth_confidence -> fc1_right_mouth_confidence (in-place)
I0209 10:46:57.474064  4975 net.cpp:141] Setting up drop1_right_mouth_confidence
I0209 10:46:57.474071  4975 net.cpp:148] Top shape: 128 256 (32768)
I0209 10:46:57.474073  4975 net.cpp:156] Memory required for data: 870340116
I0209 10:46:57.474077  4975 layer_factory.hpp:77] Creating layer fc2_right_mouth_confidence
I0209 10:46:57.474086  4975 net.cpp:91] Creating Layer fc2_right_mouth_confidence
I0209 10:46:57.474089  4975 net.cpp:425] fc2_right_mouth_confidence <- fc1_right_mouth_confidence
I0209 10:46:57.474097  4975 net.cpp:399] fc2_right_mouth_confidence -> fc2_right_mouth_confidence
I0209 10:46:57.474177  4975 net.cpp:141] Setting up fc2_right_mouth_confidence
I0209 10:46:57.474184  4975 net.cpp:148] Top shape: 128 1 (128)
I0209 10:46:57.474186  4975 net.cpp:156] Memory required for data: 870340628
I0209 10:46:57.474194  4975 layer_factory.hpp:77] Creating layer loss_right_mouth_confidence
I0209 10:46:57.474213  4975 net.cpp:91] Creating Layer loss_right_mouth_confidence
I0209 10:46:57.474217  4975 net.cpp:425] loss_right_mouth_confidence <- fc2_right_mouth_confidence
I0209 10:46:57.474222  4975 net.cpp:425] loss_right_mouth_confidence <- mouth_visibility_right
…
