…
  top: "left_eye"
  top: "right_eye"
  top: "nose"
  top: "left_mouth"
  top: "center_mouth"
  top: "right_mouth"
  top: "eye_visibility_left"
  top: "eye_visibility_right"
  top: "nose_visibility"
  top: "mouth_visibility_left"
  top: "mouth_visibility_center"
  top: "mouth_visibility_right"
  include {
    phase: TRAIN
  }
  hdf5_data_param {
    source: "/home/wzleong/Downloads/nottingham_with_scaling_eye_nose_mouth/hdf5_complete/train_scaled_mean_subtracted_own_data_multiple_label_complete_data_list.txt"
    batch_size: 128
    shuffle: true
  }
}
layer {
  name: "conv1"
  type: "Convolution"
  bottom: "data"
  top: "conv1"
  param {
    lr_mult: 0
    decay_mult: 0
  }
  param {
    lr_mult: 0
    decay_mult: 0
  }
  convolution_param {
    num_output: 32
    pad: 0
    kernel_size: 13
    stride: 2
  }
}
layer {
  name: "relu1"
  type: "ReLU"
  bottom: "conv1"
  top: "conv1"
}
layer {
  name: "pool1"
  type: "Pooling"
  bottom: "conv1"
  top: "pool1"
  pooling_param {
    pool: MAX
    kernel_size: 2
    stride: 2
  }
}
layer {
  name: "conv2_1"
  type: "Convolution"
  bottom: "pool1"
  top: "conv2_1"
  param {
    lr_mult: 0
    decay_mult: 0
  }
  param {
    lr_mult: 0
    decay_mult: 0
  }
  convolution_param {
    num_output: 32
    pad: 0
    kernel_size: 3
    stride: 1
  }
}
layer {
  name: "relu2_1"
  type: "ReLU"
  bottom: "conv2_1"
  top: "conv2_1"
}
layer {
  name: "conv2_2"
  type: "Convolution"
  bottom: "conv2_1"
  top: "conv2_2"
  param {
    lr_mult: 0
    decay_mult: 0
  }
  param {
    lr_mult: 0
    decay_mult: 0
  }
  convolution_param {
    num_output: 32
    pad: 0
    kernel_size: 3
    stride: 1
  }
}
layer {
  name: "relu2_2"
  type: "ReLU"
  bottom: "conv2_2"
  top: "conv2_2"
}
layer {
  name: "conv2_3"
  type: "Convolution"
  bottom: "conv2_2"
  top: "conv2_3"
  param {
    lr_mult: 0
    decay_mult: 0
  }
  param {
    lr_mult: 0
    decay_mult: 0
  }
  convolution_param {
    num_output: 32
    pad: 0
    kernel_size: 3
    stride: 1
  }
}
layer {
  name: "relu2_3"
  type: "ReLU"
  bottom: "conv2_3"
  top: "conv2_3"
}
layer {
  name: "conv2_4"
  type: "Convolution"
  bottom: "conv2_3"
  top: "conv2_4"
  param {
    lr_mult: 0
    decay_mult: 0
  }
  param {
    lr_mult: 0
    decay_mult: 0
  }
  convolution_param {
    num_output: 32
    pad: 0
    kernel_size: 3
    stride: 1
  }
}
layer {
  name: "relu2_4"
  type: "ReLU"
  bottom: "conv2_4"
  top: "conv2_4"
}
layer {
  name: "conv2_sub"
  type: "Convolution"
  bottom: "pool1"
  top: "conv2_sub"
  param {
    lr_mult: 0
    decay_mult: 0
  }
  param {
    lr_mult: 0
    decay_mult: 0
  }
  convolution_param {
    num_output: 32
    pad: 0
    kernel_size: 3
    stride: 1
    dilation: 4
  }
}
layer {
  name: "relu2_sub"
  type: "ReLU"
  bottom: "conv2_sub"
  top: "conv2_sub"
}
layer {
  name: "concat_conv2"
  type: "Concat"
  bottom: "conv2_sub"
  bottom: "conv2_4"
  top: "concat_conv2"
  concat_param {
    axis: 1
  }
}
layer {
  name: "pool2"
  type: "Pooling"
  bottom: "concat_conv2"
  top: "pool2"
  pooling_param {
    pool: MAX
    kernel_size: 2
    stride: 2
  }
}
layer {
  name: "conv3_1"
  type: "Convolution"
  bottom: "pool2"
  top: "conv3_1"
  param {
    lr_mult: 0
    decay_mult: 0
  }
  param {
    lr_mult: 0
    decay_mult: 0
  }
  convolution_param {
    num_output: 32
    pad: 0
    kernel_size: 3
    stride: 1
  }
}
layer {
  name: "relu3_1"
  type: "ReLU"
  bottom: "conv3_1"
  top: "conv3_1"
}
layer {
  name: "conv3_2"
  type: "Convolution"
  bottom: "conv3_1"
  top: "conv3_2"
  param {
    lr_mult: 0
    decay_mult: 0
  }
  param {
    lr_mult: 0
    decay_mult: 0
  }
  convolution_param {
    num_output: 64
    pad: 0
    kernel_size: 3
    stride: 1
  }
}
layer {
  name: "relu3_2"
  type: "ReLU"
  bottom: "conv3_2"
  top: "conv3_2"
}
layer {
  name: "conv3_sub"
  type: "Convolution"
  bottom: "pool2"
  top: "conv3_sub"
  param {
    lr_mult: 0
    decay_mult: 0
  }
  param {
    lr_mult: 0
    decay_mult: 0
  }
  convolution_param {
    num_output: 64
    pad: 0
    kernel_size: 3
    stride: 1
    dilation: 2
  }
}
layer {
  name: "relu3_sub"
  type: "ReLU"
  bottom: "conv3_sub"
  top: "conv3_sub"
}
layer {
  name: "concat_conv3"
  type: "Concat"
  bottom: "conv3_sub"
  bottom: "conv3_2"
  top: "concat_conv3"
  concat_param {
    axis: 1
  }
}
layer {
  name: "pool3"
  type: "Pooling"
  bottom: "concat_conv3"
  top: "pool3"
  pooling_param {
    pool: MAX
    kernel_size: 2
    stride: 2
  }
}
layer {
  name: "conv4_1"
  type: "Convolution"
  bottom: "pool3"
  top: "conv4_1"
  param {
    lr_mult: 0
    decay_mult: 0
  }
  param {
    lr_mult: 0
    decay_mult: 0
  }
  convolution_param {
    num_output: 64
    pad: 0
    kernel_size: 3
    stride: 1
  }
}
layer {
  name: "relu4_1"
  type: "ReLU"
  bottom: "conv4_1"
  top: "conv4_1"
}
layer {
  name: "conv4_2"
  type: "Convolution"
  bottom: "conv4_1"
  top: "conv4_2"
  param {
    lr_mult: 0
    decay_mult: 0
  }
  param {
    lr_mult: 0
    decay_mult: 0
  }
  convolution_param {
    num_output: 128
    pad: 0
    kernel_size: 3
    stride: 1
  }
}
layer {
  name: "relu4_2"
  type: "ReLU"
  bottom: "conv4_2"
  top: "conv4_2"
}
layer {
  name: "conv4_3"
  type: "Convolution"
  bottom: "conv4_2"
  top: "conv4_3"
  param {
    lr_mult: 0
    decay_mult: 0
  }
  param {
    lr_mult: 0
    decay_mult: 0
  }
  convolution_param {
    num_output: 128
    pad: 0
    kernel_size: 3
    stride: 1
  }
}
layer {
  name: "relu4_3"
  type: "ReLU"
  bottom: "conv4_3"
  top: "conv4_3"
}
layer {
  name: "conv5"
  type: "Convolution"
  bottom: "conv4_3"
  top: "conv5"
  param {
    lr_mult: 0
    decay_mult: 0
  }
  param {
    lr_mult: 0
    decay_mult: 0
  }
  convolution_param {
    num_output: 512
    pad: 0
    kernel_size: 1
    stride: 1
  }
}
layer {
  name: "relu5"
  type: "ReLU"
  bottom: "conv5"
  top: "conv5"
}
layer {
  name: "fc1_left_eye_confidence"
  type: "InnerProduct"
  bottom: "conv5"
  top: "fc1_left_eye_confidence"
  param {
    lr_mult: 1
    decay_mult: 1
  }
  param {
    lr_mult: 2
    decay_mult: 0
  }
  inner_product_param {
    num_output: 23
  }
}
layer {
  name: "relu_left_eye_confidence"
  type: "ReLU"
  bottom: "fc1_left_eye_confidence"
  top: "fc1_left_eye_confidence"
}
layer {
  name: "drop1_left_eye_confidence"
  type: "Dropout"
  bottom: "fc1_left_eye_confidence"
  top: "fc1_left_eye_confidence"
  dropout_param {
    dropout_ratio: 0.125
  }
}
layer {
  name: "fc2_left_eye_confidence"
  type: "InnerProduct"
  bottom: "fc1_left_eye_confidence"
  top: "fc2_left_eye_confidence"
  param {
    lr_mult: 1
    decay_mult: 1
  }
  param {
    lr_mult: 2
    decay_mult: 0
  }
  inner_product_param {
    num_output: 1
  }
}
layer {
  name: "loss_left_eye_confidence"
  type: "EuclideanLoss"
  bottom: "fc2_left_eye_confidence"
  bottom: "eye_visibility_left"
  top: "loss_left_eye_confidence"
}
layer {
  name: "fc1_right_eye_confidence"
  type: "InnerProduct"
  bottom: "conv5"
  top: "fc1_right_eye_confidence"
  param {
    lr_mult: 1
    decay_mult: 1
  }
  param {
    lr_mult: 2
    decay_mult: 0
  }
  inner_product_param {
    num_output: 22
  }
}
layer {
  name: "relu_right_eye_confidence"
  type: "ReLU"
  bottom: "fc1_right_eye_confidence"
  top: "fc1_right_eye_confidence"
}
layer {
  name: "drop1_right_eye_confidence"
  type: "Dropout"
  bottom: "fc1_right_eye_confidence"
  top: "fc1_right_eye_confidence"
  dropout_param {
    dropout_ratio: 0.125
  }
}
layer {
  name: "fc2_right_eye_confidence"
  type: "InnerProduct"
  bottom: "fc1_right_eye_confidence"
  top: "fc2_right_eye_confidence"
  param {
    lr_mult: 1
    decay_mult: 1
  }
  param {
    lr_mult: 2
    decay_mult: 0
  }
  inner_product_param {
    num_output: 1
  }
}
layer {
  name: "loss_right_eye_confidence"
  type: "EuclideanLoss"
  bottom: "fc2_right_eye_confidence"
  bottom: "eye_visibility_right"
  top: "loss_right_eye_confidence"
}
layer {
  name: "fc1_nose_confidence"
  type: "InnerProduct"
  bottom: "conv5"
  top: "fc1_nose_confidence"
  param {
    lr_mult: 1
    decay_mult: 1
  }
  param {
    lr_mult: 2
    decay_mult: 0
  }
  inner_product_param {
    num_output: 24
  }
}
layer {
  name: "relu_nose_confidence"
  type: "ReLU"
  bottom: "fc1_nose_confidence"
  top: "fc1_nose_confidence"
}
layer {
  name: "drop1_nose_confidence"
  type: "Dropout"
  bottom: "fc1_nose_confidence"
  top: "fc1_nose_confidence"
  dropout_param {
    dropout_ratio: 0.125
  }
}
layer {
  name: "fc2_nose_confidence"
  type: "InnerProduct"
  bottom: "fc1_nose_confidence"
  top: "fc2_nose_confidence"
  param {
    lr_mult: 1
    decay_mult: 1
  }
  param {
    lr_mult: 2
    decay_mult: 0
  }
  inner_product_param {
    num_output: 1
  }
}
layer {
  name: "loss_nose_confidence"
  type: "EuclideanLoss"
  bottom: "fc2_nose_confidence"
  bottom: "nose_visibility"
  top: "loss_nose_confidence"
}
layer {
  name: "fc1_left_mouth_confidence"
  type: "InnerProduct"
  bottom: "conv5"
  top: "fc1_left_mouth_confidence"
  param {
    lr_mult: 1
    decay_mult: 1
  }
  param {
    lr_mult: 2
    decay_mult: 0
  }
  inner_product_param {
    num_output: 23
  }
}
layer {
  name: "relu_left_mouth_confidence"
  type: "ReLU"
  bottom: "fc1_left_mouth_confidence"
  top: "fc1_left_mouth_confidence"
}
layer {
  name: "drop1_left_mouth_confidence"
  type: "Dropout"
  bottom: "fc1_left_mouth_confidence"
  top: "fc1_left_mouth_confidence"
  dropout_param {
    dropout_ratio: 0.125
  }
}
layer {
  name: "fc2_left_mouth_confidence"
  type: "InnerProduct"
  bottom: "fc1_left_mouth_confidence"
  top: "fc2_left_mouth_confidence"
  param {
    lr_mult: 1
    decay_mult: 1
  }
  param {
    lr_mult: 2
    decay_mult: 0
  }
  inner_product_param {
    num_output: 1
  }
}
layer {
  name: "loss_left_mouth_confidence"
  type: "EuclideanLoss"
  bottom: "fc2_left_mouth_confidence"
  bottom: "mouth_visibility_left"
  top: "loss_left_mouth_confidence"
}
layer {
  name: "fc1_center_mouth_confidence"
  type: "InnerProduct"
  bottom: "conv5"
  top: "fc1_center_mouth_confidence"
  param {
    lr_mult: 1
    decay_mult: 1
  }
  param {
    lr_mult: 2
    decay_mult: 0
  }
  inner_product_param {
    num_output: 24
  }
}
layer {
  name: "relu_center_mouth_confidence"
  type: "ReLU"
  bottom: "fc1_center_mouth_confidence"
  top: "fc1_center_mouth_confidence"
}
layer {
  name: "drop1_center_mouth_confidence"
  type: "Dropout"
  bottom: "fc1_center_mouth_confidence"
  top: "fc1_center_mouth_confidence"
  dropout_param {
    dropout_ratio: 0.125
  }
}
layer {
  name: "fc2_center_mouth_confidence"
  type: "InnerProduct"
  bottom: "fc1_center_mouth_confidence"
  top: "fc2_center_mouth_confidence"
  param {
    lr_mult: 1
    decay_mult: 1
  }
  param {
    lr_mult: 2
    decay_mult: 0
  }
  inner_product_param {
    num_output: 1
  }
}
layer {
  name: "loss_center_mouth_confidence"
  type: "EuclideanLoss"
  bottom: "fc2_center_mouth_confidence"
  bottom: "mouth_visibility_center"
  top: "loss_center_mouth_confidence"
}
layer {
  name: "fc1_right_mouth_confidence"
  type: "InnerProduct"
  bottom: "conv5"
  top: "fc1_right_mouth_confidence"
  param {
    lr_mult: 1
    decay_mult: 1
  }
  param {
    lr_mult: 2
    decay_mult: 0
  }
  inner_product_param {
    num_output: 20
  }
}
layer {
  name: "relu_right_mouth_confidence"
  type: "ReLU"
  bottom: "fc1_right_mouth_confidence"
  top: "fc1_right_mouth_confidence"
}
layer {
  name: "drop1_right_mouth_confidence"
  type: "Dropout"
  bottom: "fc1_right_mouth_confidence"
  top: "fc1_right_mouth_confidence"
  dropout_param {
    dropout_ratio: 0.125
  }
}
layer {
  name: "fc2_right_mouth_confidence"
  type: "InnerProduct"
  bottom: "fc1_right_mouth_confidence"
  top: "fc2_right_mouth_confidence"
  param {
    lr_mult: 1
    decay_mult: 1
  }
  param {
    lr_mult: 2
    decay_mult: 0
  }
  inner_product_param {
    num_output: 1
  }
}
layer {
  name: "loss_right_mouth_confidence"
  type: "EuclideanLoss"
  bottom: "fc2_right_mouth_confidence"
  bottom: "mouth_visibility_right"
  top: "loss_right_mouth_confidence"
}
layer {
  name: "fc1_left_eye_coordinate"
  type: "InnerProduct"
  bottom: "conv5"
  top: "fc1_left_eye_coordinate"
  param {
    lr_mult: 1
    decay_mult: 1
  }
  param {
    lr_mult: 2
    decay_mult: 0
  }
  inner_product_param {
    num_output: 39
  }
}
layer {
  name: "drop1_left_eye_coordinate"
  type: "Dropout"
  bottom: "fc1_left_eye_coordinate"
  top: "fc1_left_eye_coordinate"
  dropout_param {
    dropout_ratio: 0.125
  }
}
layer {
  name: "fc2_left_eye_coordinate"
  type: "InnerProduct"
  bottom: "fc1_left_eye_coordinate"
  top: "fc2_left_eye_coordinate"
  param {
    lr_mult: 1
    decay_mult: 1
  }
  param {
    lr_mult: 2
    decay_mult: 0
  }
  inner_product_param {
    num_output: 2
  }
}
layer {
  name: "loss_left_eye_coordinate"
  type: "EuclideanLoss"
  bottom: "fc2_left_eye_coordinate"
  bottom: "left_eye"
  top: "loss_left_eye_coordinate"
}
layer {
  name: "fc1_right_eye_coordinate"
  type: "InnerProduct"
  bottom: "conv5"
  top: "fc1_right_eye_coordinate"
  param {
    lr_mult: 1
    decay_mult: 1
  }
  param {
    lr_mult: 2
    decay_mult: 0
  }
  inner_product_param {
    num_output: 20
  }
}
layer {
  name: "drop1_right_eye_coordinate"
  type: "Dropout"
  bottom: "fc1_right_eye_coordinate"
  top: "fc1_right_eye_coordinate"
  dropout_param {
    dropout_ratio: 0.125
  }
}
layer {
  name: "fc2_right_eye_coordinate"
  type: "InnerProduct"
  bottom: "fc1_right_eye_coordinate"
  top: "fc2_right_eye_coordinate"
  param {
    lr_mult: 1
    decay_mult: 1
  }
  param {
    lr_mult: 2
    decay_mult: 0
  }
  inner_product_param {
    num_output: 2
  }
}
layer {
  name: "loss_right_eye_coordinate"
  type: "EuclideanLoss"
  bottom: "fc2_right_eye_coordinate"
  bottom: "right_eye"
  top: "loss_right_eye_coordinate"
}
layer {
  name: "fc1_nose_coordinate"
  type: "InnerProduct"
  bottom: "conv5"
  top: "fc1_nose_coordinate"
  param {
    lr_mult: 1
    decay_mult: 1
  }
  param {
    lr_mult: 2
    decay_mult: 0
  }
  inner_product_param {
    num_output: 36
  }
}
layer {
  name: "drop1_nose_coordinate"
  type: "Dropout"
  bottom: "fc1_nose_coordinate"
  top: "fc1_nose_coordinate"
  dropout_param {
    dropout_ratio: 0.125
  }
}
layer {
  name: "fc2_nose_coordinate"
  type: "InnerProduct"
  bottom: "fc1_nose_coordinate"
  top: "fc2_nose_coordinate"
  param {
    lr_mult: 1
    decay_mult: 1
  }
  param {
    lr_mult: 2
    decay_mult: 0
  }
  inner_product_param {
    num_output: 2
  }
}
layer {
  name: "loss_nose_coordinate"
  type: "EuclideanLoss"
  bottom: "fc2_nose_coordinate"
  bottom: "nose"
  top: "loss_nose_coordinate"
}
layer {
  name: "fc1_left_mouth_coordinate"
  type: "InnerProduct"
  bottom: "conv5"
  top: "fc1_left_mouth_coordinate"
  param {
    lr_mult: 1
    decay_mult: 1
  }
  param {
    lr_mult: 2
    decay_mult: 0
  }
  inner_product_param {
    num_output: 22
  }
}
layer {
  name: "drop1_left_mouth_coordinate"
  type: "Dropout"
  bottom: "fc1_left_mouth_coordinate"
  top: "fc1_left_mouth_coordinate"
  dropout_param {
    dropout_ratio: 0.125
  }
}
layer {
  name: "fc2_left_mouth_coordinate"
  type: "InnerProduct"
  bottom: "fc1_left_mouth_coordinate"
  top: "fc2_left_mouth_coordinate"
  param {
    lr_mult: 1
    decay_mult: 1
  }
  param {
    lr_mult: 2
    decay_mult: 0
  }
  inner_product_param {
    num_output: 2
  }
}
layer {
  name: "loss_left_mouth_coordinate"
  type: "EuclideanLoss"
  bottom: "fc2_left_mouth_coordinate"
  bottom: "left_mouth"
  top: "loss_left_mouth_coordinate"
}
layer {
  name: "fc1_center_mouth_coordinate"
  type: "InnerProduct"
  bottom: "conv5"
  top: "fc1_center_mouth_coordinate"
  param {
    lr_mult: 1
    decay_mult: 1
  }
  param {
    lr_mult: 2
    decay_mult: 0
  }
  inner_product_param {
    num_output: 41
  }
}
layer {
  name: "drop1_center_mouth_coordinate"
  type: "Dropout"
  bottom: "fc1_center_mouth_coordinate"
  top: "fc1_center_mouth_coordinate"
  dropout_param {
    dropout_ratio: 0.125
  }
}
layer {
  name: "fc2_center_mouth_coordinate"
  type: "InnerProduct"
  bottom: "fc1_center_mouth_coordinate"
  top: "fc2_center_mouth_coordinate"
  param {
    lr_mult: 1
    decay_mult: 1
  }
  param {
    lr_mult: 2
    decay_mult: 0
  }
  inner_product_param {
    num_output: 2
  }
}
layer {
  name: "loss_center_mouth_coordinate"
  type: "EuclideanLoss"
  bottom: "fc2_center_mouth_coordinate"
  bottom: "center_mouth"
  top: "loss_center_mouth_coordinate"
}
layer {
  name: "fc1_right_mouth_coordinate"
  type: "InnerProduct"
  bottom: "conv5"
  top: "fc1_right_mouth_coordinate"
  param {
    lr_mult: 1
    decay_mult: 1
  }
  param {
    lr_mult: 2
    decay_mult: 0
  }
  inner_product_param {
    num_output: 30
  }
}
layer {
  name: "drop1_right_mouth_coordinate"
  type: "Dropout"
  bottom: "fc1_right_mouth_coordinate"
  top: "fc1_right_mouth_coordinate"
  dropout_param {
    dropout_ratio: 0.125
  }
}
layer {
  name: "fc2_right_mouth_coordinate"
  type: "InnerProduct"
  bottom: "fc1_right_mouth_coordinate"
  top: "fc2_right_mouth_coordinate"
  param {
    lr_mult: 1
    decay_mult: 1
  }
  param {
    lr_mult: 2
    decay_mult: 0
  }
  inner_product_param {
    num_output: 2
  }
}
layer {
  name: "loss_right_mouth_coordinate"
  type: "EuclideanLoss"
  bottom: "fc2_right_mouth_coordinate"
  bottom: "right_mouth"
  top: "loss_right_mouth_coordinate"
}
I0210 11:00:55.224108  4424 layer_factory.hpp:77] Creating layer data
I0210 11:00:55.224122  4424 net.cpp:91] Creating Layer data
I0210 11:00:55.224129  4424 net.cpp:399] data -> data
I0210 11:00:55.224167  4424 net.cpp:399] data -> left_eye
I0210 11:00:55.224179  4424 net.cpp:399] data -> right_eye
I0210 11:00:55.224186  4424 net.cpp:399] data -> nose
I0210 11:00:55.224192  4424 net.cpp:399] data -> left_mouth
I0210 11:00:55.224198  4424 net.cpp:399] data -> center_mouth
I0210 11:00:55.224205  4424 net.cpp:399] data -> right_mouth
I0210 11:00:55.224210  4424 net.cpp:399] data -> eye_visibility_left
I0210 11:00:55.224213  4424 net.cpp:399] data -> eye_visibility_right
I0210 11:00:55.224220  4424 net.cpp:399] data -> nose_visibility
I0210 11:00:55.224225  4424 net.cpp:399] data -> mouth_visibility_left
I0210 11:00:55.224230  4424 net.cpp:399] data -> mouth_visibility_center
I0210 11:00:55.224234  4424 net.cpp:399] data -> mouth_visibility_right
I0210 11:00:55.224239  4424 hdf5_data_layer.cpp:79] Loading list of HDF5 filenames from: /home/wzleong/Downloads/nottingham_with_scaling_eye_nose_mouth/hdf5_complete/train_scaled_mean_subtracted_own_data_multiple_label_complete_data_list.txt
I0210 11:00:55.224267  4424 hdf5_data_layer.cpp:93] Number of HDF5 files: 8
I0210 11:00:55.225008  4424 hdf5.cpp:32] Datatype class: H5T_FLOAT
I0210 11:00:55.500035  4424 net.cpp:141] Setting up data
I0210 11:00:55.500057  4424 net.cpp:148] Top shape: 128 1 200 200 (5120000)
I0210 11:00:55.500062  4424 net.cpp:148] Top shape: 128 2 (256)
I0210 11:00:55.500066  4424 net.cpp:148] Top shape: 128 2 (256)
I0210 11:00:55.500068  4424 net.cpp:148] Top shape: 128 2 (256)
I0210 11:00:55.500072  4424 net.cpp:148] Top shape: 128 2 (256)
I0210 11:00:55.500074  4424 net.cpp:148] Top shape: 128 2 (256)
I0210 11:00:55.500077  4424 net.cpp:148] Top shape: 128 2 (256)
I0210 11:00:55.500080  4424 net.cpp:148] Top shape: 128 1 (128)
I0210 11:00:55.500084  4424 net.cpp:148] Top shape: 128 1 (128)
I0210 11:00:55.500087  4424 net.cpp:148] Top shape: 128 1 (128)
I0210 11:00:55.500090  4424 net.cpp:148] Top shape: 128 1 (128)
I0210 11:00:55.500094  4424 net.cpp:148] Top shape: 128 1 (128)
I0210 11:00:55.500115  4424 net.cpp:148] Top shape: 128 1 (128)
I0210 11:00:55.500123  4424 net.cpp:156] Memory required for data: 20489216
I0210 11:00:55.500134  4424 layer_factory.hpp:77] Creating layer conv1
I0210 11:00:55.500154  4424 net.cpp:91] Creating Layer conv1
I0210 11:00:55.500161  4424 net.cpp:425] conv1 <- data
I0210 11:00:55.500172  4424 net.cpp:399] conv1 -> conv1
I0210 11:00:55.500394  4424 net.cpp:141] Setting up conv1
I0210 11:00:55.500401  4424 net.cpp:148] Top shape: 128 32 94 94 (36192256)
I0210 11:00:55.500404  4424 net.cpp:156] Memory required for data: 165258240
I0210 11:00:55.500421  4424 layer_factory.hpp:77] Creating layer relu1
I0210 11:00:55.500425  4424 net.cpp:91] Creating Layer relu1
I0210 11:00:55.500428  4424 net.cpp:425] relu1 <- conv1
I0210 11:00:55.500432  4424 net.cpp:386] relu1 -> conv1 (in-place)
I0210 11:00:55.500442  4424 net.cpp:141] Setting up relu1
I0210 11:00:55.500448  4424 net.cpp:148] Top shape: 128 32 94 94 (36192256)
I0210 11:00:55.500453  4424 net.cpp:156] Memory required for data: 310027264
I0210 11:00:55.500457  4424 layer_factory.hpp:77] Creating layer pool1
I0210 11:00:55.500464  4424 net.cpp:91] Creating Layer pool1
I0210 11:00:55.500468  4424 net.cpp:425] pool1 <- conv1
I0210 11:00:55.500473  4424 net.cpp:399] pool1 -> pool1
I0210 11:00:55.500515  4424 net.cpp:141] Setting up pool1
I0210 11:00:55.500522  4424 net.cpp:148] Top shape: 128 32 47 47 (9048064)
I0210 11:00:55.500527  4424 net.cpp:156] Memory required for data: 346219520
I0210 11:00:55.500531  4424 layer_factory.hpp:77] Creating layer pool1_pool1_0_split
I0210 11:00:55.500540  4424 net.cpp:91] Creating Layer pool1_pool1_0_split
I0210 11:00:55.500545  4424 net.cpp:425] pool1_pool1_0_split <- pool1
I0210 11:00:55.500551  4424 net.cpp:399] pool1_pool1_0_split -> pool1_pool1_0_split_0
I0210 11:00:55.500560  4424 net.cpp:399] pool1_pool1_0_split -> pool1_pool1_0_split_1
I0210 11:00:55.500591  4424 net.cpp:141] Setting up pool1_pool1_0_split
I0210 11:00:55.500597  4424 net.cpp:148] Top shape: 128 32 47 47 (9048064)
I0210 11:00:55.500604  4424 net.cpp:148] Top shape: 128 32 47 47 (9048064)
I0210 11:00:55.500608  4424 net.cpp:156] Memory required for data: 418604032
I0210 11:00:55.500612  4424 layer_factory.hpp:77] Creating layer conv2_1
I0210 11:00:55.500622  4424 net.cpp:91] Creating Layer conv2_1
I0210 11:00:55.500627  4424 net.cpp:425] conv2_1 <- pool1_pool1_0_split_0
I0210 11:00:55.500633  4424 net.cpp:399] conv2_1 -> conv2_1
I0210 11:00:55.501176  4424 net.cpp:141] Setting up conv2_1
I0210 11:00:55.501186  4424 net.cpp:148] Top shape: 128 32 45 45 (8294400)
I0210 11:00:55.501191  4424 net.cpp:156] Memory required for data: 451781632
I0210 11:00:55.501202  4424 layer_factory.hpp:77] Creating layer relu2_1
I0210 11:00:55.501209  4424 net.cpp:91] Creating Layer relu2_1
I0210 11:00:55.501214  4424 net.cpp:425] relu2_1 <- conv2_1
I0210 11:00:55.501220  4424 net.cpp:386] relu2_1 -> conv2_1 (in-place)
I0210 11:00:55.501229  4424 net.cpp:141] Setting up relu2_1
I0210 11:00:55.501235  4424 net.cpp:148] Top shape: 128 32 45 45 (8294400)
I0210 11:00:55.501240  4424 net.cpp:156] Memory required for data: 484959232
I0210 11:00:55.501243  4424 layer_factory.hpp:77] Creating layer conv2_2
I0210 11:00:55.501253  4424 net.cpp:91] Creating Layer conv2_2
I0210 11:00:55.501257  4424 net.cpp:425] conv2_2 <- conv2_1
I0210 11:00:55.501266  4424 net.cpp:399] conv2_2 -> conv2_2
I0210 11:00:55.501444  4424 net.cpp:141] Setting up conv2_2
I0210 11:00:55.501451  4424 net.cpp:148] Top shape: 128 32 43 43 (7573504)
I0210 11:00:55.501452  4424 net.cpp:156] Memory required for data: 515253248
I0210 11:00:55.501462  4424 layer_factory.hpp:77] Creating layer relu2_2
I0210 11:00:55.501471  4424 net.cpp:91] Creating Layer relu2_2
I0210 11:00:55.501476  4424 net.cpp:425] relu2_2 <- conv2_2
I0210 11:00:55.501480  4424 net.cpp:386] relu2_2 -> conv2_2 (in-place)
I0210 11:00:55.501487  4424 net.cpp:141] Setting up relu2_2
I0210 11:00:55.501492  4424 net.cpp:148] Top shape: 128 32 43 43 (7573504)
I0210 11:00:55.501495  4424 net.cpp:156] Memory required for data: 545547264
I0210 11:00:55.501510  4424 layer_factory.hpp:77] Creating layer conv2_3
I0210 11:00:55.501520  4424 net.cpp:91] Creating Layer conv2_3
I0210 11:00:55.501525  4424 net.cpp:425] conv2_3 <- conv2_2
I0210 11:00:55.501533  4424 net.cpp:399] conv2_3 -> conv2_3
I0210 11:00:55.501720  4424 net.cpp:141] Setting up conv2_3
I0210 11:00:55.501729  4424 net.cpp:148] Top shape: 128 32 41 41 (6885376)
I0210 11:00:55.501730  4424 net.cpp:156] Memory required for data: 573088768
I0210 11:00:55.501735  4424 layer_factory.hpp:77] Creating layer relu2_3
I0210 11:00:55.501739  4424 net.cpp:91] Creating Layer relu2_3
I0210 11:00:55.501744  4424 net.cpp:425] relu2_3 <- conv2_3
I0210 11:00:55.501750  4424 net.cpp:386] relu2_3 -> conv2_3 (in-place)
I0210 11:00:55.501756  4424 net.cpp:141] Setting up relu2_3
I0210 11:00:55.501760  4424 net.cpp:148] Top shape: 128 32 41 41 (6885376)
I0210 11:00:55.501765  4424 net.cpp:156] Memory required for data: 600630272
I0210 11:00:55.501766  4424 layer_factory.hpp:77] Creating layer conv2_4
I0210 11:00:55.501773  4424 net.cpp:91] Creating Layer conv2_4
I0210 11:00:55.501780  4424 net.cpp:425] conv2_4 <- conv2_3
I0210 11:00:55.501787  4424 net.cpp:399] conv2_4 -> conv2_4
I0210 11:00:55.501961  4424 net.cpp:141] Setting up conv2_4
I0210 11:00:55.501968  4424 net.cpp:148] Top shape: 128 32 39 39 (6230016)
I0210 11:00:55.501973  4424 net.cpp:156] Memory required for data: 625550336
I0210 11:00:55.501983  4424 layer_factory.hpp:77] Creating layer relu2_4
I0210 11:00:55.501988  4424 net.cpp:91] Creating Layer relu2_4
I0210 11:00:55.501992  4424 net.cpp:425] relu2_4 <- conv2_4
I0210 11:00:55.501996  4424 net.cpp:386] relu2_4 -> conv2_4 (in-place)
I0210 11:00:55.501999  4424 net.cpp:141] Setting up relu2_4
I0210 11:00:55.502003  4424 net.cpp:148] Top shape: 128 32 39 39 (6230016)
I0210 11:00:55.502005  4424 net.cpp:156] Memory required for data: 650470400
I0210 11:00:55.502008  4424 layer_factory.hpp:77] Creating layer conv2_sub
I0210 11:00:55.502013  4424 net.cpp:91] Creating Layer conv2_sub
I0210 11:00:55.502017  4424 net.cpp:425] conv2_sub <- pool1_pool1_0_split_1
I0210 11:00:55.502022  4424 net.cpp:399] conv2_sub -> conv2_sub
I0210 11:00:55.502198  4424 net.cpp:141] Setting up conv2_sub
I0210 11:00:55.502205  4424 net.cpp:148] Top shape: 128 32 39 39 (6230016)
I0210 11:00:55.502207  4424 net.cpp:156] Memory required for data: 675390464
I0210 11:00:55.502213  4424 layer_factory.hpp:77] Creating layer relu2_sub
I0210 11:00:55.502216  4424 net.cpp:91] Creating Layer relu2_sub
I0210 11:00:55.502219  4424 net.cpp:425] relu2_sub <- conv2_sub
I0210 11:00:55.502223  4424 net.cpp:386] relu2_sub -> conv2_sub (in-place)
I0210 11:00:55.502228  4424 net.cpp:141] Setting up relu2_sub
I0210 11:00:55.502230  4424 net.cpp:148] Top shape: 128 32 39 39 (6230016)
I0210 11:00:55.502233  4424 net.cpp:156] Memory required for data: 700310528
I0210 11:00:55.502235  4424 layer_factory.hpp:77] Creating layer concat_conv2
I0210 11:00:55.502240  4424 net.cpp:91] Creating Layer concat_conv2
I0210 11:00:55.502243  4424 net.cpp:425] concat_conv2 <- conv2_sub
I0210 11:00:55.502245  4424 net.cpp:425] concat_conv2 <- conv2_4
I0210 11:00:55.502250  4424 net.cpp:399] concat_conv2 -> concat_conv2
I0210 11:00:55.502275  4424 net.cpp:141] Setting up concat_conv2
I0210 11:00:55.502281  4424 net.cpp:148] Top shape: 128 64 39 39 (12460032)
I0210 11:00:55.502285  4424 net.cpp:156] Memory required for data: 750150656
I0210 11:00:55.502290  4424 layer_factory.hpp:77] Creating layer pool2
I0210 11:00:55.502300  4424 net.cpp:91] Creating Layer pool2
I0210 11:00:55.502305  4424 net.cpp:425] pool2 <- concat_conv2
I0210 11:00:55.502311  4424 net.cpp:399] pool2 -> pool2
I0210 11:00:55.502341  4424 net.cpp:141] Setting up pool2
I0210 11:00:55.502347  4424 net.cpp:148] Top shape: 128 64 20 20 (3276800)
I0210 11:00:55.502351  4424 net.cpp:156] Memory required for data: 763257856
I0210 11:00:55.502352  4424 layer_factory.hpp:77] Creating layer pool2_pool2_0_split
I0210 11:00:55.502357  4424 net.cpp:91] Creating Layer pool2_pool2_0_split
I0210 11:00:55.502369  4424 net.cpp:425] pool2_pool2_0_split <- pool2
I0210 11:00:55.502373  4424 net.cpp:399] pool2_pool2_0_split -> pool2_pool2_0_split_0
I0210 11:00:55.502379  4424 net.cpp:399] pool2_pool2_0_split -> pool2_pool2_0_split_1
I0210 11:00:55.502409  4424 net.cpp:141] Setting up pool2_pool2_0_split
I0210 11:00:55.502416  4424 net.cpp:148] Top shape: 128 64 20 20 (3276800)
I0210 11:00:55.502424  4424 net.cpp:148] Top shape: 128 64 20 20 (3276800)
I0210 11:00:55.502427  4424 net.cpp:156] Memory required for data: 789472256
I0210 11:00:55.502431  4424 layer_factory.hpp:77] Creating layer conv3_1
I0210 11:00:55.502440  4424 net.cpp:91] Creating Layer conv3_1
I0210 11:00:55.502444  4424 net.cpp:425] conv3_1 <- pool2_pool2_0_split_0
I0210 11:00:55.502449  4424 net.cpp:399] conv3_1 -> conv3_1
I0210 11:00:55.503329  4424 net.cpp:141] Setting up conv3_1
I0210 11:00:55.503340  4424 net.cpp:148] Top shape: 128 32 18 18 (1327104)
I0210 11:00:55.503343  4424 net.cpp:156] Memory required for data: 794780672
I0210 11:00:55.503350  4424 layer_factory.hpp:77] Creating layer relu3_1
I0210 11:00:55.503358  4424 net.cpp:91] Creating Layer relu3_1
I0210 11:00:55.503365  4424 net.cpp:425] relu3_1 <- conv3_1
I0210 11:00:55.503371  4424 net.cpp:386] relu3_1 -> conv3_1 (in-place)
I0210 11:00:55.503378  4424 net.cpp:141] Setting up relu3_1
I0210 11:00:55.503382  4424 net.cpp:148] Top shape: 128 32 18 18 (1327104)
I0210 11:00:55.503386  4424 net.cpp:156] Memory required for data: 800089088
I0210 11:00:55.503388  4424 layer_factory.hpp:77] Creating layer conv3_2
I0210 11:00:55.503393  4424 net.cpp:91] Creating Layer conv3_2
I0210 11:00:55.503396  4424 net.cpp:425] conv3_2 <- conv3_1
I0210 11:00:55.503401  4424 net.cpp:399] conv3_2 -> conv3_2
I0210 11:00:55.503585  4424 net.cpp:141] Setting up conv3_2
I0210 11:00:55.503592  4424 net.cpp:148] Top shape: 128 64 16 16 (2097152)
I0210 11:00:55.503593  4424 net.cpp:156] Memory required for data: 808477696
I0210 11:00:55.503599  4424 layer_factory.hpp:77] Creating layer relu3_2
I0210 11:00:55.503602  4424 net.cpp:91] Creating Layer relu3_2
I0210 11:00:55.503608  4424 net.cpp:425] relu3_2 <- conv3_2
I0210 11:00:55.503613  4424 net.cpp:386] relu3_2 -> conv3_2 (in-place)
I0210 11:00:55.503620  4424 net.cpp:141] Setting up relu3_2
I0210 11:00:55.503626  4424 net.cpp:148] Top shape: 128 64 16 16 (2097152)
I0210 11:00:55.503628  4424 net.cpp:156] Memory required for data: 816866304
I0210 11:00:55.503630  4424 layer_factory.hpp:77] Creating layer conv3_sub
I0210 11:00:55.503635  4424 net.cpp:91] Creating Layer conv3_sub
I0210 11:00:55.503641  4424 net.cpp:425] conv3_sub <- pool2_pool2_0_split_1
I0210 11:00:55.503648  4424 net.cpp:399] conv3_sub -> conv3_sub
I0210 11:00:55.503834  4424 net.cpp:141] Setting up conv3_sub
I0210 11:00:55.503840  4424 net.cpp:148] Top shape: 128 64 16 16 (2097152)
I0210 11:00:55.503845  4424 net.cpp:156] Memory required for data: 825254912
I0210 11:00:55.503854  4424 layer_factory.hpp:77] Creating layer relu3_sub
I0210 11:00:55.503866  4424 net.cpp:91] Creating Layer relu3_sub
I0210 11:00:55.503871  4424 net.cpp:425] relu3_sub <- conv3_sub
I0210 11:00:55.503880  4424 net.cpp:386] relu3_sub -> conv3_sub (in-place)
I0210 11:00:55.503887  4424 net.cpp:141] Setting up relu3_sub
I0210 11:00:55.503893  4424 net.cpp:148] Top shape: 128 64 16 16 (2097152)
I0210 11:00:55.503898  4424 net.cpp:156] Memory required for data: 833643520
I0210 11:00:55.503903  4424 layer_factory.hpp:77] Creating layer concat_conv3
I0210 11:00:55.503908  4424 net.cpp:91] Creating Layer concat_conv3
I0210 11:00:55.503912  4424 net.cpp:425] concat_conv3 <- conv3_sub
I0210 11:00:55.503916  4424 net.cpp:425] concat_conv3 <- conv3_2
I0210 11:00:55.503919  4424 net.cpp:399] concat_conv3 -> concat_conv3
I0210 11:00:55.503934  4424 net.cpp:141] Setting up concat_conv3
I0210 11:00:55.503939  4424 net.cpp:148] Top shape: 128 128 16 16 (4194304)
I0210 11:00:55.503942  4424 net.cpp:156] Memory required for data: 850420736
I0210 11:00:55.503944  4424 layer_factory.hpp:77] Creating layer pool3
I0210 11:00:55.503948  4424 net.cpp:91] Creating Layer pool3
I0210 11:00:55.503962  4424 net.cpp:425] pool3 <- concat_conv3
I0210 11:00:55.503969  4424 net.cpp:399] pool3 -> pool3
I0210 11:00:55.503999  4424 net.cpp:141] Setting up pool3
I0210 11:00:55.504005  4424 net.cpp:148] Top shape: 128 128 8 8 (1048576)
I0210 11:00:55.504007  4424 net.cpp:156] Memory required for data: 854615040
I0210 11:00:55.504009  4424 layer_factory.hpp:77] Creating layer conv4_1
I0210 11:00:55.504015  4424 net.cpp:91] Creating Layer conv4_1
I0210 11:00:55.504019  4424 net.cpp:425] conv4_1 <- pool3
I0210 11:00:55.504027  4424 net.cpp:399] conv4_1 -> conv4_1
I0210 11:00:55.504607  4424 net.cpp:141] Setting up conv4_1
I0210 11:00:55.504618  4424 net.cpp:148] Top shape: 128 64 6 6 (294912)
I0210 11:00:55.504622  4424 net.cpp:156] Memory required for data: 855794688
I0210 11:00:55.504631  4424 layer_factory.hpp:77] Creating layer relu4_1
I0210 11:00:55.504637  4424 net.cpp:91] Creating Layer relu4_1
I0210 11:00:55.504643  4424 net.cpp:425] relu4_1 <- conv4_1
I0210 11:00:55.504648  4424 net.cpp:386] relu4_1 -> conv4_1 (in-place)
I0210 11:00:55.504655  4424 net.cpp:141] Setting up relu4_1
I0210 11:00:55.504660  4424 net.cpp:148] Top shape: 128 64 6 6 (294912)
I0210 11:00:55.504663  4424 net.cpp:156] Memory required for data: 856974336
I0210 11:00:55.504665  4424 layer_factory.hpp:77] Creating layer conv4_2
I0210 11:00:55.504670  4424 net.cpp:91] Creating Layer conv4_2
I0210 11:00:55.504674  4424 net.cpp:425] conv4_2 <- conv4_1
I0210 11:00:55.504678  4424 net.cpp:399] conv4_2 -> conv4_2
I0210 11:00:55.504883  4424 net.cpp:141] Setting up conv4_2
I0210 11:00:55.504889  4424 net.cpp:148] Top shape: 128 128 4 4 (262144)
I0210 11:00:55.504891  4424 net.cpp:156] Memory required for data: 858022912
I0210 11:00:55.504896  4424 layer_factory.hpp:77] Creating layer relu4_2
I0210 11:00:55.504899  4424 net.cpp:91] Creating Layer relu4_2
I0210 11:00:55.504902  4424 net.cpp:425] relu4_2 <- conv4_2
I0210 11:00:55.504905  4424 net.cpp:386] relu4_2 -> conv4_2 (in-place)
I0210 11:00:55.504910  4424 net.cpp:141] Setting up relu4_2
I0210 11:00:55.504914  4424 net.cpp:148] Top shape: 128 128 4 4 (262144)
I0210 11:00:55.504915  4424 net.cpp:156] Memory required for data: 859071488
I0210 11:00:55.504917  4424 layer_factory.hpp:77] Creating layer conv4_3
I0210 11:00:55.504923  4424 net.cpp:91] Creating Layer conv4_3
I0210 11:00:55.504926  4424 net.cpp:425] conv4_3 <- conv4_2
I0210 11:00:55.504930  4424 net.cpp:399] conv4_3 -> conv4_3
I0210 11:00:55.505509  4424 net.cpp:141] Setting up conv4_3
I0210 11:00:55.505519  4424 net.cpp:148] Top shape: 128 128 2 2 (65536)
I0210 11:00:55.505522  4424 net.cpp:156] Memory required for data: 859333632
I0210 11:00:55.505527  4424 layer_factory.hpp:77] Creating layer relu4_3
I0210 11:00:55.505530  4424 net.cpp:91] Creating Layer relu4_3
I0210 11:00:55.505533  4424 net.cpp:425] relu4_3 <- conv4_3
I0210 11:00:55.505537  4424 net.cpp:386] relu4_3 -> conv4_3 (in-place)
I0210 11:00:55.505542  4424 net.cpp:141] Setting up relu4_3
I0210 11:00:55.505549  4424 net.cpp:148] Top shape: 128 128 2 2 (65536)
I0210 11:00:55.505555  4424 net.cpp:156] Memory required for data: 859595776
I0210 11:00:55.505558  4424 layer_factory.hpp:77] Creating layer conv5
I0210 11:00:55.505568  4424 net.cpp:91] Creating Layer conv5
I0210 11:00:55.505571  4424 net.cpp:425] conv5 <- conv4_3
I0210 11:00:55.505576  4424 net.cpp:399] conv5 -> conv5
I0210 11:00:55.505806  4424 net.cpp:141] Setting up conv5
I0210 11:00:55.505815  4424 net.cpp:148] Top shape: 128 512 2 2 (262144)
I0210 11:00:55.505816  4424 net.cpp:156] Memory required for data: 860644352
I0210 11:00:55.505821  4424 layer_factory.hpp:77] Creating layer relu5
I0210 11:00:55.505825  4424 net.cpp:91] Creating Layer relu5
I0210 11:00:55.505828  4424 net.cpp:425] relu5 <- conv5
I0210 11:00:55.505833  4424 net.cpp:386] relu5 -> conv5 (in-place)
I0210 11:00:55.505841  4424 net.cpp:141] Setting up relu5
I0210 11:00:55.505846  4424 net.cpp:148] Top shape: 128 512 2 2 (262144)
I0210 11:00:55.505848  4424 net.cpp:156] Memory required for data: 861692928
I0210 11:00:55.505861  4424 layer_factory.hpp:77] Creating layer conv5_relu5_0_split
I0210 11:00:55.505869  4424 net.cpp:91] Creating Layer conv5_relu5_0_split
I0210 11:00:55.505873  4424 net.cpp:425] conv5_relu5_0_split <- conv5
I0210 11:00:55.505878  4424 net.cpp:399] conv5_relu5_0_split -> conv5_relu5_0_split_0
I0210 11:00:55.505885  4424 net.cpp:399] conv5_relu5_0_split -> conv5_relu5_0_split_1
I0210 11:00:55.505893  4424 net.cpp:399] conv5_relu5_0_split -> conv5_relu5_0_split_2
I0210 11:00:55.505899  4424 net.cpp:399] conv5_relu5_0_split -> conv5_relu5_0_split_3
I0210 11:00:55.505906  4424 net.cpp:399] conv5_relu5_0_split -> conv5_relu5_0_split_4
I0210 11:00:55.505913  4424 net.cpp:399] conv5_relu5_0_split -> conv5_relu5_0_split_5
I0210 11:00:55.505920  4424 net.cpp:399] conv5_relu5_0_split -> conv5_relu5_0_split_6
I0210 11:00:55.505926  4424 net.cpp:399] conv5_relu5_0_split -> conv5_relu5_0_split_7
I0210 11:00:55.505931  4424 net.cpp:399] conv5_relu5_0_split -> conv5_relu5_0_split_8
I0210 11:00:55.505939  4424 net.cpp:399] conv5_relu5_0_split -> conv5_relu5_0_split_9
I0210 11:00:55.505944  4424 net.cpp:399] conv5_relu5_0_split -> conv5_relu5_0_split_10
I0210 11:00:55.505952  4424 net.cpp:399] conv5_relu5_0_split -> conv5_relu5_0_split_11
I0210 11:00:55.506067  4424 net.cpp:141] Setting up conv5_relu5_0_split
I0210 11:00:55.506073  4424 net.cpp:148] Top shape: 128 512 2 2 (262144)
I0210 11:00:55.506077  4424 net.cpp:148] Top shape: 128 512 2 2 (262144)
I0210 11:00:55.506079  4424 net.cpp:148] Top shape: 128 512 2 2 (262144)
I0210 11:00:55.506083  4424 net.cpp:148] Top shape: 128 512 2 2 (262144)
I0210 11:00:55.506085  4424 net.cpp:148] Top shape: 128 512 2 2 (262144)
I0210 11:00:55.506089  4424 net.cpp:148] Top shape: 128 512 2 2 (262144)
I0210 11:00:55.506093  4424 net.cpp:148] Top shape: 128 512 2 2 (262144)
I0210 11:00:55.506095  4424 net.cpp:148] Top shape: 128 512 2 2 (262144)
I0210 11:00:55.506098  4424 net.cpp:148] Top shape: 128 512 2 2 (262144)
I0210 11:00:55.506103  4424 net.cpp:148] Top shape: 128 512 2 2 (262144)
I0210 11:00:55.506108  4424 net.cpp:148] Top shape: 128 512 2 2 (262144)
I0210 11:00:55.506114  4424 net.cpp:148] Top shape: 128 512 2 2 (262144)
I0210 11:00:55.506117  4424 net.cpp:156] Memory required for data: 874275840
I0210 11:00:55.506122  4424 layer_factory.hpp:77] Creating layer fc1_left_eye_confidence
I0210 11:00:55.506131  4424 net.cpp:91] Creating Layer fc1_left_eye_confidence
I0210 11:00:55.506137  4424 net.cpp:425] fc1_left_eye_confidence <- conv5_relu5_0_split_0
I0210 11:00:55.506144  4424 net.cpp:399] fc1_left_eye_confidence -> fc1_left_eye_confidence
I0210 11:00:55.506255  4424 net.cpp:141] Setting up fc1_left_eye_confidence
I0210 11:00:55.506261  4424 net.cpp:148] Top shape: 128 23 (2944)
I0210 11:00:55.506263  4424 net.cpp:156] Memory required for data: 874287616
I0210 11:00:55.506268  4424 layer_factory.hpp:77] Creating layer relu_left_eye_confidence
I0210 11:00:55.506273  4424 net.cpp:91] Creating Layer relu_left_eye_confidence
I0210 11:00:55.506275  4424 net.cpp:425] relu_left_eye_confidence <- fc1_left_eye_confidence
I0210 11:00:55.506283  4424 net.cpp:386] relu_left_eye_confidence -> fc1_left_eye_confidence (in-place)
I0210 11:00:55.506291  4424 net.cpp:141] Setting up relu_left_eye_confidence
I0210 11:00:55.506297  4424 net.cpp:148] Top shape: 128 23 (2944)
I0210 11:00:55.506300  4424 net.cpp:156] Memory required for data: 874299392
I0210 11:00:55.506304  4424 layer_factory.hpp:77] Creating layer drop1_left_eye_confidence
I0210 11:00:55.506309  4424 net.cpp:91] Creating Layer drop1_left_eye_confidence
I0210 11:00:55.506311  4424 net.cpp:425] drop1_left_eye_confidence <- fc1_left_eye_confidence
I0210 11:00:55.506316  4424 net.cpp:386] drop1_left_eye_confidence -> fc1_left_eye_confidence (in-place)
I0210 11:00:55.506335  4424 net.cpp:141] Setting up drop1_left_eye_confidence
I0210 11:00:55.506340  4424 net.cpp:148] Top shape: 128 23 (2944)
I0210 11:00:55.506343  4424 net.cpp:156] Memory required for data: 874311168
I0210 11:00:55.506346  4424 layer_factory.hpp:77] Creating layer fc2_left_eye_confidence
I0210 11:00:55.506359  4424 net.cpp:91] Creating Layer fc2_left_eye_confidence
I0210 11:00:55.506363  4424 net.cpp:425] fc2_left_eye_confidence <- fc1_left_eye_confidence
I0210 11:00:55.506369  4424 net.cpp:399] fc2_left_eye_confidence -> fc2_left_eye_confidence
I0210 11:00:55.506444  4424 net.cpp:141] Setting up fc2_left_eye_confidence
I0210 11:00:55.506449  4424 net.cpp:148] Top shape: 128 1 (128)
I0210 11:00:55.506451  4424 net.cpp:156] Memory required for data: 874311680
I0210 11:00:55.506456  4424 layer_factory.hpp:77] Creating layer loss_left_eye_confidence
I0210 11:00:55.506464  4424 net.cpp:91] Creating Layer loss_left_eye_confidence
I0210 11:00:55.506469  4424 net.cpp:425] loss_left_eye_confidence <- fc2_left_eye_confidence
I0210 11:00:55.506471  4424 net.cpp:425] loss_left_eye_confidence <- eye_visibility_left
I0210 11:00:55.506479  4424 net.cpp:399] loss_left_eye_confidence -> loss_left_eye_confidence
I0210 11:00:55.506508  4424 net.cpp:141] Setting up loss_left_eye_confidence
I0210 11:00:55.506515  4424 net.cpp:148] Top shape: (1)
I0210 11:00:55.506516  4424 net.cpp:151]     with loss weight 1
I0210 11:00:55.506536  4424 net.cpp:156] Memory required for data: 874311684
I0210 11:00:55.506538  4424 layer_factory.hpp:77] Creating layer fc1_right_eye_confidence
I0210 11:00:55.506543  4424 net.cpp:91] Creating Layer fc1_right_eye_confidence
I0210 11:00:55.506546  4424 net.cpp:425] fc1_right_eye_confidence <- conv5_relu5_0_split_1
I0210 11:00:55.506552  4424 net.cpp:399] fc1_right_eye_confidence -> fc1_right_eye_confidence
I0210 11:00:55.506652  4424 net.cpp:141] Setting up fc1_right_eye_confidence
I0210 11:00:55.506659  4424 net.cpp:148] Top shape: 128 22 (2816)
I0210 11:00:55.506661  4424 net.cpp:156] Memory required for data: 874322948
I0210 11:00:55.506669  4424 layer_factory.hpp:77] Creating layer relu_right_eye_confidence
I0210 11:00:55.506677  4424 net.cpp:91] Creating Layer relu_right_eye_confidence
I0210 11:00:55.506683  4424 net.cpp:425] relu_right_eye_confidence <- fc1_right_eye_confidence
I0210 11:00:55.506688  4424 net.cpp:386] relu_right_eye_confidence -> fc1_right_eye_confidence (in-place)
I0210 11:00:55.506696  4424 net.cpp:141] Setting up relu_right_eye_confidence
I0210 11:00:55.506700  4424 net.cpp:148] Top shape: 128 22 (2816)
I0210 11:00:55.506702  4424 net.cpp:156] Memory required for data: 874334212
I0210 11:00:55.506705  4424 layer_factory.hpp:77] Creating layer drop1_right_eye_confidence
I0210 11:00:55.506709  4424 net.cpp:91] Creating Layer drop1_right_eye_confidence
I0210 11:00:55.506711  4424 net.cpp:425] drop1_right_eye_confidence <- fc1_right_eye_confidence
I0210 11:00:55.506716  4424 net.cpp:386] drop1_right_eye_confidence -> fc1_right_eye_confidence (in-place)
I0210 11:00:55.506729  4424 net.cpp:141] Setting up drop1_right_eye_confidence
I0210 11:00:55.506734  4424 net.cpp:148] Top shape: 128 22 (2816)
I0210 11:00:55.506736  4424 net.cpp:156] Memory required for data: 874345476
I0210 11:00:55.506739  4424 layer_factory.hpp:77] Creating layer fc2_right_eye_confidence
I0210 11:00:55.506744  4424 net.cpp:91] Creating Layer fc2_right_eye_confidence
I0210 11:00:55.506748  4424 net.cpp:425] fc2_right_eye_confidence <- fc1_right_eye_confidence
I0210 11:00:55.506753  4424 net.cpp:399] fc2_right_eye_confidence -> fc2_right_eye_confidence
I0210 11:00:55.506829  4424 net.cpp:141] Setting up fc2_right_eye_confidence
I0210 11:00:55.506836  4424 net.cpp:148] Top shape: 128 1 (128)
I0210 11:00:55.506839  4424 net.cpp:156] Memory required for data: 874345988
I0210 11:00:55.506847  4424 layer_factory.hpp:77] Creating layer loss_right_eye_confidence
I0210 11:00:55.506852  4424 net.cpp:91] Creating Layer loss_right_eye_confidence
I0210 11:00:55.506855  4424 net.cpp:425] loss_right_eye_confidence <- fc2_right_eye_confidence
I0210 11:00:55.506858  4424 net.cpp:425] loss_right_eye_confidence <- eye_visibility_right
I0210 11:00:55.506863  4424 net.cpp:399] loss_right_eye_confidence -> loss_right_eye_confidence
I0210 11:00:55.506893  4424 net.cpp:141] Setting up loss_right_eye_confidence
I0210 11:00:55.506906  4424 net.cpp:148] Top shape: (1)
I0210 11:00:55.506908  4424 net.cpp:151]     with loss weight 1
I0210 11:00:55.506913  4424 net.cpp:156] Memory required for data: 874345992
I0210 11:00:55.506916  4424 layer_factory.hpp:77] Creating layer fc1_nose_confidence
I0210 11:00:55.506919  4424 net.cpp:91] Creating Layer fc1_nose_confidence
I0210 11:00:55.506922  4424 net.cpp:425] fc1_nose_confidence <- conv5_relu5_0_split_2
I0210 11:00:55.506927  4424 net.cpp:399] fc1_nose_confidence -> fc1_nose_confidence
I0210 11:00:55.507397  4424 net.cpp:141] Setting up fc1_nose_confidence
I0210 11:00:55.507405  4424 net.cpp:148] Top shape: 128 24 (3072)
I0210 11:00:55.507408  4424 net.cpp:156] Memory required for data: 874358280
I0210 11:00:55.507413  4424 layer_factory.hpp:77] Creating layer relu_nose_confidence
I0210 11:00:55.507418  4424 net.cpp:91] Creating Layer relu_nose_confidence
I0210 11:00:55.507421  4424 net.cpp:425] relu_nose_confidence <- fc1_nose_confidence
I0210 11:00:55.507426  4424 net.cpp:386] relu_nose_confidence -> fc1_nose_confidence (in-place)
I0210 11:00:55.507431  4424 net.cpp:141] Setting up relu_nose_confidence
I0210 11:00:55.507434  4424 net.cpp:148] Top shape: 128 24 (3072)
I0210 11:00:55.507436  4424 net.cpp:156] Memory required for data: 874370568
I0210 11:00:55.507441  4424 layer_factory.hpp:77] Creating layer drop1_nose_confidence
I0210 11:00:55.507446  4424 net.cpp:91] Creating Layer drop1_nose_confidence
I0210 11:00:55.507449  4424 net.cpp:425] drop1_nose_confidence <- fc1_nose_confidence
I0210 11:00:55.507457  4424 net.cpp:386] drop1_nose_confidence -> fc1_nose_confidence (in-place)
I0210 11:00:55.507477  4424 net.cpp:141] Setting up drop1_nose_confidence
I0210 11:00:55.507480  4424 net.cpp:148] Top shape: 128 24 (3072)
I0210 11:00:55.507483  4424 net.cpp:156] Memory required for data: 874382856
I0210 11:00:55.507485  4424 layer_factory.hpp:77] Creating layer fc2_nose_confidence
I0210 11:00:55.507490  4424 net.cpp:91] Creating Layer fc2_nose_confidence
I0210 11:00:55.507493  4424 net.cpp:425] fc2_nose_confidence <- fc1_nose_confidence
I0210 11:00:55.507496  4424 net.cpp:399] fc2_nose_confidence -> fc2_nose_confidence
I0210 11:00:55.507573  4424 net.cpp:141] Setting up fc2_nose_confidence
I0210 11:00:55.507580  4424 net.cpp:148] Top shape: 128 1 (128)
I0210 11:00:55.507581  4424 net.cpp:156] Memory required for data: 874383368
I0210 11:00:55.507586  4424 layer_factory.hpp:77] Creating layer loss_nose_confidence
I0210 11:00:55.507591  4424 net.cpp:91] Creating Layer loss_nose_confidence
I0210 11:00:55.507594  4424 net.cpp:425] loss_nose_confidence <- fc2_nose_confidence
I0210 11:00:55.507597  4424 net.cpp:425] loss_nose_confidence <- nose_visibility
I0210 11:00:55.507601  4424 net.cpp:399] loss_nose_confidence -> loss_nose_confidence
I0210 11:00:55.507627  4424 net.cpp:141] Setting up loss_nose_confidence
I0210 11:00:55.507633  4424 net.cpp:148] Top shape: (1)
I0210 11:00:55.507635  4424 net.cpp:151]     with loss weight 1
I0210 11:00:55.507639  4424 net.cpp:156] Memory required for data: 874383372
I0210 11:00:55.507642  4424 layer_factory.hpp:77] Creating layer fc1_left_mouth_confidence
I0210 11:00:55.507648  4424 net.cpp:91] Creating Layer fc1_left_mouth_confidence
I0210 11:00:55.507650  4424 net.cpp:425] fc1_left_mouth_confidence <- conv5_relu5_0_split_3
I0210 11:00:55.507655  4424 net.cpp:399] fc1_left_mouth_confidence -> fc1_left_mouth_confidence
I0210 11:00:55.507758  4424 net.cpp:141] Setting up fc1_left_mouth_confidence
I0210 11:00:55.507766  4424 net.cpp:148] Top shape: 128 23 (2944)
I0210 11:00:55.507768  4424 net.cpp:156] Memory required for data: 874395148
I0210 11:00:55.507772  4424 layer_factory.hpp:77] Creating layer relu_left_mouth_confidence
I0210 11:00:55.507776  4424 net.cpp:91] Creating Layer relu_left_mouth_confidence
I0210 11:00:55.507779  4424 net.cpp:425] relu_left_mouth_confidence <- fc1_left_mouth_confidence
I0210 11:00:55.507782  4424 net.cpp:386] relu_left_mouth_confidence -> fc1_left_mouth_confidence (in-place)
I0210 11:00:55.507787  4424 net.cpp:141] Setting up relu_left_mouth_confidence
I0210 11:00:55.507798  4424 net.cpp:148] Top shape: 128 23 (2944)
I0210 11:00:55.507802  4424 net.cpp:156] Memory required for data: 874406924
I0210 11:00:55.507807  4424 layer_factory.hpp:77] Creating layer drop1_left_mouth_confidence
I0210 11:00:55.507812  4424 net.cpp:91] Creating Layer drop1_left_mouth_confidence
I0210 11:00:55.507818  4424 net.cpp:425] drop1_left_mouth_confidence <- fc1_left_mouth_confidence
I0210 11:00:55.507824  4424 net.cpp:386] drop1_left_mouth_confidence -> fc1_left_mouth_confidence (in-place)
I0210 11:00:55.507841  4424 net.cpp:141] Setting up drop1_left_mouth_confidence
I0210 11:00:55.507846  4424 net.cpp:148] Top shape: 128 23 (2944)
I0210 11:00:55.507848  4424 net.cpp:156] Memory required for data: 874418700
I0210 11:00:55.507851  4424 layer_factory.hpp:77] Creating layer fc2_left_mouth_confidence
I0210 11:00:55.507856  4424 net.cpp:91] Creating Layer fc2_left_mouth_confidence
I0210 11:00:55.507858  4424 net.cpp:425] fc2_left_mouth_confidence <- fc1_left_mouth_confidence
I0210 11:00:55.507866  4424 net.cpp:399] fc2_left_mouth_confidence -> fc2_left_mouth_confidence
I0210 11:00:55.507942  4424 net.cpp:141] Setting up fc2_left_mouth_confidence
I0210 11:00:55.507947  4424 net.cpp:148] Top shape: 128 1 (128)
I0210 11:00:55.507949  4424 net.cpp:156] Memory required for data: 874419212
I0210 11:00:55.507953  4424 layer_factory.hpp:77] Creating layer loss_left_mouth_confidence
I0210 11:00:55.507959  4424 net.cpp:91] Creating Layer loss_left_mouth_confidence
I0210 11:00:55.507964  4424 net.cpp:425] loss_left_mouth_confidence <- fc2_left_mouth_confidence
I0210 11:00:55.507968  4424 net.cpp:425] loss_left_mouth_confidence <- mouth_visibility_left
I0210 11:00:55.507977  4424 net.cpp:399] loss_left_mouth_confidence -> loss_left_mouth_confidence
I0210 11:00:55.508003  4424 net.cpp:141] Setting up loss_left_mouth_confidence
I0210 11:00:55.508008  4424 net.cpp:148] Top shape: (1)
I0210 11:00:55.508010  4424 net.cpp:151]     with loss weight 1
I0210 11:00:55.508013  4424 net.cpp:156] Memory required for data: 874419216
I0210 11:00:55.508016  4424 layer_factory.hpp:77] Creating layer fc1_center_mouth_confidence
I0210 11:00:55.508021  4424 net.cpp:91] Creating Layer fc1_center_mouth_confidence
I0210 11:00:55.508024  4424 net.cpp:425] fc1_center_mouth_confidence <- conv5_relu5_0_split_4
I0210 11:00:55.508028  4424 net.cpp:399] fc1_center_mouth_confidence -> fc1_center_mouth_confidence
I0210 11:00:55.508131  4424 net.cpp:141] Setting up fc1_center_mouth_confidence
I0210 11:00:55.508137  4424 net.cpp:148] Top shape: 128 24 (3072)
I0210 11:00:55.508141  4424 net.cpp:156] Memory required for data: 874431504
I0210 11:00:55.508147  4424 layer_factory.hpp:77] Creating layer relu_center_mouth_confidence
I0210 11:00:55.508152  4424 net.cpp:91] Creating Layer relu_center_mouth_confidence
I0210 11:00:55.508155  4424 net.cpp:425] relu_center_mouth_confidence <- fc1_center_mouth_confidence
I0210 11:00:55.508159  4424 net.cpp:386] relu_center_mouth_confidence -> fc1_center_mouth_confidence (in-place)
I0210 11:00:55.508167  4424 net.cpp:141] Setting up relu_center_mouth_confidence
I0210 11:00:55.508172  4424 net.cpp:148] Top shape: 128 24 (3072)
I0210 11:00:55.508175  4424 net.cpp:156] Memory required for data: 874443792
I0210 11:00:55.508179  4424 layer_factory.hpp:77] Creating layer drop1_center_mouth_confidence
I0210 11:00:55.508188  4424 net.cpp:91] Creating Layer drop1_center_mouth_confidence
I0210 11:00:55.508193  4424 net.cpp:425] drop1_center_mouth_confidence <- fc1_center_mouth_confidence
I0210 11:00:55.508198  4424 net.cpp:386] drop1_center_mouth_confidence -> fc1_center_mouth_confidence (in-place)
I0210 11:00:55.508216  4424 net.cpp:141] Setting up drop1_center_mouth_confidence
I0210 11:00:55.508221  4424 net.cpp:148] Top shape: 128 24 (3072)
I0210 11:00:55.508226  4424 net.cpp:156] Memory required for data: 874456080
I0210 11:00:55.508230  4424 layer_factory.hpp:77] Creating layer fc2_center_mouth_confidence
I0210 11:00:55.508239  4424 net.cpp:91] Creating Layer fc2_center_mouth_confidence
I0210 11:00:55.508251  4424 net.cpp:425] fc2_center_mouth_confidence <- fc1_center_mouth_confidence
I0210 11:00:55.508256  4424 net.cpp:399] fc2_center_mouth_confidence -> fc2_center_mouth_confidence
I0210 11:00:55.508329  4424 net.cpp:141] Setting up fc2_center_mouth_confidence
I0210 11:00:55.508334  4424 net.cpp:148] Top shape: 128 1 (128)
I0210 11:00:55.508337  4424 net.cpp:156] Memory required for data: 874456592
I0210 11:00:55.508342  4424 layer_factory.hpp:77] Creating layer loss_center_mouth_confidence
I0210 11:00:55.508347  4424 net.cpp:91] Creating Layer loss_center_mouth_confidence
I0210 11:00:55.508350  4424 net.cpp:425] loss_center_mouth_confidence <- fc2_center_mouth_confidence
I0210 11:00:55.508353  4424 net.cpp:425] loss_center_mouth_confidence <- mouth_visibility_center
I0210 11:00:55.508359  4424 net.cpp:399] loss_center_mouth_confidence -> loss_center_mouth_confidence
I0210 11:00:55.508389  4424 net.cpp:141] Setting up loss_center_mouth_confidence
I0210 11:00:55.508394  4424 net.cpp:148] Top shape: (1)
I0210 11:00:55.508397  4424 net.cpp:151]     with loss weight 1
I0210 11:00:55.508404  4424 net.cpp:156] Memory required for data: 874456596
I0210 11:00:55.508406  4424 layer_factory.hpp:77] Creating layer fc1_right_mouth_confidence
I0210 11:00:55.508410  4424 net.cpp:91] Creating Layer fc1_right_mouth_confidence
I0210 11:00:55.508414  4424 net.cpp:425] fc1_right_mouth_confidence <- conv5_relu5_0_split_5
I0210 11:00:55.508419  4424 net.cpp:399] fc1_right_mouth_confidence -> fc1_right_mouth_confidence
I0210 11:00:55.508517  4424 net.cpp:141] Setting up fc1_right_mouth_confidence
I0210 11:00:55.508522  4424 net.cpp:148] Top shape: 128 20 (2560)
I0210 11:00:55.508525  4424 net.cpp:156] Memory required for data: 874466836
I0210 11:00:55.508533  4424 layer_factory.hpp:77] Creating layer relu_right_mouth_confidence
I0210 11:00:55.508539  4424 net.cpp:91] Creating Layer relu_right_mouth_confidence
I0210 11:00:55.508543  4424 net.cpp:425] relu_right_mouth_confidence <- fc1_right_mouth_confidence
I0210 11:00:55.508546  4424 net.cpp:386] relu_right_mouth_confidence -> fc1_right_mouth_confidence (in-place)
I0210 11:00:55.508553  4424 net.cpp:141] Setting up relu_right_mouth_confidence
I0210 11:00:55.508558  4424 net.cpp:148] Top shape: 128 20 (2560)
I0210 11:00:55.508561  4424 net.cpp:156] Memory required for data: 874477076
I0210 11:00:55.508564  4424 layer_factory.hpp:77] Creating layer drop1_right_mouth_confidence
I0210 11:00:55.508570  4424 net.cpp:91] Creating Layer drop1_right_mouth_confidence
I0210 11:00:55.508574  4424 net.cpp:425] drop1_right_mouth_confidence <- fc1_right_mouth_confidence
I0210 11:00:55.508577  4424 net.cpp:386] drop1_right_mouth_confidence -> fc1_right_mouth_confidence (in-place)
I0210 11:00:55.508591  4424 net.cpp:141] Setting up drop1_right_mouth_confidence
I0210 11:00:55.508596  4424 net.cpp:148] Top shape: 128 20 (2560)
I0210 11:00:55.508599  4424 net.cpp:156] Memory required for data: 874487316
I0210 11:00:55.508600  4424 layer_factory.hpp:77] Creating layer fc2_right_mouth_confidence
I0210 11:00:55.508605  4424 net.cpp:91] Creating Layer fc2_right_mouth_confidence
I0210 11:00:55.508608  4424 net.cpp:425] fc2_right_mouth_confidence <- fc1_right_mouth_confidence
I0210 11:00:55.508613  4424 net.cpp:399] fc2_right_mouth_confidence -> fc2_right_mouth_confidence
I0210 11:00:55.508684  4424 net.cpp:141] Setting up fc2_right_mouth_confidence
I0210 11:00:55.508689  4424 net.cpp:148] Top shape: 128 1 (128)
I0210 11:00:55.508692  4424 net.cpp:156] Memory required for data: 874487828
I0210 11:00:55.508697  4424 layer_factory.hpp:77] Creating layer loss_right_mouth_confidence
I0210 11:00:55.508710  4424 net.cpp:91] Creating Layer loss_right_mouth_confidence
I0210 11:00:55.508715  4424 net.cpp:425] loss_right_mouth_confidence <- fc2_right_mouth_confidence
I0210 11:00:55.508720  4424 net.cpp:425] loss_right_mouth_confidence <- mouth_visibility_right
I0210 11:00:55.508726  4424 net.cpp:399] loss_right_mouth_confidence -> loss_right_mouth_confidence
I0210 11:00:55.508759  4424 net.cpp:141] Setting up loss_right_mouth_confidence
I0210 11:00:55.508771  4424 net.cpp:148] Top shape: (1)
I0210 11:00:55.508775  4424 net.cpp:151]     with loss weight 1
I0210 11:00:55.508780  4424 net.cpp:156] Memory required for data: 874487832
I0210 11:00:55.508782  4424 layer_factory.hpp:77] Creating layer fc1_left_eye_coordinate
I0210 11:00:55.508786  4424 net.cpp:91] Creating Layer fc1_left_eye_coordinate
I0210 11:00:55.508790  4424 net.cpp:425] fc1_left_eye_coordinate <- conv5_relu5_0_split_6
I0210 11:00:55.508795  4424 net.cpp:399] fc1_left_eye_coordinate -> fc1_left_eye_coordinate
I0210 11:00:55.508924  4424 net.cpp:141] Setting up fc1_left_eye_coordinate
I0210 11:00:55.508929  4424 net.cpp:148] Top shape: 128 39 (4992)
I0210 11:00:55.508931  4424 net.cpp:156] Memory required for data: 874507800
I0210 11:00:55.508935  4424 layer_factory.hpp:77] Creating layer drop1_left_eye_coordinate
I0210 11:00:55.508941  4424 net.cpp:91] Creating Layer drop1_left_eye_coordinate
I0210 11:00:55.508944  4424 net.cpp:425] drop1_left_eye_coordinate <- fc1_left_eye_coordinate
I0210 11:00:55.508949  4424 net.cpp:386] drop1_left_eye_coordinate -> fc1_left_eye_coordinate (in-place)
I0210 11:00:55.508962  4424 net.cpp:141] Setting up drop1_left_eye_coordinate
I0210 11:00:55.508966  4424 net.cpp:148] Top shape: 128 39 (4992)
I0210 11:00:55.508968  4424 net.cpp:156] Memory required for data: 874527768
I0210 11:00:55.508971  4424 layer_factory.hpp:77] Creating layer fc2_left_eye_coordinate
I0210 11:00:55.508975  4424 net.cpp:91] Creating Layer fc2_left_eye_coordinate
I0210 11:00:55.508977  4424 net.cpp:425] fc2_left_eye_coordinate <- fc1_left_eye_coordinate
I0210 11:00:55.508985  4424 net.cpp:399] fc2_left_eye_coordinate -> fc2_left_eye_coordinate
I0210 11:00:55.509068  4424 net.cpp:141] Setting up fc2_left_eye_coordinate
I0210 11:00:55.509073  4424 net.cpp:148] Top shape: 128 2 (256)
I0210 11:00:55.509075  4424 net.cpp:156] Memory required for data: 874528792
I0210 11:00:55.509085  4424 layer_factory.hpp:77] Creating layer loss_left_eye_coordinate
I0210 11:00:55.509093  4424 net.cpp:91] Creating Layer loss_left_eye_coordinate
I0210 11:00:55.509099  4424 net.cpp:425] loss_left_eye_coordinate <- fc2_left_eye_coordinate
I0210 11:00:55.509104  4424 net.cpp:425] loss_left_eye_coordinate <- left_eye
I0210 11:00:55.509109  4424 net.cpp:399] loss_left_eye_coordinate -> loss_left_eye_coordinate
I0210 11:00:55.509136  4424 net.cpp:141] Setting up loss_left_eye_coordinate
I0210 11:00:55.509141  4424 net.cpp:148] Top shape: (1)
I0210 11:00:55.509143  4424 net.cpp:151]     with loss weight 1
I0210 11:00:55.509150  4424 net.cpp:156] Memory required for data: 874528796
I0210 11:00:55.509153  4424 layer_factory.hpp:77] Creating layer fc1_right_eye_coordinate
I0210 11:00:55.509160  4424 net.cpp:91] Creating Layer fc1_right_eye_coordinate
I0210 11:00:55.509165  4424 net.cpp:425] fc1_right_eye_coordinate <- conv5_relu5_0_split_7
I0210 11:00:55.509169  4424 net.cpp:399] fc1_right_eye_coordinate -> fc1_right_eye_coordinate
I0210 11:00:55.509269  4424 net.cpp:141] Setting up fc1_right_eye_coordinate
I0210 11:00:55.509275  4424 net.cpp:148] Top shape: 128 20 (2560)
I0210 11:00:55.509279  4424 net.cpp:156] Memory required for data: 874539036
I0210 11:00:55.509285  4424 layer_factory.hpp:77] Creating layer drop1_right_eye_coordinate
I0210 11:00:55.509292  4424 net.cpp:91] Creating Layer drop1_right_eye_coordinate
I0210 11:00:55.509297  4424 net.cpp:425] drop1_right_eye_coordinate <- fc1_right_eye_coordinate
I0210 11:00:55.509305  4424 net.cpp:386] drop1_right_eye_coordinate -> fc1_right_eye_coordinate (in-place)
I0210 11:00:55.509320  4424 net.cpp:141] Setting up drop1_right_eye_coordinate
I0210 11:00:55.509327  4424 net.cpp:148] Top shape: 128 20 (2560)
I0210 11:00:55.509330  4424 net.cpp:156] Memory required for data: 874549276
I0210 11:00:55.509332  4424 layer_factory.hpp:77] Creating layer fc2_right_eye_coordinate
I0210 11:00:55.509336  4424 net.cpp:91] Creating Layer fc2_right_eye_coordinate
I0210 11:00:55.509342  4424 net.cpp:425] fc2_right_eye_coordinate <- fc1_right_eye_coordinate
I0210 11:00:55.509357  4424 net.cpp:399] fc2_right_eye_coordinate -> fc2_right_eye_coordinate
I0210 11:00:55.509436  4424 net.cpp:141] Setting up fc2_right_eye_coordinate
I0210 11:00:55.509443  4424 net.cpp:148] Top shape: 128 2 (256)
I0210 11:00:55.509448  4424 net.cpp:156] Memory required for data: 874550300
I0210 11:00:55.509454  4424 layer_factory.hpp:77] Creating layer loss_right_eye_coordinate
I0210 11:00:55.509462  4424 net.cpp:91] Creating Layer loss_right_eye_coordinate
I0210 11:00:55.509465  4424 net.cpp:425] loss_right_eye_coordinate <- fc2_right_eye_coordinate
I0210 11:00:55.509469  4424 net.cpp:425] loss_right_eye_coordinate <- right_eye
I0210 11:00:55.509474  4424 net.cpp:399] loss_right_eye_coordinate -> loss_right_eye_coordinate
I0210 11:00:55.509503  4424 net.cpp:141] Setting up loss_right_eye_coordinate
I0210 11:00:55.509508  4424 net.cpp:148] Top shape: (1)
I0210 11:00:55.509513  4424 net.cpp:151]     with loss weight 1
I0210 11:00:55.509521  4424 net.cpp:156] Memory required for data: 874550304
I0210 11:00:55.509523  4424 layer_factory.hpp:77] Creating layer fc1_nose_coordinate
I0210 11:00:55.509529  4424 net.cpp:91] Creating Layer fc1_nose_coordinate
I0210 11:00:55.509534  4424 net.cpp:425] fc1_nose_coordinate <- conv5_relu5_0_split_8
I0210 11:00:55.509539  4424 net.cpp:399] fc1_nose_coordinate -> fc1_nose_coordinate
I0210 11:00:55.509661  4424 net.cpp:141] Setting up fc1_nose_coordinate
I0210 11:00:55.509667  4424 net.cpp:148] Top shape: 128 36 (4608)
I0210 11:00:55.509670  4424 net.cpp:156] Memory required for data: 874568736
I0210 11:00:55.509675  4424 layer_factory.hpp:77] Creating layer drop1_nose_coordinate
I0210 11:00:55.509678  4424 net.cpp:91] Creating Layer drop1_nose_coordinate
I0210 11:00:55.509681  4424 net.cpp:425] drop1_nose_coordinate <- fc1_nose_coordinate
I0210 11:00:55.509687  4424 net.cpp:386] drop1_nose_coordinate -> fc1_nose_coordinate (in-place)
I0210 11:00:55.509704  4424 net.cpp:141] Setting up drop1_nose_coordinate
I0210 11:00:55.509709  4424 net.cpp:148] Top shape: 128 36 (4608)
I0210 11:00:55.509712  4424 net.cpp:156] Memory required for data: 874587168
I0210 11:00:55.509717  4424 layer_factory.hpp:77] Creating layer fc2_nose_coordinate
I0210 11:00:55.509723  4424 net.cpp:91] Creating Layer fc2_nose_coordinate
I0210 11:00:55.509727  4424 net.cpp:425] fc2_nose_coordinate <- fc1_nose_coordinate
I0210 11:00:55.509730  4424 net.cpp:399] fc2_nose_coordinate -> fc2_nose_coordinate
I0210 11:00:55.509809  4424 net.cpp:141] Setting up fc2_nose_coordinate
I0210 11:00:55.509814  4424 net.cpp:148] Top shape: 128 2 (256)
I0210 11:00:55.509816  4424 net.cpp:156] Memory required for data: 874588192
I0210 11:00:55.509822  4424 layer_factory.hpp:77] Creating layer loss_nose_coordinate
I0210 11:00:55.509832  4424 net.cpp:91] Creating Layer loss_nose_coordinate
I0210 11:00:55.509837  4424 net.cpp:425] loss_nose_coordinate <- fc2_nose_coordinate
I0210 11:00:55.509841  4424 net.cpp:425] loss_nose_coordinate <- nose
I0210 11:00:55.509847  4424 net.cpp:399] loss_nose_coordinate -> loss_nose_coordinate
I0210 11:00:55.509874  4424 net.cpp:141] Setting up loss_nose_coordinate
I0210 11:00:55.509878  4424 net.cpp:148] Top shape: (1)
I0210 11:00:55.509881  4424 net.cpp:151]     with loss weight 1
I0210 11:00:55.509886  4424 net.cpp:156] Memory required for data: 874588196
I0210 11:00:55.509891  4424 layer_factory.hpp:77] Creating layer fc1_left_mouth_coordinate
I0210 11:00:55.509899  4424 net.cpp:91] Creating Layer fc1_left_mouth_coordinate
I0210 11:00:55.509903  4424 net.cpp:425] fc1_left_mouth_coordinate <- conv5_relu5_0_split_9
I0210 11:00:55.509908  4424 net.cpp:399] fc1_left_mouth_coordinate -> fc1_left_mouth_coordinate
I0210 11:00:55.510385  4424 net.cpp:141] Setting up fc1_left_mouth_coordinate
I0210 11:00:55.510393  4424 net.cpp:148] Top shape: 128 22 (2816)
I0210 11:00:55.510398  4424 net.cpp:156] Memory required for data: 874599460
I0210 11:00:55.510406  4424 layer_factory.hpp:77] Creating layer drop1_left_mouth_coordinate
I0210 11:00:55.510416  4424 net.cpp:91] Creating Layer drop1_left_mouth_coordinate
I0210 11:00:55.510428  4424 net.cpp:425] drop1_left_mouth_coordinate <- fc1_left_mouth_coordinate
I0210 11:00:55.510437  4424 net.cpp:386] drop1_left_mouth_coordinate -> fc1_left_mouth_coordinate (in-place)
I0210 11:00:55.510454  4424 net.cpp:141] Setting up drop1_left_mouth_coordinate
I0210 11:00:55.510460  4424 net.cpp:148] Top shape: 128 22 (2816)
I0210 11:00:55.510464  4424 net.cpp:156] Memory required for data: 874610724
I0210 11:00:55.510468  4424 layer_factory.hpp:77] Creating layer fc2_left_mouth_coordinate
I0210 11:00:55.510475  4424 net.cpp:91] Creating Layer fc2_left_mouth_coordinate
I0210 11:00:55.510480  4424 net.cpp:425] fc2_left_mouth_coordinate <- fc1_left_mouth_coordinate
I0210 11:00:55.510488  4424 net.cpp:399] fc2_left_mouth_coordinate -> fc2_left_mouth_coordinate
I0210 11:00:55.510566  4424 net.cpp:141] Setting up fc2_left_mouth_coordinate
I0210 11:00:55.510572  4424 net.cpp:148] Top shape: 128 2 (256)
I0210 11:00:55.510577  4424 net.cpp:156] Memory required for data: 874611748
I0210 11:00:55.510594  4424 layer_factory.hpp:77] Creating layer loss_left_mouth_coordinate
I0210 11:00:55.510601  4424 net.cpp:91] Creating Layer loss_left_mouth_coordinate
I0210 11:00:55.510606  4424 net.cpp:425] loss_left_mouth_coordinate <- fc2_left_mouth_coordinate
I0210 11:00:55.510612  4424 net.cpp:425] loss_left_mouth_coordinate <- left_mouth
I0210 11:00:55.510622  4424 net.cpp:399] loss_left_mouth_coordinate -> loss_left_mouth_coordinate
I0210 11:00:55.510650  4424 net.cpp:141] Setting up loss_left_mouth_coordinate
I0210 11:00:55.510655  4424 net.cpp:148] Top shape: (1)
I0210 11:00:55.510660  4424 net.cpp:151]     with loss weight 1
I0210 11:00:55.510668  4424 net.cpp:156] Memory required for data: 874611752
I0210 11:00:55.510670  4424 layer_factory.hpp:77] Creating layer fc1_center_mouth_coordinate
I0210 11:00:55.510676  4424 net.cpp:91] Creating Layer fc1_center_mouth_coordinate
I0210 11:00:55.510681  4424 net.cpp:425] fc1_center_mouth_coordinate <- conv5_relu5_0_split_10
I0210 11:00:55.510690  4424 net.cpp:399] fc1_center_mouth_coordinate -> fc1_center_mouth_coordinate
I0210 11:00:55.511179  4424 net.cpp:141] Setting up fc1_center_mouth_coordinate
I0210 11:00:55.511188  4424 net.cpp:148] Top shape: 128 41 (5248)
I0210 11:00:55.511194  4424 net.cpp:156] Memory required for data: 874632744
I0210 11:00:55.511201  4424 layer_factory.hpp:77] Creating layer drop1_center_mouth_coordinate
I0210 11:00:55.511209  4424 net.cpp:91] Creating Layer drop1_center_mouth_coordinate
I0210 11:00:55.511214  4424 net.cpp:425] drop1_center_mouth_coordinate <- fc1_center_mouth_coordinate
I0210 11:00:55.511222  4424 net.cpp:386] drop1_center_mouth_coordinate -> fc1_center_mouth_coordinate (in-place)
I0210 11:00:55.511240  4424 net.cpp:141] Setting up drop1_center_mouth_coordinate
I0210 11:00:55.511245  4424 net.cpp:148] Top shape: 128 41 (5248)
I0210 11:00:55.511248  4424 net.cpp:156] Memory required for data: 874653736
I0210 11:00:55.511255  4424 layer_factory.hpp:77] Creating layer fc2_center_mouth_coordinate
I0210 11:00:55.511260  4424 net.cpp:91] Creating Layer fc2_center_mouth_coordinate
I0210 11:00:55.511265  4424 net.cpp:425] fc2_center_mouth_coordinate <- fc1_center_mouth_coordinate
I0210 11:00:55.511270  4424 net.cpp:399] fc2_center_mouth_coordinate -> fc2_center_mouth_coordinate
I0210 11:00:55.511350  4424 net.cpp:141] Setting up fc2_center_mouth_coordinate
I0210 11:00:55.511355  4424 net.cpp:148] Top shape: 128 2 (256)
I0210 11:00:55.511358  4424 net.cpp:156] Memory required for data: 874654760
I0210 11:00:55.511365  4424 layer_factory.hpp:77] Creating layer loss_center_mouth_coordinate
I0210 11:00:55.511373  4424 net.cpp:91] Creating Layer loss_center_mouth_coordinate
I0210 11:00:55.511379  4424 net.cpp:425] loss_center_mouth_coordinate <- fc2_center_mouth_coordinate
I0210 11:00:55.511384  4424 net.cpp:425] loss_center_mouth_coordinate <- center_mouth
I0210 11:00:55.511389  4424 net.cpp:399] loss_center_mouth_coordinate -> loss_center_mouth_coordinate
I0210 11:00:55.511420  4424 net.cpp:141] Setting up loss_center_mouth_coordinate
I0210 11:00:55.511432  4424 net.cpp:148] Top shape: (1)
I0210 11:00:55.511437  4424 net.cpp:151]     with loss weight 1
I0210 11:00:55.511443  4424 net.cpp:156] Memory required for data: 874654764
I0210 11:00:55.511447  4424 layer_factory.hpp:77] Creating layer fc1_right_mouth_coordinate
I0210 11:00:55.511454  4424 net.cpp:91] Creating Layer fc1_right_mouth_coordinate
I0210 11:00:55.511458  4424 net.cpp:425] fc1_right_mouth_coordinate <- conv5_relu5_0_split_11
I0210 11:00:55.511466  4424 net.cpp:399] fc1_right_mouth_coordinate -> fc1_right_mouth_coordinate
I0210 11:00:55.511582  4424 net.cpp:141] Setting up fc1_right_mouth_coordinate
I0210 11:00:55.511589  4424 net.cpp:148] Top shape: 128 30 (3840)
I0210 11:00:55.511591  4424 net.cpp:156] Memory required for data: 874670124
I0210 11:00:55.511598  4424 layer_factory.hpp:77] Creating layer drop1_right_mouth_coordinate
I0210 11:00:55.511605  4424 net.cpp:91] Creating Layer drop1_right_mouth_coordinate
I0210 11:00:55.511610  4424 net.cpp:425] drop1_right_mouth_coordinate <- fc1_right_mouth_coordinate
I0210 11:00:55.511617  4424 net.cpp:386] drop1_right_mouth_coordinate -> fc1_right_mouth_coordinate (in-place)
I0210 11:00:55.511634  4424 net.cpp:141] Setting up drop1_right_mouth_coordinate
I0210 11:00:55.511639  4424 net.cpp:148] Top shape: 128 30 (3840)
I0210 11:00:55.511642  4424 net.cpp:156] Memory required for data: 874685484
I0210 11:00:55.511646  4424 layer_factory.hpp:77] Creating layer fc2_right_mouth_coordinate
I0210 11:00:55.511654  4424 net.cpp:91] Creating Layer fc2_right_mouth_coordinate
I0210 11:00:55.511659  4424 net.cpp:425] fc2_right_mouth_coordinate <- fc1_right_mouth_coordinate
I0210 11:00:55.511665  4424 net.cpp:399] fc2_right_mouth_coordinate -> fc2_right_mouth_coordinate
I0210 11:00:55.511751  4424 net.cpp:141] Setting up fc2_right_mouth_coordinate
I0210 11:00:55.511757  4424 net.cpp:148] Top shape: 128 2 (256)
I0210 11:00:55.511759  4424 net.cpp:156] Memory required for data: 874686508
I0210 11:00:55.511767  4424 layer_factory.hpp:77] Creating layer loss_right_mouth_coordinate
I0210 11:00:55.511775  4424 net.cpp:91] Creating Layer loss_right_mouth_coordinate
I0210 11:00:55.511780  4424 net.cpp:425] loss_right_mouth_coordinate <- fc2_right_mouth_coordinate
I0210 11:00:55.511785  4424 net.cpp:425] loss_right_mouth_coordinate <- right_mouth
…
