…
I1029 13:32:31.005717 13874 net.cpp:313] The NetState phase (0) differed from the phase (1) specified by a rule in layer data
I1029 13:32:31.006074 13874 net.cpp:49] Initializing net from parameters: 
name: "FaceNet"
state {
  phase: TRAIN
}
layer {
  name: "data"
  type: "HDF5Data"
  top: "data"
  top: "left_eye"
  top: "visibility_left"
  top: "right_eye"
  top: "visibility_right"
  include {
    phase: TRAIN
  }
  hdf5_data_param {
    source: "/home/wzleong/Downloads/nottingham_only_visible/train_scaled_mean_subtracted_own_data_1_multiple_label_data_list.txt"
    batch_size: 128
    shuffle: true
  }
}
layer {
  name: "conv1"
  type: "Convolution"
  bottom: "data"
  top: "conv1"
  param {
    lr_mult: 1
    decay_mult: 0
  }
  param {
    lr_mult: 2
    decay_mult: 0
  }
  convolution_param {
    num_output: 16
    pad: 0
    kernel_size: 13
    stride: 2
    weight_filler {
      type: "xavier"
    }
    bias_filler {
      type: "constant"
    }
  }
}
layer {
  name: "relu1"
  type: "ReLU"
  bottom: "conv1"
  top: "conv1"
}
layer {
  name: "pool1"
  type: "Pooling"
  bottom: "conv1"
  top: "pool1"
  pooling_param {
    pool: MAX
    kernel_size: 2
    stride: 2
  }
}
layer {
  name: "conv2_1"
  type: "Convolution"
  bottom: "pool1"
  top: "conv2_1"
  param {
    lr_mult: 1
    decay_mult: 0
  }
  param {
    lr_mult: 2
    decay_mult: 0
  }
  convolution_param {
    num_output: 16
    pad: 0
    kernel_size: 5
    stride: 1
    weight_filler {
      type: "xavier"
    }
    bias_filler {
      type: "constant"
    }
  }
}
layer {
  name: "relu2_1"
  type: "ReLU"
  bottom: "conv2_1"
  top: "conv2_1"
}
layer {
  name: "conv2_2"
  type: "Convolution"
  bottom: "conv2_1"
  top: "conv2_2"
  param {
    lr_mult: 1
    decay_mult: 0
  }
  param {
    lr_mult: 2
    decay_mult: 0
  }
  convolution_param {
    num_output: 32
    pad: 0
    kernel_size: 5
    stride: 1
    weight_filler {
      type: "xavier"
    }
    bias_filler {
      type: "constant"
    }
  }
}
layer {
  name: "relu2_2"
  type: "ReLU"
  bottom: "conv2_2"
  top: "conv2_2"
}
layer {
  name: "pool2"
  type: "Pooling"
  bottom: "conv2_2"
  top: "pool2"
  pooling_param {
    pool: MAX
    kernel_size: 2
    stride: 2
  }
}
layer {
  name: "conv3_1_left"
  type: "Convolution"
  bottom: "pool2"
  top: "conv3_1_left"
  param {
    lr_mult: 1
    decay_mult: 0
  }
  param {
    lr_mult: 2
    decay_mult: 0
  }
  convolution_param {
    num_output: 32
    pad: 0
    kernel_size: 3
    stride: 1
    weight_filler {
      type: "xavier"
    }
    bias_filler {
      type: "constant"
    }
  }
}
layer {
  name: "relu3_1_left"
  type: "ReLU"
  bottom: "conv3_1_left"
  top: "conv3_1_left"
}
layer {
  name: "conv3_2_left"
  type: "Convolution"
  bottom: "conv3_1_left"
  top: "conv3_2_left"
  param {
    lr_mult: 1
    decay_mult: 0
  }
  param {
    lr_mult: 2
    decay_mult: 0
  }
  convolution_param {
    num_output: 64
    pad: 0
    kernel_size: 3
    stride: 1
    weight_filler {
      type: "xavier"
    }
    bias_filler {
      type: "constant"
    }
  }
}
layer {
  name: "relu3_2_left"
  type: "ReLU"
  bottom: "conv3_2_left"
  top: "conv3_2_left"
}
layer {
  name: "pool3_left"
  type: "Pooling"
  bottom: "conv3_2_left"
  top: "pool3_left"
  pooling_param {
    pool: MAX
    kernel_size: 2
    stride: 2
  }
}
layer {
  name: "conv4_1_left"
  type: "Convolution"
  bottom: "pool3_left"
  top: "conv4_1_left"
  param {
    lr_mult: 1
    decay_mult: 0
  }
  param {
    lr_mult: 2
    decay_mult: 0
  }
  convolution_param {
    num_output: 64
    pad: 0
    kernel_size: 3
    stride: 1
    weight_filler {
      type: "xavier"
    }
    bias_filler {
      type: "constant"
    }
  }
}
layer {
  name: "relu4_1_left"
  type: "ReLU"
  bottom: "conv4_1_left"
  top: "conv4_1_left"
}
layer {
  name: "conv4_2_left"
  type: "Convolution"
  bottom: "conv4_1_left"
  top: "conv4_2_left"
  param {
    lr_mult: 1
    decay_mult: 0
  }
  param {
    lr_mult: 2
    decay_mult: 0
  }
  convolution_param {
    num_output: 64
    pad: 0
    kernel_size: 3
    stride: 1
    weight_filler {
      type: "xavier"
    }
    bias_filler {
      type: "constant"
    }
  }
}
layer {
  name: "relu4_2_left"
  type: "ReLU"
  bottom: "conv4_2_left"
  top: "conv4_2_left"
}
layer {
  name: "conv4_3_left"
  type: "Convolution"
  bottom: "conv4_2_left"
  top: "conv4_3_left"
  param {
    lr_mult: 1
    decay_mult: 0
  }
  param {
    lr_mult: 2
    decay_mult: 0
  }
  convolution_param {
    num_output: 128
    pad: 0
    kernel_size: 3
    stride: 1
    weight_filler {
      type: "xavier"
    }
    bias_filler {
      type: "constant"
    }
  }
}
layer {
  name: "relu4_3_left"
  type: "ReLU"
  bottom: "conv4_3_left"
  top: "conv4_3_left"
}
layer {
  name: "conv3_1_right"
  type: "Convolution"
  bottom: "pool2"
  top: "conv3_1_right"
  param {
    lr_mult: 1
    decay_mult: 0
  }
  param {
    lr_mult: 2
    decay_mult: 0
  }
  convolution_param {
    num_output: 32
    pad: 0
    kernel_size: 3
    stride: 1
    weight_filler {
      type: "xavier"
    }
    bias_filler {
      type: "constant"
    }
  }
}
layer {
  name: "relu3_1_right"
  type: "ReLU"
  bottom: "conv3_1_right"
  top: "conv3_1_right"
}
layer {
  name: "conv3_2_right"
  type: "Convolution"
  bottom: "conv3_1_right"
  top: "conv3_2_right"
  param {
    lr_mult: 1
    decay_mult: 0
  }
  param {
    lr_mult: 2
    decay_mult: 0
  }
  convolution_param {
    num_output: 64
    pad: 0
    kernel_size: 3
    stride: 1
    weight_filler {
      type: "xavier"
    }
    bias_filler {
      type: "constant"
    }
  }
}
layer {
  name: "relu3_2_right"
  type: "ReLU"
  bottom: "conv3_2_right"
  top: "conv3_2_right"
}
layer {
  name: "pool3_right"
  type: "Pooling"
  bottom: "conv3_2_right"
  top: "pool3_right"
  pooling_param {
    pool: MAX
    kernel_size: 2
    stride: 2
  }
}
layer {
  name: "conv4_1_right"
  type: "Convolution"
  bottom: "pool3_right"
  top: "conv4_1_right"
  param {
    lr_mult: 1
    decay_mult: 0
  }
  param {
    lr_mult: 2
    decay_mult: 0
  }
  convolution_param {
    num_output: 64
    pad: 0
    kernel_size: 3
    stride: 1
    weight_filler {
      type: "xavier"
    }
    bias_filler {
      type: "constant"
    }
  }
}
layer {
  name: "relu4_1_right"
  type: "ReLU"
  bottom: "conv4_1_right"
  top: "conv4_1_right"
}
layer {
  name: "conv4_2_right"
  type: "Convolution"
  bottom: "conv4_1_right"
  top: "conv4_2_right"
  param {
    lr_mult: 1
    decay_mult: 0
  }
  param {
    lr_mult: 2
    decay_mult: 0
  }
  convolution_param {
    num_output: 64
    pad: 0
    kernel_size: 3
    stride: 1
    weight_filler {
      type: "xavier"
    }
    bias_filler {
      type: "constant"
    }
  }
}
layer {
  name: "relu4_2_right"
  type: "ReLU"
  bottom: "conv4_2_right"
  top: "conv4_2_right"
}
layer {
  name: "conv4_3_right"
  type: "Convolution"
  bottom: "conv4_2_right"
  top: "conv4_3_right"
  param {
    lr_mult: 1
    decay_mult: 0
  }
  param {
    lr_mult: 2
    decay_mult: 0
  }
  convolution_param {
    num_output: 128
    pad: 0
    kernel_size: 3
    stride: 1
    weight_filler {
      type: "xavier"
    }
    bias_filler {
      type: "constant"
    }
  }
}
layer {
  name: "relu4_3_right"
  type: "ReLU"
  bottom: "conv4_3_right"
  top: "conv4_3_right"
}
layer {
  name: "fc1_left"
  type: "InnerProduct"
  bottom: "conv4_3_left"
  top: "fc1_left"
  param {
    lr_mult: 1
    decay_mult: 0
  }
  param {
    lr_mult: 2
    decay_mult: 0
  }
  inner_product_param {
    num_output: 256
    weight_filler {
      type: "xavier"
    }
    bias_filler {
      type: "constant"
    }
  }
}
layer {
  name: "drop1_left"
  type: "Dropout"
  bottom: "fc1_left"
  top: "fc1_left"
  dropout_param {
    dropout_ratio: 0.5
  }
}
layer {
  name: "fc2_left"
  type: "InnerProduct"
  bottom: "fc1_left"
  top: "fc2_left"
  param {
    lr_mult: 1
    decay_mult: 0
  }
  param {
    lr_mult: 2
    decay_mult: 0
  }
  inner_product_param {
    num_output: 2
    weight_filler {
      type: "xavier"
    }
    bias_filler {
      type: "constant"
    }
  }
}
layer {
  name: "loss_left_coordinate"
  type: "EuclideanLoss"
  bottom: "fc2_left"
  bottom: "left_eye"
  top: "loss_left_coordinate"
}
layer {
  name: "fc1_left_confidence"
  type: "InnerProduct"
  bottom: "conv4_3_left"
  top: "fc1_left_confidence"
  param {
    lr_mult: 0.05
    decay_mult: 0
  }
  param {
    lr_mult: 0.2
    decay_mult: 0
  }
  inner_product_param {
    num_output: 256
    weight_filler {
      type: "xavier"
    }
    bias_filler {
      type: "constant"
      value: 0.1
    }
  }
}
layer {
  name: "relu_left1_confidence"
  type: "ReLU"
  bottom: "fc1_left_confidence"
  top: "fc1_left_confidence"
}
layer {
  name: "drop1_left_confidence"
  type: "Dropout"
  bottom: "fc1_left_confidence"
  top: "fc1_left_confidence"
  dropout_param {
    dropout_ratio: 0.5
  }
}
layer {
  name: "fc2_left_confidence"
  type: "InnerProduct"
  bottom: "fc1_left_confidence"
  top: "fc2_left_confidence"
  param {
    lr_mult: 0.05
    decay_mult: 0
  }
  param {
    lr_mult: 0.2
    decay_mult: 0
  }
  inner_product_param {
    num_output: 1
    weight_filler {
      type: "gaussian"
      std: 0.5
    }
    bias_filler {
      type: "constant"
      value: 0.5
    }
  }
}
layer {
  name: "loss_left_confidence"
  type: "EuclideanLoss"
  bottom: "fc2_left_confidence"
  bottom: "visibility_left"
  top: "loss_left_confidence"
}
layer {
  name: "fc1_right"
  type: "InnerProduct"
  bottom: "conv4_3_right"
  top: "fc1_right"
  param {
    lr_mult: 1
    decay_mult: 0
  }
  param {
    lr_mult: 2
    decay_mult: 0
  }
  inner_product_param {
    num_output: 256
    weight_filler {
      type: "xavier"
    }
    bias_filler {
      type: "constant"
    }
  }
}
layer {
  name: "drop1_right"
  type: "Dropout"
  bottom: "fc1_right"
  top: "fc1_right"
  dropout_param {
    dropout_ratio: 0.5
  }
}
layer {
  name: "fc2_right"
  type: "InnerProduct"
  bottom: "fc1_right"
  top: "fc2_right"
  param {
    lr_mult: 1
    decay_mult: 0
  }
  param {
    lr_mult: 2
    decay_mult: 0
  }
  inner_product_param {
    num_output: 2
    weight_filler {
      type: "xavier"
    }
    bias_filler {
      type: "constant"
    }
  }
}
layer {
  name: "loss_right_coordinate"
  type: "EuclideanLoss"
  bottom: "fc2_right"
  bottom: "right_eye"
  top: "loss_right_coordinate"
}
layer {
  name: "fc1_right_confidence"
  type: "InnerProduct"
  bottom: "conv4_3_right"
  top: "fc1_right_confidence"
  param {
    lr_mult: 0.05
    decay_mult: 0
  }
  param {
    lr_mult: 0.2
    decay_mult: 0
  }
  inner_product_param {
    num_output: 256
    weight_filler {
      type: "xavier"
    }
    bias_filler {
      type: "constant"
      value: 0.1
    }
  }
}
layer {
  name: "relu_right1_confidence"
  type: "ReLU"
  bottom: "fc1_right_confidence"
  top: "fc1_right_confidence"
}
layer {
  name: "drop1_right_confidence"
  type: "Dropout"
  bottom: "fc1_right_confidence"
  top: "fc1_right_confidence"
  dropout_param {
    dropout_ratio: 0.5
  }
}
layer {
  name: "fc2_right_confidence"
  type: "InnerProduct"
  bottom: "fc1_right_confidence"
  top: "fc2_right_confidence"
  param {
    lr_mult: 0.05
    decay_mult: 0
  }
  param {
    lr_mult: 0.2
    decay_mult: 0
  }
  inner_product_param {
    num_output: 1
    weight_filler {
      type: "gaussian"
      std: 0.5
    }
    bias_filler {
      type: "constant"
      value: 0.5
    }
  }
}
layer {
  name: "loss_right_confidence"
  type: "EuclideanLoss"
  bottom: "fc2_right_confidence"
  bottom: "visibility_right"
  top: "loss_right_confidence"
}
I1029 13:32:31.006422 13874 layer_factory.hpp:77] Creating layer data
I1029 13:32:31.006433 13874 net.cpp:91] Creating Layer data
I1029 13:32:31.006443 13874 net.cpp:399] data -> data
I1029 13:32:31.006497 13874 net.cpp:399] data -> left_eye
I1029 13:32:31.006520 13874 net.cpp:399] data -> visibility_left
I1029 13:32:31.006525 13874 net.cpp:399] data -> right_eye
I1029 13:32:31.006546 13874 net.cpp:399] data -> visibility_right
I1029 13:32:31.006554 13874 hdf5_data_layer.cpp:79] Loading list of HDF5 filenames from: /home/wzleong/Downloads/nottingham_only_visible/train_scaled_mean_subtracted_own_data_1_multiple_label_data_list.txt
I1029 13:32:31.006624 13874 hdf5_data_layer.cpp:93] Number of HDF5 files: 2
I1029 13:32:31.007424 13874 hdf5.cpp:32] Datatype class: H5T_FLOAT
I1029 13:32:31.424263 13874 net.cpp:141] Setting up data
I1029 13:32:31.424286 13874 net.cpp:148] Top shape: 128 1 200 200 (5120000)
I1029 13:32:31.424290 13874 net.cpp:148] Top shape: 128 2 (256)
I1029 13:32:31.424293 13874 net.cpp:148] Top shape: 128 1 (128)
I1029 13:32:31.424295 13874 net.cpp:148] Top shape: 128 2 (256)
I1029 13:32:31.424299 13874 net.cpp:148] Top shape: 128 1 (128)
I1029 13:32:31.424301 13874 net.cpp:156] Memory required for data: 20483072
I1029 13:32:31.424309 13874 layer_factory.hpp:77] Creating layer conv1
I1029 13:32:31.424327 13874 net.cpp:91] Creating Layer conv1
I1029 13:32:31.424332 13874 net.cpp:425] conv1 <- data
I1029 13:32:31.424342 13874 net.cpp:399] conv1 -> conv1
I1029 13:32:31.425340 13874 net.cpp:141] Setting up conv1
I1029 13:32:31.425350 13874 net.cpp:148] Top shape: 128 16 94 94 (18096128)
I1029 13:32:31.425354 13874 net.cpp:156] Memory required for data: 92867584
I1029 13:32:31.425369 13874 layer_factory.hpp:77] Creating layer relu1
I1029 13:32:31.425375 13874 net.cpp:91] Creating Layer relu1
I1029 13:32:31.425379 13874 net.cpp:425] relu1 <- conv1
I1029 13:32:31.425382 13874 net.cpp:386] relu1 -> conv1 (in-place)
I1029 13:32:31.425389 13874 net.cpp:141] Setting up relu1
I1029 13:32:31.425391 13874 net.cpp:148] Top shape: 128 16 94 94 (18096128)
I1029 13:32:31.425395 13874 net.cpp:156] Memory required for data: 165252096
I1029 13:32:31.425400 13874 layer_factory.hpp:77] Creating layer pool1
I1029 13:32:31.425403 13874 net.cpp:91] Creating Layer pool1
I1029 13:32:31.425407 13874 net.cpp:425] pool1 <- conv1
I1029 13:32:31.425410 13874 net.cpp:399] pool1 -> pool1
I1029 13:32:31.425449 13874 net.cpp:141] Setting up pool1
I1029 13:32:31.425457 13874 net.cpp:148] Top shape: 128 16 47 47 (4524032)
I1029 13:32:31.425459 13874 net.cpp:156] Memory required for data: 183348224
I1029 13:32:31.425462 13874 layer_factory.hpp:77] Creating layer conv2_1
I1029 13:32:31.425470 13874 net.cpp:91] Creating Layer conv2_1
I1029 13:32:31.425473 13874 net.cpp:425] conv2_1 <- pool1
I1029 13:32:31.425478 13874 net.cpp:399] conv2_1 -> conv2_1
I1029 13:32:31.425693 13874 net.cpp:141] Setting up conv2_1
I1029 13:32:31.425700 13874 net.cpp:148] Top shape: 128 16 43 43 (3786752)
I1029 13:32:31.425703 13874 net.cpp:156] Memory required for data: 198495232
I1029 13:32:31.425709 13874 layer_factory.hpp:77] Creating layer relu2_1
I1029 13:32:31.425712 13874 net.cpp:91] Creating Layer relu2_1
I1029 13:32:31.425715 13874 net.cpp:425] relu2_1 <- conv2_1
I1029 13:32:31.425719 13874 net.cpp:386] relu2_1 -> conv2_1 (in-place)
I1029 13:32:31.425722 13874 net.cpp:141] Setting up relu2_1
I1029 13:32:31.425726 13874 net.cpp:148] Top shape: 128 16 43 43 (3786752)
I1029 13:32:31.425729 13874 net.cpp:156] Memory required for data: 213642240
I1029 13:32:31.425730 13874 layer_factory.hpp:77] Creating layer conv2_2
I1029 13:32:31.425736 13874 net.cpp:91] Creating Layer conv2_2
I1029 13:32:31.425739 13874 net.cpp:425] conv2_2 <- conv2_1
I1029 13:32:31.425743 13874 net.cpp:399] conv2_2 -> conv2_2
I1029 13:32:31.425981 13874 net.cpp:141] Setting up conv2_2
I1029 13:32:31.425988 13874 net.cpp:148] Top shape: 128 32 39 39 (6230016)
I1029 13:32:31.425990 13874 net.cpp:156] Memory required for data: 238562304
I1029 13:32:31.425997 13874 layer_factory.hpp:77] Creating layer relu2_2
I1029 13:32:31.426000 13874 net.cpp:91] Creating Layer relu2_2
I1029 13:32:31.426003 13874 net.cpp:425] relu2_2 <- conv2_2
I1029 13:32:31.426019 13874 net.cpp:386] relu2_2 -> conv2_2 (in-place)
I1029 13:32:31.426024 13874 net.cpp:141] Setting up relu2_2
I1029 13:32:31.426028 13874 net.cpp:148] Top shape: 128 32 39 39 (6230016)
I1029 13:32:31.426030 13874 net.cpp:156] Memory required for data: 263482368
I1029 13:32:31.426033 13874 layer_factory.hpp:77] Creating layer pool2
I1029 13:32:31.426038 13874 net.cpp:91] Creating Layer pool2
I1029 13:32:31.426040 13874 net.cpp:425] pool2 <- conv2_2
I1029 13:32:31.426043 13874 net.cpp:399] pool2 -> pool2
I1029 13:32:31.426072 13874 net.cpp:141] Setting up pool2
I1029 13:32:31.426079 13874 net.cpp:148] Top shape: 128 32 20 20 (1638400)
I1029 13:32:31.426080 13874 net.cpp:156] Memory required for data: 270035968
I1029 13:32:31.426082 13874 layer_factory.hpp:77] Creating layer pool2_pool2_0_split
I1029 13:32:31.426086 13874 net.cpp:91] Creating Layer pool2_pool2_0_split
I1029 13:32:31.426090 13874 net.cpp:425] pool2_pool2_0_split <- pool2
I1029 13:32:31.426095 13874 net.cpp:399] pool2_pool2_0_split -> pool2_pool2_0_split_0
I1029 13:32:31.426100 13874 net.cpp:399] pool2_pool2_0_split -> pool2_pool2_0_split_1
I1029 13:32:31.426127 13874 net.cpp:141] Setting up pool2_pool2_0_split
I1029 13:32:31.426132 13874 net.cpp:148] Top shape: 128 32 20 20 (1638400)
I1029 13:32:31.426136 13874 net.cpp:148] Top shape: 128 32 20 20 (1638400)
I1029 13:32:31.426137 13874 net.cpp:156] Memory required for data: 283143168
I1029 13:32:31.426141 13874 layer_factory.hpp:77] Creating layer conv3_1_left
I1029 13:32:31.426147 13874 net.cpp:91] Creating Layer conv3_1_left
I1029 13:32:31.426151 13874 net.cpp:425] conv3_1_left <- pool2_pool2_0_split_0
I1029 13:32:31.426156 13874 net.cpp:399] conv3_1_left -> conv3_1_left
I1029 13:32:31.426750 13874 net.cpp:141] Setting up conv3_1_left
I1029 13:32:31.426759 13874 net.cpp:148] Top shape: 128 32 18 18 (1327104)
I1029 13:32:31.426764 13874 net.cpp:156] Memory required for data: 288451584
I1029 13:32:31.426769 13874 layer_factory.hpp:77] Creating layer relu3_1_left
I1029 13:32:31.426774 13874 net.cpp:91] Creating Layer relu3_1_left
I1029 13:32:31.426777 13874 net.cpp:425] relu3_1_left <- conv3_1_left
I1029 13:32:31.426781 13874 net.cpp:386] relu3_1_left -> conv3_1_left (in-place)
I1029 13:32:31.426787 13874 net.cpp:141] Setting up relu3_1_left
I1029 13:32:31.426791 13874 net.cpp:148] Top shape: 128 32 18 18 (1327104)
I1029 13:32:31.426795 13874 net.cpp:156] Memory required for data: 293760000
I1029 13:32:31.426798 13874 layer_factory.hpp:77] Creating layer conv3_2_left
I1029 13:32:31.426806 13874 net.cpp:91] Creating Layer conv3_2_left
I1029 13:32:31.426810 13874 net.cpp:425] conv3_2_left <- conv3_1_left
I1029 13:32:31.426815 13874 net.cpp:399] conv3_2_left -> conv3_2_left
I1029 13:32:31.427461 13874 net.cpp:141] Setting up conv3_2_left
I1029 13:32:31.427470 13874 net.cpp:148] Top shape: 128 64 16 16 (2097152)
I1029 13:32:31.427474 13874 net.cpp:156] Memory required for data: 302148608
I1029 13:32:31.427481 13874 layer_factory.hpp:77] Creating layer relu3_2_left
I1029 13:32:31.427487 13874 net.cpp:91] Creating Layer relu3_2_left
I1029 13:32:31.427490 13874 net.cpp:425] relu3_2_left <- conv3_2_left
I1029 13:32:31.427495 13874 net.cpp:386] relu3_2_left -> conv3_2_left (in-place)
I1029 13:32:31.427500 13874 net.cpp:141] Setting up relu3_2_left
I1029 13:32:31.427505 13874 net.cpp:148] Top shape: 128 64 16 16 (2097152)
I1029 13:32:31.427507 13874 net.cpp:156] Memory required for data: 310537216
I1029 13:32:31.427510 13874 layer_factory.hpp:77] Creating layer pool3_left
I1029 13:32:31.427515 13874 net.cpp:91] Creating Layer pool3_left
I1029 13:32:31.427518 13874 net.cpp:425] pool3_left <- conv3_2_left
I1029 13:32:31.427522 13874 net.cpp:399] pool3_left -> pool3_left
I1029 13:32:31.427551 13874 net.cpp:141] Setting up pool3_left
I1029 13:32:31.427556 13874 net.cpp:148] Top shape: 128 64 8 8 (524288)
I1029 13:32:31.427559 13874 net.cpp:156] Memory required for data: 312634368
I1029 13:32:31.427562 13874 layer_factory.hpp:77] Creating layer conv4_1_left
I1029 13:32:31.427572 13874 net.cpp:91] Creating Layer conv4_1_left
I1029 13:32:31.427584 13874 net.cpp:425] conv4_1_left <- pool3_left
I1029 13:32:31.427590 13874 net.cpp:399] conv4_1_left -> conv4_1_left
I1029 13:32:31.427964 13874 net.cpp:141] Setting up conv4_1_left
I1029 13:32:31.427970 13874 net.cpp:148] Top shape: 128 64 6 6 (294912)
I1029 13:32:31.427973 13874 net.cpp:156] Memory required for data: 313814016
I1029 13:32:31.427979 13874 layer_factory.hpp:77] Creating layer relu4_1_left
I1029 13:32:31.427985 13874 net.cpp:91] Creating Layer relu4_1_left
I1029 13:32:31.427989 13874 net.cpp:425] relu4_1_left <- conv4_1_left
I1029 13:32:31.427994 13874 net.cpp:386] relu4_1_left -> conv4_1_left (in-place)
I1029 13:32:31.427999 13874 net.cpp:141] Setting up relu4_1_left
I1029 13:32:31.428002 13874 net.cpp:148] Top shape: 128 64 6 6 (294912)
I1029 13:32:31.428005 13874 net.cpp:156] Memory required for data: 314993664
I1029 13:32:31.428007 13874 layer_factory.hpp:77] Creating layer conv4_2_left
I1029 13:32:31.428015 13874 net.cpp:91] Creating Layer conv4_2_left
I1029 13:32:31.428017 13874 net.cpp:425] conv4_2_left <- conv4_1_left
I1029 13:32:31.428022 13874 net.cpp:399] conv4_2_left -> conv4_2_left
I1029 13:32:31.428397 13874 net.cpp:141] Setting up conv4_2_left
I1029 13:32:31.428405 13874 net.cpp:148] Top shape: 128 64 4 4 (131072)
I1029 13:32:31.428407 13874 net.cpp:156] Memory required for data: 315517952
I1029 13:32:31.428413 13874 layer_factory.hpp:77] Creating layer relu4_2_left
I1029 13:32:31.428417 13874 net.cpp:91] Creating Layer relu4_2_left
I1029 13:32:31.428421 13874 net.cpp:425] relu4_2_left <- conv4_2_left
I1029 13:32:31.428426 13874 net.cpp:386] relu4_2_left -> conv4_2_left (in-place)
I1029 13:32:31.428431 13874 net.cpp:141] Setting up relu4_2_left
I1029 13:32:31.428434 13874 net.cpp:148] Top shape: 128 64 4 4 (131072)
I1029 13:32:31.428436 13874 net.cpp:156] Memory required for data: 316042240
I1029 13:32:31.428438 13874 layer_factory.hpp:77] Creating layer conv4_3_left
I1029 13:32:31.428445 13874 net.cpp:91] Creating Layer conv4_3_left
I1029 13:32:31.428449 13874 net.cpp:425] conv4_3_left <- conv4_2_left
I1029 13:32:31.428454 13874 net.cpp:399] conv4_3_left -> conv4_3_left
I1029 13:32:31.429388 13874 net.cpp:141] Setting up conv4_3_left
I1029 13:32:31.429396 13874 net.cpp:148] Top shape: 128 128 2 2 (65536)
I1029 13:32:31.429399 13874 net.cpp:156] Memory required for data: 316304384
I1029 13:32:31.429406 13874 layer_factory.hpp:77] Creating layer relu4_3_left
I1029 13:32:31.429411 13874 net.cpp:91] Creating Layer relu4_3_left
I1029 13:32:31.429414 13874 net.cpp:425] relu4_3_left <- conv4_3_left
I1029 13:32:31.429419 13874 net.cpp:386] relu4_3_left -> conv4_3_left (in-place)
I1029 13:32:31.429425 13874 net.cpp:141] Setting up relu4_3_left
I1029 13:32:31.429428 13874 net.cpp:148] Top shape: 128 128 2 2 (65536)
I1029 13:32:31.429430 13874 net.cpp:156] Memory required for data: 316566528
I1029 13:32:31.429433 13874 layer_factory.hpp:77] Creating layer conv4_3_left_relu4_3_left_0_split
I1029 13:32:31.429438 13874 net.cpp:91] Creating Layer conv4_3_left_relu4_3_left_0_split
I1029 13:32:31.429440 13874 net.cpp:425] conv4_3_left_relu4_3_left_0_split <- conv4_3_left
I1029 13:32:31.429445 13874 net.cpp:399] conv4_3_left_relu4_3_left_0_split -> conv4_3_left_relu4_3_left_0_split_0
I1029 13:32:31.429451 13874 net.cpp:399] conv4_3_left_relu4_3_left_0_split -> conv4_3_left_relu4_3_left_0_split_1
I1029 13:32:31.429479 13874 net.cpp:141] Setting up conv4_3_left_relu4_3_left_0_split
I1029 13:32:31.429484 13874 net.cpp:148] Top shape: 128 128 2 2 (65536)
I1029 13:32:31.429487 13874 net.cpp:148] Top shape: 128 128 2 2 (65536)
I1029 13:32:31.429489 13874 net.cpp:156] Memory required for data: 317090816
I1029 13:32:31.429492 13874 layer_factory.hpp:77] Creating layer conv3_1_right
I1029 13:32:31.429498 13874 net.cpp:91] Creating Layer conv3_1_right
I1029 13:32:31.429502 13874 net.cpp:425] conv3_1_right <- pool2_pool2_0_split_1
I1029 13:32:31.429507 13874 net.cpp:399] conv3_1_right -> conv3_1_right
I1029 13:32:31.429741 13874 net.cpp:141] Setting up conv3_1_right
I1029 13:32:31.429756 13874 net.cpp:148] Top shape: 128 32 18 18 (1327104)
I1029 13:32:31.429759 13874 net.cpp:156] Memory required for data: 322399232
I1029 13:32:31.429766 13874 layer_factory.hpp:77] Creating layer relu3_1_right
I1029 13:32:31.429772 13874 net.cpp:91] Creating Layer relu3_1_right
I1029 13:32:31.429776 13874 net.cpp:425] relu3_1_right <- conv3_1_right
I1029 13:32:31.429780 13874 net.cpp:386] relu3_1_right -> conv3_1_right (in-place)
I1029 13:32:31.429785 13874 net.cpp:141] Setting up relu3_1_right
I1029 13:32:31.429790 13874 net.cpp:148] Top shape: 128 32 18 18 (1327104)
I1029 13:32:31.429791 13874 net.cpp:156] Memory required for data: 327707648
I1029 13:32:31.429795 13874 layer_factory.hpp:77] Creating layer conv3_2_right
I1029 13:32:31.429800 13874 net.cpp:91] Creating Layer conv3_2_right
I1029 13:32:31.429805 13874 net.cpp:425] conv3_2_right <- conv3_1_right
I1029 13:32:31.429810 13874 net.cpp:399] conv3_2_right -> conv3_2_right
I1029 13:32:31.430083 13874 net.cpp:141] Setting up conv3_2_right
I1029 13:32:31.430088 13874 net.cpp:148] Top shape: 128 64 16 16 (2097152)
I1029 13:32:31.430090 13874 net.cpp:156] Memory required for data: 336096256
I1029 13:32:31.430096 13874 layer_factory.hpp:77] Creating layer relu3_2_right
I1029 13:32:31.430101 13874 net.cpp:91] Creating Layer relu3_2_right
I1029 13:32:31.430104 13874 net.cpp:425] relu3_2_right <- conv3_2_right
I1029 13:32:31.430107 13874 net.cpp:386] relu3_2_right -> conv3_2_right (in-place)
I1029 13:32:31.430112 13874 net.cpp:141] Setting up relu3_2_right
I1029 13:32:31.430115 13874 net.cpp:148] Top shape: 128 64 16 16 (2097152)
I1029 13:32:31.430119 13874 net.cpp:156] Memory required for data: 344484864
I1029 13:32:31.430121 13874 layer_factory.hpp:77] Creating layer pool3_right
I1029 13:32:31.430127 13874 net.cpp:91] Creating Layer pool3_right
I1029 13:32:31.430130 13874 net.cpp:425] pool3_right <- conv3_2_right
I1029 13:32:31.430133 13874 net.cpp:399] pool3_right -> pool3_right
I1029 13:32:31.430160 13874 net.cpp:141] Setting up pool3_right
I1029 13:32:31.430164 13874 net.cpp:148] Top shape: 128 64 8 8 (524288)
I1029 13:32:31.430166 13874 net.cpp:156] Memory required for data: 346582016
I1029 13:32:31.430168 13874 layer_factory.hpp:77] Creating layer conv4_1_right
I1029 13:32:31.430176 13874 net.cpp:91] Creating Layer conv4_1_right
I1029 13:32:31.430178 13874 net.cpp:425] conv4_1_right <- pool3_right
I1029 13:32:31.430182 13874 net.cpp:399] conv4_1_right -> conv4_1_right
I1029 13:32:31.430541 13874 net.cpp:141] Setting up conv4_1_right
I1029 13:32:31.430547 13874 net.cpp:148] Top shape: 128 64 6 6 (294912)
I1029 13:32:31.430549 13874 net.cpp:156] Memory required for data: 347761664
I1029 13:32:31.430553 13874 layer_factory.hpp:77] Creating layer relu4_1_right
I1029 13:32:31.430557 13874 net.cpp:91] Creating Layer relu4_1_right
I1029 13:32:31.430562 13874 net.cpp:425] relu4_1_right <- conv4_1_right
I1029 13:32:31.430564 13874 net.cpp:386] relu4_1_right -> conv4_1_right (in-place)
I1029 13:32:31.430569 13874 net.cpp:141] Setting up relu4_1_right
I1029 13:32:31.430573 13874 net.cpp:148] Top shape: 128 64 6 6 (294912)
I1029 13:32:31.430577 13874 net.cpp:156] Memory required for data: 348941312
I1029 13:32:31.430579 13874 layer_factory.hpp:77] Creating layer conv4_2_right
I1029 13:32:31.430585 13874 net.cpp:91] Creating Layer conv4_2_right
I1029 13:32:31.430589 13874 net.cpp:425] conv4_2_right <- conv4_1_right
I1029 13:32:31.430593 13874 net.cpp:399] conv4_2_right -> conv4_2_right
I1029 13:32:31.430948 13874 net.cpp:141] Setting up conv4_2_right
I1029 13:32:31.430953 13874 net.cpp:148] Top shape: 128 64 4 4 (131072)
I1029 13:32:31.430955 13874 net.cpp:156] Memory required for data: 349465600
I1029 13:32:31.430961 13874 layer_factory.hpp:77] Creating layer relu4_2_right
I1029 13:32:31.430966 13874 net.cpp:91] Creating Layer relu4_2_right
I1029 13:32:31.430968 13874 net.cpp:425] relu4_2_right <- conv4_2_right
I1029 13:32:31.430972 13874 net.cpp:386] relu4_2_right -> conv4_2_right (in-place)
I1029 13:32:31.430977 13874 net.cpp:141] Setting up relu4_2_right
I1029 13:32:31.430990 13874 net.cpp:148] Top shape: 128 64 4 4 (131072)
I1029 13:32:31.430992 13874 net.cpp:156] Memory required for data: 349989888
I1029 13:32:31.430995 13874 layer_factory.hpp:77] Creating layer conv4_3_right
I1029 13:32:31.431006 13874 net.cpp:91] Creating Layer conv4_3_right
I1029 13:32:31.431010 13874 net.cpp:425] conv4_3_right <- conv4_2_right
I1029 13:32:31.431015 13874 net.cpp:399] conv4_3_right -> conv4_3_right
I1029 13:32:31.431558 13874 net.cpp:141] Setting up conv4_3_right
I1029 13:32:31.431565 13874 net.cpp:148] Top shape: 128 128 2 2 (65536)
I1029 13:32:31.431567 13874 net.cpp:156] Memory required for data: 350252032
I1029 13:32:31.431571 13874 layer_factory.hpp:77] Creating layer relu4_3_right
I1029 13:32:31.431578 13874 net.cpp:91] Creating Layer relu4_3_right
I1029 13:32:31.431582 13874 net.cpp:425] relu4_3_right <- conv4_3_right
I1029 13:32:31.431586 13874 net.cpp:386] relu4_3_right -> conv4_3_right (in-place)
I1029 13:32:31.431591 13874 net.cpp:141] Setting up relu4_3_right
I1029 13:32:31.431596 13874 net.cpp:148] Top shape: 128 128 2 2 (65536)
I1029 13:32:31.431596 13874 net.cpp:156] Memory required for data: 350514176
I1029 13:32:31.431601 13874 layer_factory.hpp:77] Creating layer conv4_3_right_relu4_3_right_0_split
I1029 13:32:31.431605 13874 net.cpp:91] Creating Layer conv4_3_right_relu4_3_right_0_split
I1029 13:32:31.431607 13874 net.cpp:425] conv4_3_right_relu4_3_right_0_split <- conv4_3_right
I1029 13:32:31.431612 13874 net.cpp:399] conv4_3_right_relu4_3_right_0_split -> conv4_3_right_relu4_3_right_0_split_0
I1029 13:32:31.431619 13874 net.cpp:399] conv4_3_right_relu4_3_right_0_split -> conv4_3_right_relu4_3_right_0_split_1
I1029 13:32:31.431644 13874 net.cpp:141] Setting up conv4_3_right_relu4_3_right_0_split
I1029 13:32:31.431649 13874 net.cpp:148] Top shape: 128 128 2 2 (65536)
I1029 13:32:31.431653 13874 net.cpp:148] Top shape: 128 128 2 2 (65536)
I1029 13:32:31.431655 13874 net.cpp:156] Memory required for data: 351038464
I1029 13:32:31.431658 13874 layer_factory.hpp:77] Creating layer fc1_left
I1029 13:32:31.431663 13874 net.cpp:91] Creating Layer fc1_left
I1029 13:32:31.431668 13874 net.cpp:425] fc1_left <- conv4_3_left_relu4_3_left_0_split_0
I1029 13:32:31.431673 13874 net.cpp:399] fc1_left -> fc1_left
I1029 13:32:31.432803 13874 net.cpp:141] Setting up fc1_left
I1029 13:32:31.432812 13874 net.cpp:148] Top shape: 128 256 (32768)
I1029 13:32:31.432814 13874 net.cpp:156] Memory required for data: 351169536
I1029 13:32:31.432821 13874 layer_factory.hpp:77] Creating layer drop1_left
I1029 13:32:31.432828 13874 net.cpp:91] Creating Layer drop1_left
I1029 13:32:31.432832 13874 net.cpp:425] drop1_left <- fc1_left
I1029 13:32:31.432837 13874 net.cpp:386] drop1_left -> fc1_left (in-place)
I1029 13:32:31.432854 13874 net.cpp:141] Setting up drop1_left
I1029 13:32:31.432858 13874 net.cpp:148] Top shape: 128 256 (32768)
I1029 13:32:31.432860 13874 net.cpp:156] Memory required for data: 351300608
I1029 13:32:31.432863 13874 layer_factory.hpp:77] Creating layer fc2_left
I1029 13:32:31.432869 13874 net.cpp:91] Creating Layer fc2_left
I1029 13:32:31.432873 13874 net.cpp:425] fc2_left <- fc1_left
I1029 13:32:31.432875 13874 net.cpp:399] fc2_left -> fc2_left
I1029 13:32:31.432956 13874 net.cpp:141] Setting up fc2_left
I1029 13:32:31.432962 13874 net.cpp:148] Top shape: 128 2 (256)
I1029 13:32:31.432965 13874 net.cpp:156] Memory required for data: 351301632
I1029 13:32:31.432970 13874 layer_factory.hpp:77] Creating layer loss_left_coordinate
I1029 13:32:31.432974 13874 net.cpp:91] Creating Layer loss_left_coordinate
I1029 13:32:31.432977 13874 net.cpp:425] loss_left_coordinate <- fc2_left
I1029 13:32:31.432981 13874 net.cpp:425] loss_left_coordinate <- left_eye
I1029 13:32:31.432986 13874 net.cpp:399] loss_left_coordinate -> loss_left_coordinate
I1029 13:32:31.433012 13874 net.cpp:141] Setting up loss_left_coordinate
I1029 13:32:31.433017 13874 net.cpp:148] Top shape: (1)
I1029 13:32:31.433019 13874 net.cpp:151]     with loss weight 1
I1029 13:32:31.433034 13874 net.cpp:156] Memory required for data: 351301636
I1029 13:32:31.433046 13874 layer_factory.hpp:77] Creating layer fc1_left_confidence
I1029 13:32:31.433053 13874 net.cpp:91] Creating Layer fc1_left_confidence
I1029 13:32:31.433056 13874 net.cpp:425] fc1_left_confidence <- conv4_3_left_relu4_3_left_0_split_1
I1029 13:32:31.433061 13874 net.cpp:399] fc1_left_confidence -> fc1_left_confidence
I1029 13:32:31.433823 13874 net.cpp:141] Setting up fc1_left_confidence
I1029 13:32:31.433830 13874 net.cpp:148] Top shape: 128 256 (32768)
I1029 13:32:31.433831 13874 net.cpp:156] Memory required for data: 351432708
I1029 13:32:31.433836 13874 layer_factory.hpp:77] Creating layer relu_left1_confidence
I1029 13:32:31.433841 13874 net.cpp:91] Creating Layer relu_left1_confidence
I1029 13:32:31.433845 13874 net.cpp:425] relu_left1_confidence <- fc1_left_confidence
I1029 13:32:31.433848 13874 net.cpp:386] relu_left1_confidence -> fc1_left_confidence (in-place)
I1029 13:32:31.433853 13874 net.cpp:141] Setting up relu_left1_confidence
I1029 13:32:31.433856 13874 net.cpp:148] Top shape: 128 256 (32768)
I1029 13:32:31.433859 13874 net.cpp:156] Memory required for data: 351563780
I1029 13:32:31.433861 13874 layer_factory.hpp:77] Creating layer drop1_left_confidence
I1029 13:32:31.433866 13874 net.cpp:91] Creating Layer drop1_left_confidence
I1029 13:32:31.433867 13874 net.cpp:425] drop1_left_confidence <- fc1_left_confidence
I1029 13:32:31.433871 13874 net.cpp:386] drop1_left_confidence -> fc1_left_confidence (in-place)
I1029 13:32:31.433882 13874 net.cpp:141] Setting up drop1_left_confidence
I1029 13:32:31.433887 13874 net.cpp:148] Top shape: 128 256 (32768)
I1029 13:32:31.433889 13874 net.cpp:156] Memory required for data: 351694852
I1029 13:32:31.433892 13874 layer_factory.hpp:77] Creating layer fc2_left_confidence
I1029 13:32:31.433897 13874 net.cpp:91] Creating Layer fc2_left_confidence
I1029 13:32:31.433898 13874 net.cpp:425] fc2_left_confidence <- fc1_left_confidence
I1029 13:32:31.433902 13874 net.cpp:399] fc2_left_confidence -> fc2_left_confidence
I1029 13:32:31.433984 13874 net.cpp:141] Setting up fc2_left_confidence
I1029 13:32:31.433989 13874 net.cpp:148] Top shape: 128 1 (128)
I1029 13:32:31.433990 13874 net.cpp:156] Memory required for data: 351695364
I1029 13:32:31.433997 13874 layer_factory.hpp:77] Creating layer loss_left_confidence
I1029 13:32:31.434002 13874 net.cpp:91] Creating Layer loss_left_confidence
I1029 13:32:31.434005 13874 net.cpp:425] loss_left_confidence <- fc2_left_confidence
I1029 13:32:31.434010 13874 net.cpp:425] loss_left_confidence <- visibility_left
I1029 13:32:31.434013 13874 net.cpp:399] loss_left_confidence -> loss_left_confidence
I1029 13:32:31.434037 13874 net.cpp:141] Setting up loss_left_confidence
I1029 13:32:31.434041 13874 net.cpp:148] Top shape: (1)
I1029 13:32:31.434043 13874 net.cpp:151]     with loss weight 1
I1029 13:32:31.434048 13874 net.cpp:156] Memory required for data: 351695368
I1029 13:32:31.434051 13874 layer_factory.hpp:77] Creating layer fc1_right
I1029 13:32:31.434056 13874 net.cpp:91] Creating Layer fc1_right
I1029 13:32:31.434058 13874 net.cpp:425] fc1_right <- conv4_3_right_relu4_3_right_0_split_0
I1029 13:32:31.434062 13874 net.cpp:399] fc1_right -> fc1_right
I1029 13:32:31.435183 13874 net.cpp:141] Setting up fc1_right
I1029 13:32:31.435190 13874 net.cpp:148] Top shape: 128 256 (32768)
I1029 13:32:31.435192 13874 net.cpp:156] Memory required for data: 351826440
I1029 13:32:31.435197 13874 layer_factory.hpp:77] Creating layer drop1_right
I1029 13:32:31.435204 13874 net.cpp:91] Creating Layer drop1_right
I1029 13:32:31.435206 13874 net.cpp:425] drop1_right <- fc1_right
I1029 13:32:31.435209 13874 net.cpp:386] drop1_right -> fc1_right (in-place)
I1029 13:32:31.435225 13874 net.cpp:141] Setting up drop1_right
I1029 13:32:31.435230 13874 net.cpp:148] Top shape: 128 256 (32768)
I1029 13:32:31.435231 13874 net.cpp:156] Memory required for data: 351957512
I1029 13:32:31.435233 13874 layer_factory.hpp:77] Creating layer fc2_right
I1029 13:32:31.435237 13874 net.cpp:91] Creating Layer fc2_right
I1029 13:32:31.435250 13874 net.cpp:425] fc2_right <- fc1_right
I1029 13:32:31.435253 13874 net.cpp:399] fc2_right -> fc2_right
I1029 13:32:31.435325 13874 net.cpp:141] Setting up fc2_right
I1029 13:32:31.435330 13874 net.cpp:148] Top shape: 128 2 (256)
I1029 13:32:31.435333 13874 net.cpp:156] Memory required for data: 351958536
I1029 13:32:31.435336 13874 layer_factory.hpp:77] Creating layer loss_right_coordinate
I1029 13:32:31.435340 13874 net.cpp:91] Creating Layer loss_right_coordinate
I1029 13:32:31.435343 13874 net.cpp:425] loss_right_coordinate <- fc2_right
I1029 13:32:31.435346 13874 net.cpp:425] loss_right_coordinate <- right_eye
I1029 13:32:31.435350 13874 net.cpp:399] loss_right_coordinate -> loss_right_coordinate
I1029 13:32:31.435371 13874 net.cpp:141] Setting up loss_right_coordinate
I1029 13:32:31.435375 13874 net.cpp:148] Top shape: (1)
I1029 13:32:31.435379 13874 net.cpp:151]     with loss weight 1
I1029 13:32:31.435382 13874 net.cpp:156] Memory required for data: 351958540
I1029 13:32:31.435384 13874 layer_factory.hpp:77] Creating layer fc1_right_confidence
I1029 13:32:31.435389 13874 net.cpp:91] Creating Layer fc1_right_confidence
I1029 13:32:31.435392 13874 net.cpp:425] fc1_right_confidence <- conv4_3_right_relu4_3_right_0_split_1
I1029 13:32:31.435396 13874 net.cpp:399] fc1_right_confidence -> fc1_right_confidence
I1029 13:32:31.436148 13874 net.cpp:141] Setting up fc1_right_confidence
I1029 13:32:31.436153 13874 net.cpp:148] Top shape: 128 256 (32768)
I1029 13:32:31.436156 13874 net.cpp:156] Memory required for data: 352089612
I1029 13:32:31.436159 13874 layer_factory.hpp:77] Creating layer relu_right1_confidence
I1029 13:32:31.436163 13874 net.cpp:91] Creating Layer relu_right1_confidence
I1029 13:32:31.436166 13874 net.cpp:425] relu_right1_confidence <- fc1_right_confidence
I1029 13:32:31.436169 13874 net.cpp:386] relu_right1_confidence -> fc1_right_confidence (in-place)
I1029 13:32:31.436173 13874 net.cpp:141] Setting up relu_right1_confidence
I1029 13:32:31.436177 13874 net.cpp:148] Top shape: 128 256 (32768)
I1029 13:32:31.436178 13874 net.cpp:156] Memory required for data: 352220684
I1029 13:32:31.436180 13874 layer_factory.hpp:77] Creating layer drop1_right_confidence
I1029 13:32:31.436184 13874 net.cpp:91] Creating Layer drop1_right_confidence
I1029 13:32:31.436187 13874 net.cpp:425] drop1_right_confidence <- fc1_right_confidence
I1029 13:32:31.436192 13874 net.cpp:386] drop1_right_confidence -> fc1_right_confidence (in-place)
I1029 13:32:31.436205 13874 net.cpp:141] Setting up drop1_right_confidence
I1029 13:32:31.436209 13874 net.cpp:148] Top shape: 128 256 (32768)
I1029 13:32:31.436211 13874 net.cpp:156] Memory required for data: 352351756
I1029 13:32:31.436213 13874 layer_factory.hpp:77] Creating layer fc2_right_confidence
I1029 13:32:31.436218 13874 net.cpp:91] Creating Layer fc2_right_confidence
I1029 13:32:31.436220 13874 net.cpp:425] fc2_right_confidence <- fc1_right_confidence
I1029 13:32:31.436225 13874 net.cpp:399] fc2_right_confidence -> fc2_right_confidence
I1029 13:32:31.436295 13874 net.cpp:141] Setting up fc2_right_confidence
I1029 13:32:31.436300 13874 net.cpp:148] Top shape: 128 1 (128)
I1029 13:32:31.436302 13874 net.cpp:156] Memory required for data: 352352268
I1029 13:32:31.436306 13874 layer_factory.hpp:77] Creating layer loss_right_confidence
I1029 13:32:31.436311 13874 net.cpp:91] Creating Layer loss_right_confidence
I1029 13:32:31.436313 13874 net.cpp:425] loss_right_confidence <- fc2_right_confidence
I1029 13:32:31.436316 13874 net.cpp:425] loss_right_confidence <- visibility_right
…
