…
I1029 18:16:05.766368 17085 net.cpp:313] The NetState phase (0) differed from the phase (1) specified by a rule in layer data
I1029 18:16:05.766579 17085 net.cpp:49] Initializing net from parameters: 
name: "FaceNet"
state {
  phase: TRAIN
}
layer {
  name: "data"
  type: "HDF5Data"
  top: "data"
  top: "left_eye"
  top: "visibility_left"
  top: "right_eye"
  top: "visibility_right"
  include {
    phase: TRAIN
  }
  hdf5_data_param {
    source: "/home/wzleong/Downloads/nottingham_only_visible/train_scaled_mean_subtracted_own_data_1_multiple_label_data_list.txt"
    batch_size: 128
    shuffle: true
  }
}
layer {
  name: "conv1"
  type: "Convolution"
  bottom: "data"
  top: "conv1"
  param {
    lr_mult: 0
    decay_mult: 0
  }
  param {
    lr_mult: 0
    decay_mult: 0
  }
  convolution_param {
    num_output: 16
    pad: 0
    kernel_size: 13
    stride: 2
  }
}
layer {
  name: "relu1"
  type: "ReLU"
  bottom: "conv1"
  top: "conv1"
}
layer {
  name: "pool1"
  type: "Pooling"
  bottom: "conv1"
  top: "pool1"
  pooling_param {
    pool: MAX
    kernel_size: 2
    stride: 2
  }
}
layer {
  name: "conv2_1"
  type: "Convolution"
  bottom: "pool1"
  top: "conv2_1"
  param {
    lr_mult: 0
    decay_mult: 0
  }
  param {
    lr_mult: 0
    decay_mult: 0
  }
  convolution_param {
    num_output: 16
    pad: 0
    kernel_size: 5
    stride: 1
  }
}
layer {
  name: "relu2_1"
  type: "ReLU"
  bottom: "conv2_1"
  top: "conv2_1"
}
layer {
  name: "conv2_2"
  type: "Convolution"
  bottom: "conv2_1"
  top: "conv2_2"
  param {
    lr_mult: 0
    decay_mult: 0
  }
  param {
    lr_mult: 0
    decay_mult: 0
  }
  convolution_param {
    num_output: 32
    pad: 0
    kernel_size: 5
    stride: 1
  }
}
layer {
  name: "relu2_2"
  type: "ReLU"
  bottom: "conv2_2"
  top: "conv2_2"
}
layer {
  name: "pool2"
  type: "Pooling"
  bottom: "conv2_2"
  top: "pool2"
  pooling_param {
    pool: MAX
    kernel_size: 2
    stride: 2
  }
}
layer {
  name: "conv3_1_left"
  type: "Convolution"
  bottom: "pool2"
  top: "conv3_1_left"
  param {
    lr_mult: 1
    decay_mult: 0
  }
  param {
    lr_mult: 2
    decay_mult: 0
  }
  convolution_param {
    num_output: 32
    pad: 0
    kernel_size: 3
    stride: 1
  }
}
layer {
  name: "relu3_1_left"
  type: "ReLU"
  bottom: "conv3_1_left"
  top: "conv3_1_left"
}
layer {
  name: "conv3_2_left"
  type: "Convolution"
  bottom: "conv3_1_left"
  top: "conv3_2_left"
  param {
    lr_mult: 1
    decay_mult: 0
  }
  param {
    lr_mult: 2
    decay_mult: 0
  }
  convolution_param {
    num_output: 64
    pad: 0
    kernel_size: 3
    stride: 1
  }
}
layer {
  name: "relu3_2_left"
  type: "ReLU"
  bottom: "conv3_2_left"
  top: "conv3_2_left"
}
layer {
  name: "pool3_left"
  type: "Pooling"
  bottom: "conv3_2_left"
  top: "pool3_left"
  pooling_param {
    pool: MAX
    kernel_size: 2
    stride: 2
  }
}
layer {
  name: "conv4_1_left"
  type: "Convolution"
  bottom: "pool3_left"
  top: "conv4_1_left"
  param {
    lr_mult: 1
    decay_mult: 0
  }
  param {
    lr_mult: 2
    decay_mult: 0
  }
  convolution_param {
    num_output: 64
    pad: 0
    kernel_size: 3
    stride: 1
  }
}
layer {
  name: "relu4_1_left"
  type: "ReLU"
  bottom: "conv4_1_left"
  top: "conv4_1_left"
}
layer {
  name: "conv4_2_left"
  type: "Convolution"
  bottom: "conv4_1_left"
  top: "conv4_2_left"
  param {
    lr_mult: 1
    decay_mult: 0
  }
  param {
    lr_mult: 2
    decay_mult: 0
  }
  convolution_param {
    num_output: 64
    pad: 0
    kernel_size: 3
    stride: 1
  }
}
layer {
  name: "relu4_2_left"
  type: "ReLU"
  bottom: "conv4_2_left"
  top: "conv4_2_left"
}
layer {
  name: "conv4_3_left"
  type: "Convolution"
  bottom: "conv4_2_left"
  top: "conv4_3_left"
  param {
    lr_mult: 1
    decay_mult: 0
  }
  param {
    lr_mult: 2
    decay_mult: 0
  }
  convolution_param {
    num_output: 128
    pad: 0
    kernel_size: 3
    stride: 1
  }
}
layer {
  name: "relu4_3_left"
  type: "ReLU"
  bottom: "conv4_3_left"
  top: "conv4_3_left"
}
layer {
  name: "conv3_1_right"
  type: "Convolution"
  bottom: "pool2"
  top: "conv3_1_right"
  param {
    lr_mult: 1
    decay_mult: 0
  }
  param {
    lr_mult: 2
    decay_mult: 0
  }
  convolution_param {
    num_output: 32
    pad: 0
    kernel_size: 3
    stride: 1
  }
}
layer {
  name: "relu3_1_right"
  type: "ReLU"
  bottom: "conv3_1_right"
  top: "conv3_1_right"
}
layer {
  name: "conv3_2_right"
  type: "Convolution"
  bottom: "conv3_1_right"
  top: "conv3_2_right"
  param {
    lr_mult: 1
    decay_mult: 0
  }
  param {
    lr_mult: 2
    decay_mult: 0
  }
  convolution_param {
    num_output: 64
    pad: 0
    kernel_size: 3
    stride: 1
  }
}
layer {
  name: "relu3_2_right"
  type: "ReLU"
  bottom: "conv3_2_right"
  top: "conv3_2_right"
}
layer {
  name: "pool3_right"
  type: "Pooling"
  bottom: "conv3_2_right"
  top: "pool3_right"
  pooling_param {
    pool: MAX
    kernel_size: 2
    stride: 2
  }
}
layer {
  name: "conv4_1_right"
  type: "Convolution"
  bottom: "pool3_right"
  top: "conv4_1_right"
  param {
    lr_mult: 1
    decay_mult: 0
  }
  param {
    lr_mult: 2
    decay_mult: 0
  }
  convolution_param {
    num_output: 64
    pad: 0
    kernel_size: 3
    stride: 1
  }
}
layer {
  name: "relu4_1_right"
  type: "ReLU"
  bottom: "conv4_1_right"
  top: "conv4_1_right"
}
layer {
  name: "conv4_2_right"
  type: "Convolution"
  bottom: "conv4_1_right"
  top: "conv4_2_right"
  param {
    lr_mult: 1
    decay_mult: 0
  }
  param {
    lr_mult: 2
    decay_mult: 0
  }
  convolution_param {
    num_output: 64
    pad: 0
    kernel_size: 3
    stride: 1
  }
}
layer {
  name: "relu4_2_right"
  type: "ReLU"
  bottom: "conv4_2_right"
  top: "conv4_2_right"
}
layer {
  name: "conv4_3_right"
  type: "Convolution"
  bottom: "conv4_2_right"
  top: "conv4_3_right"
  param {
    lr_mult: 1
    decay_mult: 0
  }
  param {
    lr_mult: 2
    decay_mult: 0
  }
  convolution_param {
    num_output: 128
    pad: 0
    kernel_size: 3
    stride: 1
  }
}
layer {
  name: "relu4_3_right"
  type: "ReLU"
  bottom: "conv4_3_right"
  top: "conv4_3_right"
}
layer {
  name: "fc1_left"
  type: "InnerProduct"
  bottom: "conv4_3_left"
  top: "fc1_left"
  param {
    lr_mult: 1
    decay_mult: 0
  }
  param {
    lr_mult: 2
    decay_mult: 0
  }
  inner_product_param {
    num_output: 256
  }
}
layer {
  name: "drop1_left"
  type: "Dropout"
  bottom: "fc1_left"
  top: "fc1_left"
  dropout_param {
    dropout_ratio: 0.5
  }
}
layer {
  name: "fc2_left"
  type: "InnerProduct"
  bottom: "fc1_left"
  top: "fc2_left"
  param {
    lr_mult: 1
    decay_mult: 0
  }
  param {
    lr_mult: 2
    decay_mult: 0
  }
  inner_product_param {
    num_output: 2
  }
}
layer {
  name: "loss_left_coordinate"
  type: "EuclideanLoss"
  bottom: "fc2_left"
  bottom: "left_eye"
  top: "loss_left_coordinate"
}
layer {
  name: "fc1_left_confidence"
  type: "InnerProduct"
  bottom: "conv4_3_left"
  top: "fc1_left_confidence"
  param {
    lr_mult: 0.05
    decay_mult: 0
  }
  param {
    lr_mult: 0.2
    decay_mult: 0
  }
  inner_product_param {
    num_output: 256
  }
}
layer {
  name: "relu_left1_confidence"
  type: "ReLU"
  bottom: "fc1_left_confidence"
  top: "fc1_left_confidence"
}
layer {
  name: "drop1_left_confidence"
  type: "Dropout"
  bottom: "fc1_left_confidence"
  top: "fc1_left_confidence"
  dropout_param {
    dropout_ratio: 0.5
  }
}
layer {
  name: "fc2_left_confidence"
  type: "InnerProduct"
  bottom: "fc1_left_confidence"
  top: "fc2_left_confidence"
  param {
    lr_mult: 0.05
    decay_mult: 0
  }
  param {
    lr_mult: 0.2
    decay_mult: 0
  }
  inner_product_param {
    num_output: 1
  }
}
layer {
  name: "loss_left_confidence"
  type: "EuclideanLoss"
  bottom: "fc2_left_confidence"
  bottom: "visibility_left"
  top: "loss_left_confidence"
}
layer {
  name: "fc1_right"
  type: "InnerProduct"
  bottom: "conv4_3_right"
  top: "fc1_right"
  param {
    lr_mult: 1
    decay_mult: 0
  }
  param {
    lr_mult: 2
    decay_mult: 0
  }
  inner_product_param {
    num_output: 256
  }
}
layer {
  name: "drop1_right"
  type: "Dropout"
  bottom: "fc1_right"
  top: "fc1_right"
  dropout_param {
    dropout_ratio: 0.5
  }
}
layer {
  name: "fc2_right"
  type: "InnerProduct"
  bottom: "fc1_right"
  top: "fc2_right"
  param {
    lr_mult: 1
    decay_mult: 0
  }
  param {
    lr_mult: 2
    decay_mult: 0
  }
  inner_product_param {
    num_output: 2
  }
}
layer {
  name: "loss_right_coordinate"
  type: "EuclideanLoss"
  bottom: "fc2_right"
  bottom: "right_eye"
  top: "loss_right_coordinate"
}
layer {
  name: "fc1_right_confidence"
  type: "InnerProduct"
  bottom: "conv4_3_right"
  top: "fc1_right_confidence"
  param {
    lr_mult: 0.05
    decay_mult: 0
  }
  param {
    lr_mult: 0.2
    decay_mult: 0
  }
  inner_product_param {
    num_output: 256
  }
}
layer {
  name: "relu_right1_confidence"
  type: "ReLU"
  bottom: "fc1_right_confidence"
  top: "fc1_right_confidence"
}
layer {
  name: "drop1_right_confidence"
  type: "Dropout"
  bottom: "fc1_right_confidence"
  top: "fc1_right_confidence"
  dropout_param {
    dropout_ratio: 0.5
  }
}
layer {
  name: "fc2_right_confidence"
  type: "InnerProduct"
  bottom: "fc1_right_confidence"
  top: "fc2_right_confidence"
  param {
    lr_mult: 0.05
    decay_mult: 0
  }
  param {
    lr_mult: 0.2
    decay_mult: 0
  }
  inner_product_param {
    num_output: 1
  }
}
layer {
  name: "loss_right_confidence"
  type: "EuclideanLoss"
  bottom: "fc2_right_confidence"
  bottom: "visibility_right"
  top: "loss_right_confidence"
}
I1029 18:16:05.766772 17085 layer_factory.hpp:77] Creating layer data
I1029 18:16:05.766783 17085 net.cpp:91] Creating Layer data
I1029 18:16:05.766788 17085 net.cpp:399] data -> data
I1029 18:16:05.766806 17085 net.cpp:399] data -> left_eye
I1029 18:16:05.766813 17085 net.cpp:399] data -> visibility_left
I1029 18:16:05.766818 17085 net.cpp:399] data -> right_eye
I1029 18:16:05.766821 17085 net.cpp:399] data -> visibility_right
I1029 18:16:05.766829 17085 hdf5_data_layer.cpp:79] Loading list of HDF5 filenames from: /home/wzleong/Downloads/nottingham_only_visible/train_scaled_mean_subtracted_own_data_1_multiple_label_data_list.txt
I1029 18:16:05.766849 17085 hdf5_data_layer.cpp:93] Number of HDF5 files: 2
I1029 18:16:05.767604 17085 hdf5.cpp:32] Datatype class: H5T_FLOAT
I1029 18:16:06.186837 17085 net.cpp:141] Setting up data
I1029 18:16:06.186861 17085 net.cpp:148] Top shape: 128 1 200 200 (5120000)
I1029 18:16:06.186866 17085 net.cpp:148] Top shape: 128 2 (256)
I1029 18:16:06.186868 17085 net.cpp:148] Top shape: 128 1 (128)
I1029 18:16:06.186872 17085 net.cpp:148] Top shape: 128 2 (256)
I1029 18:16:06.186875 17085 net.cpp:148] Top shape: 128 1 (128)
I1029 18:16:06.186877 17085 net.cpp:156] Memory required for data: 20483072
I1029 18:16:06.186883 17085 layer_factory.hpp:77] Creating layer conv1
I1029 18:16:06.186898 17085 net.cpp:91] Creating Layer conv1
I1029 18:16:06.186904 17085 net.cpp:425] conv1 <- data
I1029 18:16:06.186913 17085 net.cpp:399] conv1 -> conv1
I1029 18:16:06.187510 17085 net.cpp:141] Setting up conv1
I1029 18:16:06.187520 17085 net.cpp:148] Top shape: 128 16 94 94 (18096128)
I1029 18:16:06.187523 17085 net.cpp:156] Memory required for data: 92867584
I1029 18:16:06.187539 17085 layer_factory.hpp:77] Creating layer relu1
I1029 18:16:06.187544 17085 net.cpp:91] Creating Layer relu1
I1029 18:16:06.187547 17085 net.cpp:425] relu1 <- conv1
I1029 18:16:06.187552 17085 net.cpp:386] relu1 -> conv1 (in-place)
I1029 18:16:06.187558 17085 net.cpp:141] Setting up relu1
I1029 18:16:06.187561 17085 net.cpp:148] Top shape: 128 16 94 94 (18096128)
I1029 18:16:06.187563 17085 net.cpp:156] Memory required for data: 165252096
I1029 18:16:06.187566 17085 layer_factory.hpp:77] Creating layer pool1
I1029 18:16:06.187583 17085 net.cpp:91] Creating Layer pool1
I1029 18:16:06.187587 17085 net.cpp:425] pool1 <- conv1
I1029 18:16:06.187590 17085 net.cpp:399] pool1 -> pool1
I1029 18:16:06.187629 17085 net.cpp:141] Setting up pool1
I1029 18:16:06.187635 17085 net.cpp:148] Top shape: 128 16 47 47 (4524032)
I1029 18:16:06.187638 17085 net.cpp:156] Memory required for data: 183348224
I1029 18:16:06.187639 17085 layer_factory.hpp:77] Creating layer conv2_1
I1029 18:16:06.187646 17085 net.cpp:91] Creating Layer conv2_1
I1029 18:16:06.187649 17085 net.cpp:425] conv2_1 <- pool1
I1029 18:16:06.187652 17085 net.cpp:399] conv2_1 -> conv2_1
I1029 18:16:06.187825 17085 net.cpp:141] Setting up conv2_1
I1029 18:16:06.187832 17085 net.cpp:148] Top shape: 128 16 43 43 (3786752)
I1029 18:16:06.187834 17085 net.cpp:156] Memory required for data: 198495232
I1029 18:16:06.187840 17085 layer_factory.hpp:77] Creating layer relu2_1
I1029 18:16:06.187844 17085 net.cpp:91] Creating Layer relu2_1
I1029 18:16:06.187847 17085 net.cpp:425] relu2_1 <- conv2_1
I1029 18:16:06.187850 17085 net.cpp:386] relu2_1 -> conv2_1 (in-place)
I1029 18:16:06.187855 17085 net.cpp:141] Setting up relu2_1
I1029 18:16:06.187857 17085 net.cpp:148] Top shape: 128 16 43 43 (3786752)
I1029 18:16:06.187860 17085 net.cpp:156] Memory required for data: 213642240
I1029 18:16:06.187862 17085 layer_factory.hpp:77] Creating layer conv2_2
I1029 18:16:06.187867 17085 net.cpp:91] Creating Layer conv2_2
I1029 18:16:06.187870 17085 net.cpp:425] conv2_2 <- conv2_1
I1029 18:16:06.187875 17085 net.cpp:399] conv2_2 -> conv2_2
I1029 18:16:06.188051 17085 net.cpp:141] Setting up conv2_2
I1029 18:16:06.188057 17085 net.cpp:148] Top shape: 128 32 39 39 (6230016)
I1029 18:16:06.188060 17085 net.cpp:156] Memory required for data: 238562304
I1029 18:16:06.188066 17085 layer_factory.hpp:77] Creating layer relu2_2
I1029 18:16:06.188069 17085 net.cpp:91] Creating Layer relu2_2
I1029 18:16:06.188071 17085 net.cpp:425] relu2_2 <- conv2_2
I1029 18:16:06.188076 17085 net.cpp:386] relu2_2 -> conv2_2 (in-place)
I1029 18:16:06.188079 17085 net.cpp:141] Setting up relu2_2
I1029 18:16:06.188083 17085 net.cpp:148] Top shape: 128 32 39 39 (6230016)
I1029 18:16:06.188086 17085 net.cpp:156] Memory required for data: 263482368
I1029 18:16:06.188087 17085 layer_factory.hpp:77] Creating layer pool2
I1029 18:16:06.188091 17085 net.cpp:91] Creating Layer pool2
I1029 18:16:06.188093 17085 net.cpp:425] pool2 <- conv2_2
I1029 18:16:06.188097 17085 net.cpp:399] pool2 -> pool2
I1029 18:16:06.188123 17085 net.cpp:141] Setting up pool2
I1029 18:16:06.188129 17085 net.cpp:148] Top shape: 128 32 20 20 (1638400)
I1029 18:16:06.188132 17085 net.cpp:156] Memory required for data: 270035968
I1029 18:16:06.188133 17085 layer_factory.hpp:77] Creating layer pool2_pool2_0_split
I1029 18:16:06.188138 17085 net.cpp:91] Creating Layer pool2_pool2_0_split
I1029 18:16:06.188140 17085 net.cpp:425] pool2_pool2_0_split <- pool2
I1029 18:16:06.188143 17085 net.cpp:399] pool2_pool2_0_split -> pool2_pool2_0_split_0
I1029 18:16:06.188148 17085 net.cpp:399] pool2_pool2_0_split -> pool2_pool2_0_split_1
I1029 18:16:06.188172 17085 net.cpp:141] Setting up pool2_pool2_0_split
I1029 18:16:06.188179 17085 net.cpp:148] Top shape: 128 32 20 20 (1638400)
I1029 18:16:06.188181 17085 net.cpp:148] Top shape: 128 32 20 20 (1638400)
I1029 18:16:06.188184 17085 net.cpp:156] Memory required for data: 283143168
I1029 18:16:06.188185 17085 layer_factory.hpp:77] Creating layer conv3_1_left
I1029 18:16:06.188191 17085 net.cpp:91] Creating Layer conv3_1_left
I1029 18:16:06.188195 17085 net.cpp:425] conv3_1_left <- pool2_pool2_0_split_0
I1029 18:16:06.188199 17085 net.cpp:399] conv3_1_left -> conv3_1_left
I1029 18:16:06.188725 17085 net.cpp:141] Setting up conv3_1_left
I1029 18:16:06.188735 17085 net.cpp:148] Top shape: 128 32 18 18 (1327104)
I1029 18:16:06.188737 17085 net.cpp:156] Memory required for data: 288451584
I1029 18:16:06.188742 17085 layer_factory.hpp:77] Creating layer relu3_1_left
I1029 18:16:06.188747 17085 net.cpp:91] Creating Layer relu3_1_left
I1029 18:16:06.188758 17085 net.cpp:425] relu3_1_left <- conv3_1_left
I1029 18:16:06.188762 17085 net.cpp:386] relu3_1_left -> conv3_1_left (in-place)
I1029 18:16:06.188767 17085 net.cpp:141] Setting up relu3_1_left
I1029 18:16:06.188771 17085 net.cpp:148] Top shape: 128 32 18 18 (1327104)
I1029 18:16:06.188773 17085 net.cpp:156] Memory required for data: 293760000
I1029 18:16:06.188776 17085 layer_factory.hpp:77] Creating layer conv3_2_left
I1029 18:16:06.188781 17085 net.cpp:91] Creating Layer conv3_2_left
I1029 18:16:06.188783 17085 net.cpp:425] conv3_2_left <- conv3_1_left
I1029 18:16:06.188791 17085 net.cpp:399] conv3_2_left -> conv3_2_left
I1029 18:16:06.189339 17085 net.cpp:141] Setting up conv3_2_left
I1029 18:16:06.189348 17085 net.cpp:148] Top shape: 128 64 16 16 (2097152)
I1029 18:16:06.189350 17085 net.cpp:156] Memory required for data: 302148608
I1029 18:16:06.189358 17085 layer_factory.hpp:77] Creating layer relu3_2_left
I1029 18:16:06.189363 17085 net.cpp:91] Creating Layer relu3_2_left
I1029 18:16:06.189365 17085 net.cpp:425] relu3_2_left <- conv3_2_left
I1029 18:16:06.189369 17085 net.cpp:386] relu3_2_left -> conv3_2_left (in-place)
I1029 18:16:06.189375 17085 net.cpp:141] Setting up relu3_2_left
I1029 18:16:06.189378 17085 net.cpp:148] Top shape: 128 64 16 16 (2097152)
I1029 18:16:06.189380 17085 net.cpp:156] Memory required for data: 310537216
I1029 18:16:06.189383 17085 layer_factory.hpp:77] Creating layer pool3_left
I1029 18:16:06.189386 17085 net.cpp:91] Creating Layer pool3_left
I1029 18:16:06.189390 17085 net.cpp:425] pool3_left <- conv3_2_left
I1029 18:16:06.189394 17085 net.cpp:399] pool3_left -> pool3_left
I1029 18:16:06.189417 17085 net.cpp:141] Setting up pool3_left
I1029 18:16:06.189424 17085 net.cpp:148] Top shape: 128 64 8 8 (524288)
I1029 18:16:06.189425 17085 net.cpp:156] Memory required for data: 312634368
I1029 18:16:06.189429 17085 layer_factory.hpp:77] Creating layer conv4_1_left
I1029 18:16:06.189434 17085 net.cpp:91] Creating Layer conv4_1_left
I1029 18:16:06.189436 17085 net.cpp:425] conv4_1_left <- pool3_left
I1029 18:16:06.189440 17085 net.cpp:399] conv4_1_left -> conv4_1_left
I1029 18:16:06.189635 17085 net.cpp:141] Setting up conv4_1_left
I1029 18:16:06.189641 17085 net.cpp:148] Top shape: 128 64 6 6 (294912)
I1029 18:16:06.189643 17085 net.cpp:156] Memory required for data: 313814016
I1029 18:16:06.189649 17085 layer_factory.hpp:77] Creating layer relu4_1_left
I1029 18:16:06.189654 17085 net.cpp:91] Creating Layer relu4_1_left
I1029 18:16:06.189656 17085 net.cpp:425] relu4_1_left <- conv4_1_left
I1029 18:16:06.189661 17085 net.cpp:386] relu4_1_left -> conv4_1_left (in-place)
I1029 18:16:06.189666 17085 net.cpp:141] Setting up relu4_1_left
I1029 18:16:06.189668 17085 net.cpp:148] Top shape: 128 64 6 6 (294912)
I1029 18:16:06.189671 17085 net.cpp:156] Memory required for data: 314993664
I1029 18:16:06.189672 17085 layer_factory.hpp:77] Creating layer conv4_2_left
I1029 18:16:06.189677 17085 net.cpp:91] Creating Layer conv4_2_left
I1029 18:16:06.189679 17085 net.cpp:425] conv4_2_left <- conv4_1_left
I1029 18:16:06.189683 17085 net.cpp:399] conv4_2_left -> conv4_2_left
I1029 18:16:06.189872 17085 net.cpp:141] Setting up conv4_2_left
I1029 18:16:06.189877 17085 net.cpp:148] Top shape: 128 64 4 4 (131072)
I1029 18:16:06.189880 17085 net.cpp:156] Memory required for data: 315517952
I1029 18:16:06.189884 17085 layer_factory.hpp:77] Creating layer relu4_2_left
I1029 18:16:06.189888 17085 net.cpp:91] Creating Layer relu4_2_left
I1029 18:16:06.189890 17085 net.cpp:425] relu4_2_left <- conv4_2_left
I1029 18:16:06.189894 17085 net.cpp:386] relu4_2_left -> conv4_2_left (in-place)
I1029 18:16:06.189898 17085 net.cpp:141] Setting up relu4_2_left
I1029 18:16:06.189901 17085 net.cpp:148] Top shape: 128 64 4 4 (131072)
I1029 18:16:06.189903 17085 net.cpp:156] Memory required for data: 316042240
I1029 18:16:06.189906 17085 layer_factory.hpp:77] Creating layer conv4_3_left
I1029 18:16:06.189910 17085 net.cpp:91] Creating Layer conv4_3_left
I1029 18:16:06.189924 17085 net.cpp:425] conv4_3_left <- conv4_2_left
I1029 18:16:06.189929 17085 net.cpp:399] conv4_3_left -> conv4_3_left
I1029 18:16:06.190515 17085 net.cpp:141] Setting up conv4_3_left
I1029 18:16:06.190523 17085 net.cpp:148] Top shape: 128 128 2 2 (65536)
I1029 18:16:06.190526 17085 net.cpp:156] Memory required for data: 316304384
I1029 18:16:06.190531 17085 layer_factory.hpp:77] Creating layer relu4_3_left
I1029 18:16:06.190536 17085 net.cpp:91] Creating Layer relu4_3_left
I1029 18:16:06.190538 17085 net.cpp:425] relu4_3_left <- conv4_3_left
I1029 18:16:06.190541 17085 net.cpp:386] relu4_3_left -> conv4_3_left (in-place)
I1029 18:16:06.190546 17085 net.cpp:141] Setting up relu4_3_left
I1029 18:16:06.190551 17085 net.cpp:148] Top shape: 128 128 2 2 (65536)
I1029 18:16:06.190552 17085 net.cpp:156] Memory required for data: 316566528
I1029 18:16:06.190554 17085 layer_factory.hpp:77] Creating layer conv4_3_left_relu4_3_left_0_split
I1029 18:16:06.190557 17085 net.cpp:91] Creating Layer conv4_3_left_relu4_3_left_0_split
I1029 18:16:06.190560 17085 net.cpp:425] conv4_3_left_relu4_3_left_0_split <- conv4_3_left
I1029 18:16:06.190563 17085 net.cpp:399] conv4_3_left_relu4_3_left_0_split -> conv4_3_left_relu4_3_left_0_split_0
I1029 18:16:06.190568 17085 net.cpp:399] conv4_3_left_relu4_3_left_0_split -> conv4_3_left_relu4_3_left_0_split_1
I1029 18:16:06.190595 17085 net.cpp:141] Setting up conv4_3_left_relu4_3_left_0_split
I1029 18:16:06.190601 17085 net.cpp:148] Top shape: 128 128 2 2 (65536)
I1029 18:16:06.190604 17085 net.cpp:148] Top shape: 128 128 2 2 (65536)
I1029 18:16:06.190606 17085 net.cpp:156] Memory required for data: 317090816
I1029 18:16:06.190608 17085 layer_factory.hpp:77] Creating layer conv3_1_right
I1029 18:16:06.190614 17085 net.cpp:91] Creating Layer conv3_1_right
I1029 18:16:06.190618 17085 net.cpp:425] conv3_1_right <- pool2_pool2_0_split_1
I1029 18:16:06.190621 17085 net.cpp:399] conv3_1_right -> conv3_1_right
I1029 18:16:06.190798 17085 net.cpp:141] Setting up conv3_1_right
I1029 18:16:06.190804 17085 net.cpp:148] Top shape: 128 32 18 18 (1327104)
I1029 18:16:06.190806 17085 net.cpp:156] Memory required for data: 322399232
I1029 18:16:06.190814 17085 layer_factory.hpp:77] Creating layer relu3_1_right
I1029 18:16:06.190817 17085 net.cpp:91] Creating Layer relu3_1_right
I1029 18:16:06.190820 17085 net.cpp:425] relu3_1_right <- conv3_1_right
I1029 18:16:06.190824 17085 net.cpp:386] relu3_1_right -> conv3_1_right (in-place)
I1029 18:16:06.190827 17085 net.cpp:141] Setting up relu3_1_right
I1029 18:16:06.190830 17085 net.cpp:148] Top shape: 128 32 18 18 (1327104)
I1029 18:16:06.190834 17085 net.cpp:156] Memory required for data: 327707648
I1029 18:16:06.190835 17085 layer_factory.hpp:77] Creating layer conv3_2_right
I1029 18:16:06.190840 17085 net.cpp:91] Creating Layer conv3_2_right
I1029 18:16:06.190842 17085 net.cpp:425] conv3_2_right <- conv3_1_right
I1029 18:16:06.190846 17085 net.cpp:399] conv3_2_right -> conv3_2_right
I1029 18:16:06.191020 17085 net.cpp:141] Setting up conv3_2_right
I1029 18:16:06.191025 17085 net.cpp:148] Top shape: 128 64 16 16 (2097152)
I1029 18:16:06.191027 17085 net.cpp:156] Memory required for data: 336096256
I1029 18:16:06.191032 17085 layer_factory.hpp:77] Creating layer relu3_2_right
I1029 18:16:06.191035 17085 net.cpp:91] Creating Layer relu3_2_right
I1029 18:16:06.191038 17085 net.cpp:425] relu3_2_right <- conv3_2_right
I1029 18:16:06.191041 17085 net.cpp:386] relu3_2_right -> conv3_2_right (in-place)
I1029 18:16:06.191045 17085 net.cpp:141] Setting up relu3_2_right
I1029 18:16:06.191048 17085 net.cpp:148] Top shape: 128 64 16 16 (2097152)
I1029 18:16:06.191051 17085 net.cpp:156] Memory required for data: 344484864
I1029 18:16:06.191053 17085 layer_factory.hpp:77] Creating layer pool3_right
I1029 18:16:06.191057 17085 net.cpp:91] Creating Layer pool3_right
I1029 18:16:06.191059 17085 net.cpp:425] pool3_right <- conv3_2_right
I1029 18:16:06.191062 17085 net.cpp:399] pool3_right -> pool3_right
I1029 18:16:06.191085 17085 net.cpp:141] Setting up pool3_right
I1029 18:16:06.191099 17085 net.cpp:148] Top shape: 128 64 8 8 (524288)
I1029 18:16:06.191102 17085 net.cpp:156] Memory required for data: 346582016
I1029 18:16:06.191103 17085 layer_factory.hpp:77] Creating layer conv4_1_right
I1029 18:16:06.191108 17085 net.cpp:91] Creating Layer conv4_1_right
I1029 18:16:06.191112 17085 net.cpp:425] conv4_1_right <- pool3_right
I1029 18:16:06.191117 17085 net.cpp:399] conv4_1_right -> conv4_1_right
I1029 18:16:06.191304 17085 net.cpp:141] Setting up conv4_1_right
I1029 18:16:06.191310 17085 net.cpp:148] Top shape: 128 64 6 6 (294912)
I1029 18:16:06.191313 17085 net.cpp:156] Memory required for data: 347761664
I1029 18:16:06.191318 17085 layer_factory.hpp:77] Creating layer relu4_1_right
I1029 18:16:06.191320 17085 net.cpp:91] Creating Layer relu4_1_right
I1029 18:16:06.191323 17085 net.cpp:425] relu4_1_right <- conv4_1_right
I1029 18:16:06.191328 17085 net.cpp:386] relu4_1_right -> conv4_1_right (in-place)
I1029 18:16:06.191331 17085 net.cpp:141] Setting up relu4_1_right
I1029 18:16:06.191334 17085 net.cpp:148] Top shape: 128 64 6 6 (294912)
I1029 18:16:06.191336 17085 net.cpp:156] Memory required for data: 348941312
I1029 18:16:06.191339 17085 layer_factory.hpp:77] Creating layer conv4_2_right
I1029 18:16:06.191344 17085 net.cpp:91] Creating Layer conv4_2_right
I1029 18:16:06.191347 17085 net.cpp:425] conv4_2_right <- conv4_1_right
I1029 18:16:06.191350 17085 net.cpp:399] conv4_2_right -> conv4_2_right
I1029 18:16:06.191539 17085 net.cpp:141] Setting up conv4_2_right
I1029 18:16:06.191543 17085 net.cpp:148] Top shape: 128 64 4 4 (131072)
I1029 18:16:06.191546 17085 net.cpp:156] Memory required for data: 349465600
I1029 18:16:06.191550 17085 layer_factory.hpp:77] Creating layer relu4_2_right
I1029 18:16:06.191555 17085 net.cpp:91] Creating Layer relu4_2_right
I1029 18:16:06.191556 17085 net.cpp:425] relu4_2_right <- conv4_2_right
I1029 18:16:06.191560 17085 net.cpp:386] relu4_2_right -> conv4_2_right (in-place)
I1029 18:16:06.191565 17085 net.cpp:141] Setting up relu4_2_right
I1029 18:16:06.191568 17085 net.cpp:148] Top shape: 128 64 4 4 (131072)
I1029 18:16:06.191570 17085 net.cpp:156] Memory required for data: 349989888
I1029 18:16:06.191572 17085 layer_factory.hpp:77] Creating layer conv4_3_right
I1029 18:16:06.191577 17085 net.cpp:91] Creating Layer conv4_3_right
I1029 18:16:06.191581 17085 net.cpp:425] conv4_3_right <- conv4_2_right
I1029 18:16:06.191586 17085 net.cpp:399] conv4_3_right -> conv4_3_right
I1029 18:16:06.191792 17085 net.cpp:141] Setting up conv4_3_right
I1029 18:16:06.191797 17085 net.cpp:148] Top shape: 128 128 2 2 (65536)
I1029 18:16:06.191799 17085 net.cpp:156] Memory required for data: 350252032
I1029 18:16:06.191803 17085 layer_factory.hpp:77] Creating layer relu4_3_right
I1029 18:16:06.191812 17085 net.cpp:91] Creating Layer relu4_3_right
I1029 18:16:06.191814 17085 net.cpp:425] relu4_3_right <- conv4_3_right
I1029 18:16:06.191818 17085 net.cpp:386] relu4_3_right -> conv4_3_right (in-place)
I1029 18:16:06.191823 17085 net.cpp:141] Setting up relu4_3_right
I1029 18:16:06.191828 17085 net.cpp:148] Top shape: 128 128 2 2 (65536)
I1029 18:16:06.191830 17085 net.cpp:156] Memory required for data: 350514176
I1029 18:16:06.191833 17085 layer_factory.hpp:77] Creating layer conv4_3_right_relu4_3_right_0_split
I1029 18:16:06.191838 17085 net.cpp:91] Creating Layer conv4_3_right_relu4_3_right_0_split
I1029 18:16:06.191841 17085 net.cpp:425] conv4_3_right_relu4_3_right_0_split <- conv4_3_right
I1029 18:16:06.191845 17085 net.cpp:399] conv4_3_right_relu4_3_right_0_split -> conv4_3_right_relu4_3_right_0_split_0
I1029 18:16:06.191851 17085 net.cpp:399] conv4_3_right_relu4_3_right_0_split -> conv4_3_right_relu4_3_right_0_split_1
I1029 18:16:06.191879 17085 net.cpp:141] Setting up conv4_3_right_relu4_3_right_0_split
I1029 18:16:06.191884 17085 net.cpp:148] Top shape: 128 128 2 2 (65536)
I1029 18:16:06.191886 17085 net.cpp:148] Top shape: 128 128 2 2 (65536)
I1029 18:16:06.191889 17085 net.cpp:156] Memory required for data: 351038464
I1029 18:16:06.191891 17085 layer_factory.hpp:77] Creating layer fc1_left
I1029 18:16:06.191906 17085 net.cpp:91] Creating Layer fc1_left
I1029 18:16:06.191910 17085 net.cpp:425] fc1_left <- conv4_3_left_relu4_3_left_0_split_0
I1029 18:16:06.191913 17085 net.cpp:399] fc1_left -> fc1_left
I1029 18:16:06.192446 17085 net.cpp:141] Setting up fc1_left
I1029 18:16:06.192456 17085 net.cpp:148] Top shape: 128 256 (32768)
I1029 18:16:06.192457 17085 net.cpp:156] Memory required for data: 351169536
I1029 18:16:06.192462 17085 layer_factory.hpp:77] Creating layer drop1_left
I1029 18:16:06.192467 17085 net.cpp:91] Creating Layer drop1_left
I1029 18:16:06.192471 17085 net.cpp:425] drop1_left <- fc1_left
I1029 18:16:06.192474 17085 net.cpp:386] drop1_left -> fc1_left (in-place)
I1029 18:16:06.192492 17085 net.cpp:141] Setting up drop1_left
I1029 18:16:06.192497 17085 net.cpp:148] Top shape: 128 256 (32768)
I1029 18:16:06.192499 17085 net.cpp:156] Memory required for data: 351300608
I1029 18:16:06.192502 17085 layer_factory.hpp:77] Creating layer fc2_left
I1029 18:16:06.192505 17085 net.cpp:91] Creating Layer fc2_left
I1029 18:16:06.192508 17085 net.cpp:425] fc2_left <- fc1_left
I1029 18:16:06.192512 17085 net.cpp:399] fc2_left -> fc2_left
I1029 18:16:06.192589 17085 net.cpp:141] Setting up fc2_left
I1029 18:16:06.192594 17085 net.cpp:148] Top shape: 128 2 (256)
I1029 18:16:06.192596 17085 net.cpp:156] Memory required for data: 351301632
I1029 18:16:06.192600 17085 layer_factory.hpp:77] Creating layer loss_left_coordinate
I1029 18:16:06.192605 17085 net.cpp:91] Creating Layer loss_left_coordinate
I1029 18:16:06.192606 17085 net.cpp:425] loss_left_coordinate <- fc2_left
I1029 18:16:06.192610 17085 net.cpp:425] loss_left_coordinate <- left_eye
I1029 18:16:06.192615 17085 net.cpp:399] loss_left_coordinate -> loss_left_coordinate
I1029 18:16:06.192641 17085 net.cpp:141] Setting up loss_left_coordinate
I1029 18:16:06.192646 17085 net.cpp:148] Top shape: (1)
I1029 18:16:06.192648 17085 net.cpp:151]     with loss weight 1
I1029 18:16:06.192662 17085 net.cpp:156] Memory required for data: 351301636
I1029 18:16:06.192664 17085 layer_factory.hpp:77] Creating layer fc1_left_confidence
I1029 18:16:06.192672 17085 net.cpp:91] Creating Layer fc1_left_confidence
I1029 18:16:06.192675 17085 net.cpp:425] fc1_left_confidence <- conv4_3_left_relu4_3_left_0_split_1
I1029 18:16:06.192680 17085 net.cpp:399] fc1_left_confidence -> fc1_left_confidence
I1029 18:16:06.192826 17085 net.cpp:141] Setting up fc1_left_confidence
I1029 18:16:06.192831 17085 net.cpp:148] Top shape: 128 256 (32768)
I1029 18:16:06.192834 17085 net.cpp:156] Memory required for data: 351432708
I1029 18:16:06.192838 17085 layer_factory.hpp:77] Creating layer relu_left1_confidence
I1029 18:16:06.192842 17085 net.cpp:91] Creating Layer relu_left1_confidence
I1029 18:16:06.192844 17085 net.cpp:425] relu_left1_confidence <- fc1_left_confidence
I1029 18:16:06.192849 17085 net.cpp:386] relu_left1_confidence -> fc1_left_confidence (in-place)
I1029 18:16:06.192854 17085 net.cpp:141] Setting up relu_left1_confidence
I1029 18:16:06.192857 17085 net.cpp:148] Top shape: 128 256 (32768)
I1029 18:16:06.192859 17085 net.cpp:156] Memory required for data: 351563780
I1029 18:16:06.192862 17085 layer_factory.hpp:77] Creating layer drop1_left_confidence
I1029 18:16:06.192865 17085 net.cpp:91] Creating Layer drop1_left_confidence
I1029 18:16:06.192868 17085 net.cpp:425] drop1_left_confidence <- fc1_left_confidence
I1029 18:16:06.192873 17085 net.cpp:386] drop1_left_confidence -> fc1_left_confidence (in-place)
I1029 18:16:06.192888 17085 net.cpp:141] Setting up drop1_left_confidence
I1029 18:16:06.192891 17085 net.cpp:148] Top shape: 128 256 (32768)
I1029 18:16:06.192893 17085 net.cpp:156] Memory required for data: 351694852
I1029 18:16:06.192895 17085 layer_factory.hpp:77] Creating layer fc2_left_confidence
I1029 18:16:06.192900 17085 net.cpp:91] Creating Layer fc2_left_confidence
I1029 18:16:06.192903 17085 net.cpp:425] fc2_left_confidence <- fc1_left_confidence
I1029 18:16:06.192908 17085 net.cpp:399] fc2_left_confidence -> fc2_left_confidence
I1029 18:16:06.192988 17085 net.cpp:141] Setting up fc2_left_confidence
I1029 18:16:06.192996 17085 net.cpp:148] Top shape: 128 1 (128)
I1029 18:16:06.192997 17085 net.cpp:156] Memory required for data: 351695364
I1029 18:16:06.193006 17085 layer_factory.hpp:77] Creating layer loss_left_confidence
I1029 18:16:06.193009 17085 net.cpp:91] Creating Layer loss_left_confidence
I1029 18:16:06.193012 17085 net.cpp:425] loss_left_confidence <- fc2_left_confidence
I1029 18:16:06.193017 17085 net.cpp:425] loss_left_confidence <- visibility_left
I1029 18:16:06.193022 17085 net.cpp:399] loss_left_confidence -> loss_left_confidence
I1029 18:16:06.193047 17085 net.cpp:141] Setting up loss_left_confidence
I1029 18:16:06.193051 17085 net.cpp:148] Top shape: (1)
I1029 18:16:06.193053 17085 net.cpp:151]     with loss weight 1
I1029 18:16:06.193059 17085 net.cpp:156] Memory required for data: 351695368
I1029 18:16:06.193061 17085 layer_factory.hpp:77] Creating layer fc1_right
I1029 18:16:06.193068 17085 net.cpp:91] Creating Layer fc1_right
I1029 18:16:06.193070 17085 net.cpp:425] fc1_right <- conv4_3_right_relu4_3_right_0_split_0
I1029 18:16:06.193074 17085 net.cpp:399] fc1_right -> fc1_right
I1029 18:16:06.193593 17085 net.cpp:141] Setting up fc1_right
I1029 18:16:06.193603 17085 net.cpp:148] Top shape: 128 256 (32768)
I1029 18:16:06.193606 17085 net.cpp:156] Memory required for data: 351826440
I1029 18:16:06.193611 17085 layer_factory.hpp:77] Creating layer drop1_right
I1029 18:16:06.193616 17085 net.cpp:91] Creating Layer drop1_right
I1029 18:16:06.193620 17085 net.cpp:425] drop1_right <- fc1_right
I1029 18:16:06.193629 17085 net.cpp:386] drop1_right -> fc1_right (in-place)
I1029 18:16:06.193645 17085 net.cpp:141] Setting up drop1_right
I1029 18:16:06.193647 17085 net.cpp:148] Top shape: 128 256 (32768)
I1029 18:16:06.193650 17085 net.cpp:156] Memory required for data: 351957512
I1029 18:16:06.193652 17085 layer_factory.hpp:77] Creating layer fc2_right
I1029 18:16:06.193657 17085 net.cpp:91] Creating Layer fc2_right
I1029 18:16:06.193661 17085 net.cpp:425] fc2_right <- fc1_right
I1029 18:16:06.193666 17085 net.cpp:399] fc2_right -> fc2_right
I1029 18:16:06.193737 17085 net.cpp:141] Setting up fc2_right
I1029 18:16:06.193742 17085 net.cpp:148] Top shape: 128 2 (256)
I1029 18:16:06.193744 17085 net.cpp:156] Memory required for data: 351958536
I1029 18:16:06.193749 17085 layer_factory.hpp:77] Creating layer loss_right_coordinate
I1029 18:16:06.193754 17085 net.cpp:91] Creating Layer loss_right_coordinate
I1029 18:16:06.193756 17085 net.cpp:425] loss_right_coordinate <- fc2_right
I1029 18:16:06.193759 17085 net.cpp:425] loss_right_coordinate <- right_eye
I1029 18:16:06.193765 17085 net.cpp:399] loss_right_coordinate -> loss_right_coordinate
I1029 18:16:06.193790 17085 net.cpp:141] Setting up loss_right_coordinate
I1029 18:16:06.193794 17085 net.cpp:148] Top shape: (1)
I1029 18:16:06.193796 17085 net.cpp:151]     with loss weight 1
I1029 18:16:06.193802 17085 net.cpp:156] Memory required for data: 351958540
I1029 18:16:06.193804 17085 layer_factory.hpp:77] Creating layer fc1_right_confidence
I1029 18:16:06.193809 17085 net.cpp:91] Creating Layer fc1_right_confidence
I1029 18:16:06.193810 17085 net.cpp:425] fc1_right_confidence <- conv4_3_right_relu4_3_right_0_split_1
I1029 18:16:06.193816 17085 net.cpp:399] fc1_right_confidence -> fc1_right_confidence
I1029 18:16:06.193971 17085 net.cpp:141] Setting up fc1_right_confidence
I1029 18:16:06.193976 17085 net.cpp:148] Top shape: 128 256 (32768)
I1029 18:16:06.193979 17085 net.cpp:156] Memory required for data: 352089612
I1029 18:16:06.193984 17085 layer_factory.hpp:77] Creating layer relu_right1_confidence
I1029 18:16:06.193989 17085 net.cpp:91] Creating Layer relu_right1_confidence
I1029 18:16:06.193991 17085 net.cpp:425] relu_right1_confidence <- fc1_right_confidence
I1029 18:16:06.193994 17085 net.cpp:386] relu_right1_confidence -> fc1_right_confidence (in-place)
I1029 18:16:06.194000 17085 net.cpp:141] Setting up relu_right1_confidence
I1029 18:16:06.194002 17085 net.cpp:148] Top shape: 128 256 (32768)
I1029 18:16:06.194013 17085 net.cpp:156] Memory required for data: 352220684
I1029 18:16:06.194016 17085 layer_factory.hpp:77] Creating layer drop1_right_confidence
I1029 18:16:06.194022 17085 net.cpp:91] Creating Layer drop1_right_confidence
I1029 18:16:06.194025 17085 net.cpp:425] drop1_right_confidence <- fc1_right_confidence
I1029 18:16:06.194028 17085 net.cpp:386] drop1_right_confidence -> fc1_right_confidence (in-place)
I1029 18:16:06.194041 17085 net.cpp:141] Setting up drop1_right_confidence
I1029 18:16:06.194046 17085 net.cpp:148] Top shape: 128 256 (32768)
I1029 18:16:06.194047 17085 net.cpp:156] Memory required for data: 352351756
I1029 18:16:06.194049 17085 layer_factory.hpp:77] Creating layer fc2_right_confidence
I1029 18:16:06.194054 17085 net.cpp:91] Creating Layer fc2_right_confidence
I1029 18:16:06.194057 17085 net.cpp:425] fc2_right_confidence <- fc1_right_confidence
I1029 18:16:06.194062 17085 net.cpp:399] fc2_right_confidence -> fc2_right_confidence
I1029 18:16:06.194128 17085 net.cpp:141] Setting up fc2_right_confidence
I1029 18:16:06.194133 17085 net.cpp:148] Top shape: 128 1 (128)
I1029 18:16:06.194135 17085 net.cpp:156] Memory required for data: 352352268
I1029 18:16:06.194140 17085 layer_factory.hpp:77] Creating layer loss_right_confidence
I1029 18:16:06.194144 17085 net.cpp:91] Creating Layer loss_right_confidence
I1029 18:16:06.194145 17085 net.cpp:425] loss_right_confidence <- fc2_right_confidence
I1029 18:16:06.194149 17085 net.cpp:425] loss_right_confidence <- visibility_right
…
