…
I1101 20:56:11.458585  7089 net.cpp:313] The NetState phase (0) differed from the phase (1) specified by a rule in layer data
I1101 20:56:11.458895  7089 net.cpp:49] Initializing net from parameters: 
name: "FaceNet"
state {
  phase: TRAIN
}
layer {
  name: "data"
  type: "HDF5Data"
  top: "data"
  top: "visibility_left"
  top: "visibility_right"
  include {
    phase: TRAIN
  }
  hdf5_data_param {
    source: "/home/wzleong/Downloads/nottingham_with_scaling/train_scaled_mean_subtracted_own_data_male_multiple_label_data_list.txt"
    batch_size: 128
    shuffle: true
  }
}
layer {
  name: "conv1"
  type: "Convolution"
  bottom: "data"
  top: "conv1"
  param {
    lr_mult: 1
    decay_mult: 1
  }
  param {
    lr_mult: 2
    decay_mult: 0
  }
  convolution_param {
    num_output: 16
    pad: 0
    kernel_size: 13
    stride: 2
    weight_filler {
      type: "xavier"
    }
    bias_filler {
      type: "constant"
    }
  }
}
layer {
  name: "relu1"
  type: "ReLU"
  bottom: "conv1"
  top: "conv1"
}
layer {
  name: "pool1"
  type: "Pooling"
  bottom: "conv1"
  top: "pool1"
  pooling_param {
    pool: MAX
    kernel_size: 2
    stride: 2
  }
}
layer {
  name: "conv2_1"
  type: "Convolution"
  bottom: "pool1"
  top: "conv2_1"
  param {
    lr_mult: 1
    decay_mult: 1
  }
  param {
    lr_mult: 2
    decay_mult: 0
  }
  convolution_param {
    num_output: 16
    pad: 0
    kernel_size: 5
    stride: 1
    weight_filler {
      type: "xavier"
    }
    bias_filler {
      type: "constant"
    }
  }
}
layer {
  name: "relu2_1"
  type: "ReLU"
  bottom: "conv2_1"
  top: "conv2_1"
}
layer {
  name: "conv2_2"
  type: "Convolution"
  bottom: "conv2_1"
  top: "conv2_2"
  param {
    lr_mult: 1
    decay_mult: 1
  }
  param {
    lr_mult: 2
    decay_mult: 0
  }
  convolution_param {
    num_output: 32
    pad: 0
    kernel_size: 5
    stride: 1
    weight_filler {
      type: "xavier"
    }
    bias_filler {
      type: "constant"
    }
  }
}
layer {
  name: "relu2_2"
  type: "ReLU"
  bottom: "conv2_2"
  top: "conv2_2"
}
layer {
  name: "pool2"
  type: "Pooling"
  bottom: "conv2_2"
  top: "pool2"
  pooling_param {
    pool: MAX
    kernel_size: 2
    stride: 2
  }
}
layer {
  name: "conv3_1"
  type: "Convolution"
  bottom: "pool2"
  top: "conv3_1"
  param {
    lr_mult: 1
    decay_mult: 1
  }
  param {
    lr_mult: 2
    decay_mult: 0
  }
  convolution_param {
    num_output: 32
    pad: 0
    kernel_size: 3
    stride: 1
    weight_filler {
      type: "xavier"
    }
    bias_filler {
      type: "constant"
    }
  }
}
layer {
  name: "relu3_1"
  type: "ReLU"
  bottom: "conv3_1"
  top: "conv3_1"
}
layer {
  name: "conv3_2"
  type: "Convolution"
  bottom: "conv3_1"
  top: "conv3_2"
  param {
    lr_mult: 1
    decay_mult: 1
  }
  param {
    lr_mult: 2
    decay_mult: 0
  }
  convolution_param {
    num_output: 64
    pad: 0
    kernel_size: 3
    stride: 1
    weight_filler {
      type: "xavier"
    }
    bias_filler {
      type: "constant"
    }
  }
}
layer {
  name: "relu3_2"
  type: "ReLU"
  bottom: "conv3_2"
  top: "conv3_2"
}
layer {
  name: "pool3"
  type: "Pooling"
  bottom: "conv3_2"
  top: "pool3"
  pooling_param {
    pool: MAX
    kernel_size: 2
    stride: 2
  }
}
layer {
  name: "conv4_1"
  type: "Convolution"
  bottom: "pool3"
  top: "conv4_1"
  param {
    lr_mult: 1
    decay_mult: 1
  }
  param {
    lr_mult: 2
    decay_mult: 0
  }
  convolution_param {
    num_output: 64
    pad: 0
    kernel_size: 3
    stride: 1
    weight_filler {
      type: "xavier"
    }
    bias_filler {
      type: "constant"
    }
  }
}
layer {
  name: "relu4_1"
  type: "ReLU"
  bottom: "conv4_1"
  top: "conv4_1"
}
layer {
  name: "conv4_2"
  type: "Convolution"
  bottom: "conv4_1"
  top: "conv4_2"
  param {
    lr_mult: 1
    decay_mult: 1
  }
  param {
    lr_mult: 2
    decay_mult: 0
  }
  convolution_param {
    num_output: 64
    pad: 0
    kernel_size: 3
    stride: 1
    weight_filler {
      type: "xavier"
    }
    bias_filler {
      type: "constant"
    }
  }
}
layer {
  name: "relu4_2"
  type: "ReLU"
  bottom: "conv4_2"
  top: "conv4_2"
}
layer {
  name: "conv4_3"
  type: "Convolution"
  bottom: "conv4_2"
  top: "conv4_3"
  param {
    lr_mult: 1
    decay_mult: 1
  }
  param {
    lr_mult: 2
    decay_mult: 0
  }
  convolution_param {
    num_output: 128
    pad: 0
    kernel_size: 3
    stride: 1
    weight_filler {
      type: "xavier"
    }
    bias_filler {
      type: "constant"
    }
  }
}
layer {
  name: "relu4_3"
  type: "ReLU"
  bottom: "conv4_3"
  top: "conv4_3"
}
layer {
  name: "fc1_left_confidence"
  type: "InnerProduct"
  bottom: "conv4_3"
  top: "fc1_left_confidence"
  param {
    lr_mult: 1
    decay_mult: 1
  }
  param {
    lr_mult: 2
    decay_mult: 0
  }
  inner_product_param {
    num_output: 128
    weight_filler {
      type: "xavier"
    }
    bias_filler {
      type: "constant"
      value: 0.1
    }
  }
}
layer {
  name: "relu_left_confidence"
  type: "ReLU"
  bottom: "fc1_left_confidence"
  top: "fc1_left_confidence"
}
layer {
  name: "drop1_left_confidence"
  type: "Dropout"
  bottom: "fc1_left_confidence"
  top: "fc1_left_confidence"
  dropout_param {
    dropout_ratio: 0.5
  }
}
layer {
  name: "fc2_left_confidence"
  type: "InnerProduct"
  bottom: "fc1_left_confidence"
  top: "fc2_left_confidence"
  param {
    lr_mult: 1
    decay_mult: 1
  }
  param {
    lr_mult: 2
    decay_mult: 0
  }
  inner_product_param {
    num_output: 1
    weight_filler {
      type: "gaussian"
      std: 0.5
    }
    bias_filler {
      type: "constant"
      value: 0.5
    }
  }
}
layer {
  name: "loss_left_confidence"
  type: "EuclideanLoss"
  bottom: "fc2_left_confidence"
  bottom: "visibility_left"
  top: "loss_left_confidence"
}
layer {
  name: "fc1_right_confidence"
  type: "InnerProduct"
  bottom: "conv4_3"
  top: "fc1_right_confidence"
  param {
    lr_mult: 1
    decay_mult: 1
  }
  param {
    lr_mult: 2
    decay_mult: 0
  }
  inner_product_param {
    num_output: 128
    weight_filler {
      type: "xavier"
    }
    bias_filler {
      type: "constant"
      value: 0.1
    }
  }
}
layer {
  name: "relu_right_confidence"
  type: "ReLU"
  bottom: "fc1_right_confidence"
  top: "fc1_right_confidence"
}
layer {
  name: "drop1_right_confidence"
  type: "Dropout"
  bottom: "fc1_right_confidence"
  top: "fc1_right_confidence"
  dropout_param {
    dropout_ratio: 0.5
  }
}
layer {
  name: "fc2_right_confidence"
  type: "InnerProduct"
  bottom: "fc1_right_confidence"
  top: "fc2_right_confidence"
  param {
    lr_mult: 1
    decay_mult: 1
  }
  param {
    lr_mult: 2
    decay_mult: 0
  }
  inner_product_param {
    num_output: 1
    weight_filler {
      type: "gaussian"
      std: 0.5
    }
    bias_filler {
      type: "constant"
      value: 0.5
    }
  }
}
layer {
  name: "loss_right_confidence"
  type: "EuclideanLoss"
  bottom: "fc2_right_confidence"
  bottom: "visibility_right"
  top: "loss_right_confidence"
}
I1101 20:56:11.459079  7089 layer_factory.hpp:77] Creating layer data
I1101 20:56:11.459095  7089 net.cpp:91] Creating Layer data
I1101 20:56:11.459100  7089 net.cpp:399] data -> data
I1101 20:56:11.459144  7089 net.cpp:399] data -> visibility_left
I1101 20:56:11.459153  7089 net.cpp:399] data -> visibility_right
I1101 20:56:11.459182  7089 hdf5_data_layer.cpp:79] Loading list of HDF5 filenames from: /home/wzleong/Downloads/nottingham_with_scaling/train_scaled_mean_subtracted_own_data_male_multiple_label_data_list.txt
I1101 20:56:11.459313  7089 hdf5_data_layer.cpp:93] Number of HDF5 files: 8
I1101 20:56:11.462281  7089 hdf5.cpp:32] Datatype class: H5T_FLOAT
I1101 20:56:11.683223  7089 net.cpp:141] Setting up data
I1101 20:56:11.683248  7089 net.cpp:148] Top shape: 128 1 200 200 (5120000)
I1101 20:56:11.683253  7089 net.cpp:148] Top shape: 128 1 (128)
I1101 20:56:11.683256  7089 net.cpp:148] Top shape: 128 1 (128)
I1101 20:56:11.683259  7089 net.cpp:156] Memory required for data: 20481024
I1101 20:56:11.683265  7089 layer_factory.hpp:77] Creating layer conv1
I1101 20:56:11.683284  7089 net.cpp:91] Creating Layer conv1
I1101 20:56:11.683290  7089 net.cpp:425] conv1 <- data
I1101 20:56:11.683307  7089 net.cpp:399] conv1 -> conv1
I1101 20:56:11.684823  7089 net.cpp:141] Setting up conv1
I1101 20:56:11.684835  7089 net.cpp:148] Top shape: 128 16 94 94 (18096128)
I1101 20:56:11.684840  7089 net.cpp:156] Memory required for data: 92865536
I1101 20:56:11.684864  7089 layer_factory.hpp:77] Creating layer relu1
I1101 20:56:11.684875  7089 net.cpp:91] Creating Layer relu1
I1101 20:56:11.684880  7089 net.cpp:425] relu1 <- conv1
I1101 20:56:11.684887  7089 net.cpp:386] relu1 -> conv1 (in-place)
I1101 20:56:11.684896  7089 net.cpp:141] Setting up relu1
I1101 20:56:11.684921  7089 net.cpp:148] Top shape: 128 16 94 94 (18096128)
I1101 20:56:11.684943  7089 net.cpp:156] Memory required for data: 165250048
I1101 20:56:11.684952  7089 layer_factory.hpp:77] Creating layer pool1
I1101 20:56:11.684960  7089 net.cpp:91] Creating Layer pool1
I1101 20:56:11.684967  7089 net.cpp:425] pool1 <- conv1
I1101 20:56:11.684973  7089 net.cpp:399] pool1 -> pool1
I1101 20:56:11.685032  7089 net.cpp:141] Setting up pool1
I1101 20:56:11.685040  7089 net.cpp:148] Top shape: 128 16 47 47 (4524032)
I1101 20:56:11.685044  7089 net.cpp:156] Memory required for data: 183346176
I1101 20:56:11.685047  7089 layer_factory.hpp:77] Creating layer conv2_1
I1101 20:56:11.685060  7089 net.cpp:91] Creating Layer conv2_1
I1101 20:56:11.685065  7089 net.cpp:425] conv2_1 <- pool1
I1101 20:56:11.685071  7089 net.cpp:399] conv2_1 -> conv2_1
I1101 20:56:11.685292  7089 net.cpp:141] Setting up conv2_1
I1101 20:56:11.685300  7089 net.cpp:148] Top shape: 128 16 43 43 (3786752)
I1101 20:56:11.685303  7089 net.cpp:156] Memory required for data: 198493184
I1101 20:56:11.685314  7089 layer_factory.hpp:77] Creating layer relu2_1
I1101 20:56:11.685320  7089 net.cpp:91] Creating Layer relu2_1
I1101 20:56:11.685326  7089 net.cpp:425] relu2_1 <- conv2_1
I1101 20:56:11.685333  7089 net.cpp:386] relu2_1 -> conv2_1 (in-place)
I1101 20:56:11.685340  7089 net.cpp:141] Setting up relu2_1
I1101 20:56:11.685346  7089 net.cpp:148] Top shape: 128 16 43 43 (3786752)
I1101 20:56:11.685351  7089 net.cpp:156] Memory required for data: 213640192
I1101 20:56:11.685355  7089 layer_factory.hpp:77] Creating layer conv2_2
I1101 20:56:11.685364  7089 net.cpp:91] Creating Layer conv2_2
I1101 20:56:11.685369  7089 net.cpp:425] conv2_2 <- conv2_1
I1101 20:56:11.685377  7089 net.cpp:399] conv2_2 -> conv2_2
I1101 20:56:11.685636  7089 net.cpp:141] Setting up conv2_2
I1101 20:56:11.685644  7089 net.cpp:148] Top shape: 128 32 39 39 (6230016)
I1101 20:56:11.685648  7089 net.cpp:156] Memory required for data: 238560256
I1101 20:56:11.685659  7089 layer_factory.hpp:77] Creating layer relu2_2
I1101 20:56:11.685667  7089 net.cpp:91] Creating Layer relu2_2
I1101 20:56:11.685670  7089 net.cpp:425] relu2_2 <- conv2_2
I1101 20:56:11.685675  7089 net.cpp:386] relu2_2 -> conv2_2 (in-place)
I1101 20:56:11.685685  7089 net.cpp:141] Setting up relu2_2
I1101 20:56:11.685691  7089 net.cpp:148] Top shape: 128 32 39 39 (6230016)
I1101 20:56:11.685695  7089 net.cpp:156] Memory required for data: 263480320
I1101 20:56:11.685699  7089 layer_factory.hpp:77] Creating layer pool2
I1101 20:56:11.685708  7089 net.cpp:91] Creating Layer pool2
I1101 20:56:11.685711  7089 net.cpp:425] pool2 <- conv2_2
I1101 20:56:11.685716  7089 net.cpp:399] pool2 -> pool2
I1101 20:56:11.685747  7089 net.cpp:141] Setting up pool2
I1101 20:56:11.685755  7089 net.cpp:148] Top shape: 128 32 20 20 (1638400)
I1101 20:56:11.685758  7089 net.cpp:156] Memory required for data: 270033920
I1101 20:56:11.685762  7089 layer_factory.hpp:77] Creating layer conv3_1
I1101 20:56:11.685786  7089 net.cpp:91] Creating Layer conv3_1
I1101 20:56:11.685792  7089 net.cpp:425] conv3_1 <- pool2
I1101 20:56:11.685799  7089 net.cpp:399] conv3_1 -> conv3_1
I1101 20:56:11.686449  7089 net.cpp:141] Setting up conv3_1
I1101 20:56:11.686460  7089 net.cpp:148] Top shape: 128 32 18 18 (1327104)
I1101 20:56:11.686465  7089 net.cpp:156] Memory required for data: 275342336
I1101 20:56:11.686475  7089 layer_factory.hpp:77] Creating layer relu3_1
I1101 20:56:11.686481  7089 net.cpp:91] Creating Layer relu3_1
I1101 20:56:11.686487  7089 net.cpp:425] relu3_1 <- conv3_1
I1101 20:56:11.686493  7089 net.cpp:386] relu3_1 -> conv3_1 (in-place)
I1101 20:56:11.686502  7089 net.cpp:141] Setting up relu3_1
I1101 20:56:11.686508  7089 net.cpp:148] Top shape: 128 32 18 18 (1327104)
I1101 20:56:11.686512  7089 net.cpp:156] Memory required for data: 280650752
I1101 20:56:11.686516  7089 layer_factory.hpp:77] Creating layer conv3_2
I1101 20:56:11.686527  7089 net.cpp:91] Creating Layer conv3_2
I1101 20:56:11.686530  7089 net.cpp:425] conv3_2 <- conv3_1
I1101 20:56:11.686537  7089 net.cpp:399] conv3_2 -> conv3_2
I1101 20:56:11.687213  7089 net.cpp:141] Setting up conv3_2
I1101 20:56:11.687224  7089 net.cpp:148] Top shape: 128 64 16 16 (2097152)
I1101 20:56:11.687228  7089 net.cpp:156] Memory required for data: 289039360
I1101 20:56:11.687239  7089 layer_factory.hpp:77] Creating layer relu3_2
I1101 20:56:11.687247  7089 net.cpp:91] Creating Layer relu3_2
I1101 20:56:11.687252  7089 net.cpp:425] relu3_2 <- conv3_2
I1101 20:56:11.687258  7089 net.cpp:386] relu3_2 -> conv3_2 (in-place)
I1101 20:56:11.687265  7089 net.cpp:141] Setting up relu3_2
I1101 20:56:11.687271  7089 net.cpp:148] Top shape: 128 64 16 16 (2097152)
I1101 20:56:11.687278  7089 net.cpp:156] Memory required for data: 297427968
I1101 20:56:11.687281  7089 layer_factory.hpp:77] Creating layer pool3
I1101 20:56:11.687288  7089 net.cpp:91] Creating Layer pool3
I1101 20:56:11.687291  7089 net.cpp:425] pool3 <- conv3_2
I1101 20:56:11.687297  7089 net.cpp:399] pool3 -> pool3
I1101 20:56:11.687328  7089 net.cpp:141] Setting up pool3
I1101 20:56:11.687335  7089 net.cpp:148] Top shape: 128 64 8 8 (524288)
I1101 20:56:11.687338  7089 net.cpp:156] Memory required for data: 299525120
I1101 20:56:11.687343  7089 layer_factory.hpp:77] Creating layer conv4_1
I1101 20:56:11.687353  7089 net.cpp:91] Creating Layer conv4_1
I1101 20:56:11.687357  7089 net.cpp:425] conv4_1 <- pool3
I1101 20:56:11.687363  7089 net.cpp:399] conv4_1 -> conv4_1
I1101 20:56:11.687755  7089 net.cpp:141] Setting up conv4_1
I1101 20:56:11.687763  7089 net.cpp:148] Top shape: 128 64 6 6 (294912)
I1101 20:56:11.687767  7089 net.cpp:156] Memory required for data: 300704768
I1101 20:56:11.687774  7089 layer_factory.hpp:77] Creating layer relu4_1
I1101 20:56:11.687782  7089 net.cpp:91] Creating Layer relu4_1
I1101 20:56:11.687786  7089 net.cpp:425] relu4_1 <- conv4_1
I1101 20:56:11.687793  7089 net.cpp:386] relu4_1 -> conv4_1 (in-place)
I1101 20:56:11.687799  7089 net.cpp:141] Setting up relu4_1
I1101 20:56:11.687806  7089 net.cpp:148] Top shape: 128 64 6 6 (294912)
I1101 20:56:11.687809  7089 net.cpp:156] Memory required for data: 301884416
I1101 20:56:11.687813  7089 layer_factory.hpp:77] Creating layer conv4_2
I1101 20:56:11.687824  7089 net.cpp:91] Creating Layer conv4_2
I1101 20:56:11.687829  7089 net.cpp:425] conv4_2 <- conv4_1
I1101 20:56:11.687835  7089 net.cpp:399] conv4_2 -> conv4_2
I1101 20:56:11.688200  7089 net.cpp:141] Setting up conv4_2
I1101 20:56:11.688208  7089 net.cpp:148] Top shape: 128 64 4 4 (131072)
I1101 20:56:11.688212  7089 net.cpp:156] Memory required for data: 302408704
I1101 20:56:11.688220  7089 layer_factory.hpp:77] Creating layer relu4_2
I1101 20:56:11.688226  7089 net.cpp:91] Creating Layer relu4_2
I1101 20:56:11.688230  7089 net.cpp:425] relu4_2 <- conv4_2
I1101 20:56:11.688235  7089 net.cpp:386] relu4_2 -> conv4_2 (in-place)
I1101 20:56:11.688242  7089 net.cpp:141] Setting up relu4_2
I1101 20:56:11.688248  7089 net.cpp:148] Top shape: 128 64 4 4 (131072)
I1101 20:56:11.688262  7089 net.cpp:156] Memory required for data: 302932992
I1101 20:56:11.688267  7089 layer_factory.hpp:77] Creating layer conv4_3
I1101 20:56:11.688277  7089 net.cpp:91] Creating Layer conv4_3
I1101 20:56:11.688280  7089 net.cpp:425] conv4_3 <- conv4_2
I1101 20:56:11.688287  7089 net.cpp:399] conv4_3 -> conv4_3
I1101 20:56:11.689954  7089 net.cpp:141] Setting up conv4_3
I1101 20:56:11.689967  7089 net.cpp:148] Top shape: 128 128 2 2 (65536)
I1101 20:56:11.689970  7089 net.cpp:156] Memory required for data: 303195136
I1101 20:56:11.689978  7089 layer_factory.hpp:77] Creating layer relu4_3
I1101 20:56:11.689987  7089 net.cpp:91] Creating Layer relu4_3
I1101 20:56:11.689991  7089 net.cpp:425] relu4_3 <- conv4_3
I1101 20:56:11.689999  7089 net.cpp:386] relu4_3 -> conv4_3 (in-place)
I1101 20:56:11.690007  7089 net.cpp:141] Setting up relu4_3
I1101 20:56:11.690013  7089 net.cpp:148] Top shape: 128 128 2 2 (65536)
I1101 20:56:11.690017  7089 net.cpp:156] Memory required for data: 303457280
I1101 20:56:11.690021  7089 layer_factory.hpp:77] Creating layer conv4_3_relu4_3_0_split
I1101 20:56:11.690027  7089 net.cpp:91] Creating Layer conv4_3_relu4_3_0_split
I1101 20:56:11.690032  7089 net.cpp:425] conv4_3_relu4_3_0_split <- conv4_3
I1101 20:56:11.690037  7089 net.cpp:399] conv4_3_relu4_3_0_split -> conv4_3_relu4_3_0_split_0
I1101 20:56:11.690045  7089 net.cpp:399] conv4_3_relu4_3_0_split -> conv4_3_relu4_3_0_split_1
I1101 20:56:11.690078  7089 net.cpp:141] Setting up conv4_3_relu4_3_0_split
I1101 20:56:11.690084  7089 net.cpp:148] Top shape: 128 128 2 2 (65536)
I1101 20:56:11.690089  7089 net.cpp:148] Top shape: 128 128 2 2 (65536)
I1101 20:56:11.690093  7089 net.cpp:156] Memory required for data: 303981568
I1101 20:56:11.690098  7089 layer_factory.hpp:77] Creating layer fc1_left_confidence
I1101 20:56:11.690112  7089 net.cpp:91] Creating Layer fc1_left_confidence
I1101 20:56:11.690116  7089 net.cpp:425] fc1_left_confidence <- conv4_3_relu4_3_0_split_0
I1101 20:56:11.690122  7089 net.cpp:399] fc1_left_confidence -> fc1_left_confidence
I1101 20:56:11.690549  7089 net.cpp:141] Setting up fc1_left_confidence
I1101 20:56:11.690557  7089 net.cpp:148] Top shape: 128 128 (16384)
I1101 20:56:11.690560  7089 net.cpp:156] Memory required for data: 304047104
I1101 20:56:11.690572  7089 layer_factory.hpp:77] Creating layer relu_left_confidence
I1101 20:56:11.690577  7089 net.cpp:91] Creating Layer relu_left_confidence
I1101 20:56:11.690582  7089 net.cpp:425] relu_left_confidence <- fc1_left_confidence
I1101 20:56:11.690588  7089 net.cpp:386] relu_left_confidence -> fc1_left_confidence (in-place)
I1101 20:56:11.690594  7089 net.cpp:141] Setting up relu_left_confidence
I1101 20:56:11.690600  7089 net.cpp:148] Top shape: 128 128 (16384)
I1101 20:56:11.690605  7089 net.cpp:156] Memory required for data: 304112640
I1101 20:56:11.690609  7089 layer_factory.hpp:77] Creating layer drop1_left_confidence
I1101 20:56:11.690615  7089 net.cpp:91] Creating Layer drop1_left_confidence
I1101 20:56:11.690619  7089 net.cpp:425] drop1_left_confidence <- fc1_left_confidence
I1101 20:56:11.690626  7089 net.cpp:386] drop1_left_confidence -> fc1_left_confidence (in-place)
I1101 20:56:11.690646  7089 net.cpp:141] Setting up drop1_left_confidence
I1101 20:56:11.690652  7089 net.cpp:148] Top shape: 128 128 (16384)
I1101 20:56:11.690655  7089 net.cpp:156] Memory required for data: 304178176
I1101 20:56:11.690659  7089 layer_factory.hpp:77] Creating layer fc2_left_confidence
I1101 20:56:11.690666  7089 net.cpp:91] Creating Layer fc2_left_confidence
I1101 20:56:11.690671  7089 net.cpp:425] fc2_left_confidence <- fc1_left_confidence
I1101 20:56:11.690678  7089 net.cpp:399] fc2_left_confidence -> fc2_left_confidence
I1101 20:56:11.690765  7089 net.cpp:141] Setting up fc2_left_confidence
I1101 20:56:11.690773  7089 net.cpp:148] Top shape: 128 1 (128)
I1101 20:56:11.690775  7089 net.cpp:156] Memory required for data: 304178688
I1101 20:56:11.690783  7089 layer_factory.hpp:77] Creating layer loss_left_confidence
I1101 20:56:11.690790  7089 net.cpp:91] Creating Layer loss_left_confidence
I1101 20:56:11.690806  7089 net.cpp:425] loss_left_confidence <- fc2_left_confidence
I1101 20:56:11.690811  7089 net.cpp:425] loss_left_confidence <- visibility_left
I1101 20:56:11.690819  7089 net.cpp:399] loss_left_confidence -> loss_left_confidence
I1101 20:56:11.690850  7089 net.cpp:141] Setting up loss_left_confidence
I1101 20:56:11.690855  7089 net.cpp:148] Top shape: (1)
I1101 20:56:11.690858  7089 net.cpp:151]     with loss weight 1
I1101 20:56:11.690881  7089 net.cpp:156] Memory required for data: 304178692
I1101 20:56:11.690886  7089 layer_factory.hpp:77] Creating layer fc1_right_confidence
I1101 20:56:11.690893  7089 net.cpp:91] Creating Layer fc1_right_confidence
I1101 20:56:11.690898  7089 net.cpp:425] fc1_right_confidence <- conv4_3_relu4_3_0_split_1
I1101 20:56:11.690906  7089 net.cpp:399] fc1_right_confidence -> fc1_right_confidence
I1101 20:56:11.691331  7089 net.cpp:141] Setting up fc1_right_confidence
I1101 20:56:11.691337  7089 net.cpp:148] Top shape: 128 128 (16384)
I1101 20:56:11.691341  7089 net.cpp:156] Memory required for data: 304244228
I1101 20:56:11.691349  7089 layer_factory.hpp:77] Creating layer relu_right_confidence
I1101 20:56:11.691354  7089 net.cpp:91] Creating Layer relu_right_confidence
I1101 20:56:11.691359  7089 net.cpp:425] relu_right_confidence <- fc1_right_confidence
I1101 20:56:11.691365  7089 net.cpp:386] relu_right_confidence -> fc1_right_confidence (in-place)
I1101 20:56:11.691371  7089 net.cpp:141] Setting up relu_right_confidence
I1101 20:56:11.691378  7089 net.cpp:148] Top shape: 128 128 (16384)
I1101 20:56:11.691381  7089 net.cpp:156] Memory required for data: 304309764
I1101 20:56:11.691385  7089 layer_factory.hpp:77] Creating layer drop1_right_confidence
I1101 20:56:11.691390  7089 net.cpp:91] Creating Layer drop1_right_confidence
I1101 20:56:11.691395  7089 net.cpp:425] drop1_right_confidence <- fc1_right_confidence
I1101 20:56:11.691400  7089 net.cpp:386] drop1_right_confidence -> fc1_right_confidence (in-place)
I1101 20:56:11.691416  7089 net.cpp:141] Setting up drop1_right_confidence
I1101 20:56:11.691422  7089 net.cpp:148] Top shape: 128 128 (16384)
I1101 20:56:11.691426  7089 net.cpp:156] Memory required for data: 304375300
I1101 20:56:11.691429  7089 layer_factory.hpp:77] Creating layer fc2_right_confidence
I1101 20:56:11.691437  7089 net.cpp:91] Creating Layer fc2_right_confidence
I1101 20:56:11.691440  7089 net.cpp:425] fc2_right_confidence <- fc1_right_confidence
I1101 20:56:11.691448  7089 net.cpp:399] fc2_right_confidence -> fc2_right_confidence
I1101 20:56:11.691521  7089 net.cpp:141] Setting up fc2_right_confidence
I1101 20:56:11.691529  7089 net.cpp:148] Top shape: 128 1 (128)
I1101 20:56:11.691531  7089 net.cpp:156] Memory required for data: 304375812
I1101 20:56:11.691540  7089 layer_factory.hpp:77] Creating layer loss_right_confidence
I1101 20:56:11.691545  7089 net.cpp:91] Creating Layer loss_right_confidence
I1101 20:56:11.691550  7089 net.cpp:425] loss_right_confidence <- fc2_right_confidence
I1101 20:56:11.691553  7089 net.cpp:425] loss_right_confidence <- visibility_right
…
