…
I1110 19:59:43.558543  7294 net.cpp:49] Initializing net from parameters: 
name: "FaceNet"
state {
  phase: TRAIN
}
layer {
  name: "data"
  type: "HDF5Data"
  top: "data"
  top: "eye_visibility_left"
  top: "eye_visibility_right"
  top: "nose_visibility"
  top: "mouth_visibility_left"
  top: "mouth_visibility_center"
  top: "mouth_visibility_right"
  include {
    phase: TRAIN
  }
  hdf5_data_param {
    source: "/home/wzleong/Downloads/nottingham_with_scaling_eye_nose_mouth/train_scaled_mean_subtracted_own_data_multiple_label_data_list.txt"
    batch_size: 128
    shuffle: true
  }
}
layer {
  name: "conv1"
  type: "Convolution"
  bottom: "data"
  top: "conv1"
  param {
    lr_mult: 1
    decay_mult: 1
  }
  param {
    lr_mult: 2
    decay_mult: 0
  }
  convolution_param {
    num_output: 32
    pad: 0
    kernel_size: 13
    stride: 2
    weight_filler {
      type: "xavier"
    }
    bias_filler {
      type: "constant"
    }
  }
}
layer {
  name: "relu1"
  type: "ReLU"
  bottom: "conv1"
  top: "conv1"
}
layer {
  name: "pool1"
  type: "Pooling"
  bottom: "conv1"
  top: "pool1"
  pooling_param {
    pool: MAX
    kernel_size: 2
    stride: 2
  }
}
layer {
  name: "conv2_1"
  type: "Convolution"
  bottom: "pool1"
  top: "conv2_1"
  param {
    lr_mult: 1
    decay_mult: 1
  }
  param {
    lr_mult: 2
    decay_mult: 0
  }
  convolution_param {
    num_output: 32
    pad: 0
    kernel_size: 5
    stride: 1
    weight_filler {
      type: "xavier"
    }
    bias_filler {
      type: "constant"
    }
  }
}
layer {
  name: "relu2_1"
  type: "ReLU"
  bottom: "conv2_1"
  top: "conv2_1"
}
layer {
  name: "conv2_2"
  type: "Convolution"
  bottom: "conv2_1"
  top: "conv2_2"
  param {
    lr_mult: 1
    decay_mult: 1
  }
  param {
    lr_mult: 2
    decay_mult: 0
  }
  convolution_param {
    num_output: 64
    pad: 0
    kernel_size: 5
    stride: 1
    weight_filler {
      type: "xavier"
    }
    bias_filler {
      type: "constant"
    }
  }
}
layer {
  name: "relu2_2"
  type: "ReLU"
  bottom: "conv2_2"
  top: "conv2_2"
}
layer {
  name: "pool2"
  type: "Pooling"
  bottom: "conv2_2"
  top: "pool2"
  pooling_param {
    pool: MAX
    kernel_size: 2
    stride: 2
  }
}
layer {
  name: "conv3_1"
  type: "Convolution"
  bottom: "pool2"
  top: "conv3_1"
  param {
    lr_mult: 1
    decay_mult: 1
  }
  param {
    lr_mult: 2
    decay_mult: 0
  }
  convolution_param {
    num_output: 64
    pad: 0
    kernel_size: 3
    stride: 1
    weight_filler {
      type: "xavier"
    }
    bias_filler {
      type: "constant"
    }
  }
}
layer {
  name: "relu3_1"
  type: "ReLU"
  bottom: "conv3_1"
  top: "conv3_1"
}
layer {
  name: "conv3_2"
  type: "Convolution"
  bottom: "conv3_1"
  top: "conv3_2"
  param {
    lr_mult: 1
    decay_mult: 1
  }
  param {
    lr_mult: 2
    decay_mult: 0
  }
  convolution_param {
    num_output: 128
    pad: 0
    kernel_size: 3
    stride: 1
    weight_filler {
      type: "xavier"
    }
    bias_filler {
      type: "constant"
    }
  }
}
layer {
  name: "relu3_2"
  type: "ReLU"
  bottom: "conv3_2"
  top: "conv3_2"
}
layer {
  name: "pool3"
  type: "Pooling"
  bottom: "conv3_2"
  top: "pool3"
  pooling_param {
    pool: MAX
    kernel_size: 2
    stride: 2
  }
}
layer {
  name: "conv4_1"
  type: "Convolution"
  bottom: "pool3"
  top: "conv4_1"
  param {
    lr_mult: 1
    decay_mult: 1
  }
  param {
    lr_mult: 2
    decay_mult: 0
  }
  convolution_param {
    num_output: 256
    pad: 0
    kernel_size: 3
    stride: 1
    weight_filler {
      type: "xavier"
    }
    bias_filler {
      type: "constant"
    }
  }
}
layer {
  name: "relu4_1"
  type: "ReLU"
  bottom: "conv4_1"
  top: "conv4_1"
}
layer {
  name: "conv4_2"
  type: "Convolution"
  bottom: "conv4_1"
  top: "conv4_2"
  param {
    lr_mult: 1
    decay_mult: 1
  }
  param {
    lr_mult: 2
    decay_mult: 0
  }
  convolution_param {
    num_output: 256
    pad: 0
    kernel_size: 3
    stride: 1
    weight_filler {
      type: "xavier"
    }
    bias_filler {
      type: "constant"
    }
  }
}
layer {
  name: "relu4_2"
  type: "ReLU"
  bottom: "conv4_2"
  top: "conv4_2"
}
layer {
  name: "conv4_3"
  type: "Convolution"
  bottom: "conv4_2"
  top: "conv4_3"
  param {
    lr_mult: 1
    decay_mult: 1
  }
  param {
    lr_mult: 2
    decay_mult: 0
  }
  convolution_param {
    num_output: 512
    pad: 0
    kernel_size: 3
    stride: 1
    weight_filler {
      type: "xavier"
    }
    bias_filler {
      type: "constant"
    }
  }
}
layer {
  name: "relu4_3"
  type: "ReLU"
  bottom: "conv4_3"
  top: "conv4_3"
}
layer {
  name: "fc1_left_eye_confidence"
  type: "InnerProduct"
  bottom: "conv4_3"
  top: "fc1_left_eye_confidence"
  param {
    lr_mult: 1
    decay_mult: 1
  }
  param {
    lr_mult: 2
    decay_mult: 0
  }
  inner_product_param {
    num_output: 128
    weight_filler {
      type: "xavier"
    }
    bias_filler {
      type: "constant"
      value: 0.1
    }
  }
}
layer {
  name: "relu_left_eye_confidence"
  type: "ReLU"
  bottom: "fc1_left_eye_confidence"
  top: "fc1_left_eye_confidence"
}
layer {
  name: "drop1_left_eye_confidence"
  type: "Dropout"
  bottom: "fc1_left_eye_confidence"
  top: "fc1_left_eye_confidence"
  dropout_param {
    dropout_ratio: 0.5
  }
}
layer {
  name: "fc2_left_eye_confidence"
  type: "InnerProduct"
  bottom: "fc1_left_eye_confidence"
  top: "fc2_left_eye_confidence"
  param {
    lr_mult: 1
    decay_mult: 1
  }
  param {
    lr_mult: 2
    decay_mult: 0
  }
  inner_product_param {
    num_output: 1
    weight_filler {
      type: "gaussian"
      std: 0.5
    }
    bias_filler {
      type: "constant"
      value: 0.5
    }
  }
}
layer {
  name: "loss_left_eye_confidence"
  type: "EuclideanLoss"
  bottom: "fc2_left_eye_confidence"
  bottom: "eye_visibility_left"
  top: "loss_left_eye_confidence"
}
layer {
  name: "fc1_right_eye_confidence"
  type: "InnerProduct"
  bottom: "conv4_3"
  top: "fc1_right_eye_confidence"
  param {
    lr_mult: 1
    decay_mult: 1
  }
  param {
    lr_mult: 2
    decay_mult: 0
  }
  inner_product_param {
    num_output: 128
    weight_filler {
      type: "xavier"
    }
    bias_filler {
      type: "constant"
      value: 0.1
    }
  }
}
layer {
  name: "relu_right_eye_confidence"
  type: "ReLU"
  bottom: "fc1_right_eye_confidence"
  top: "fc1_right_eye_confidence"
}
layer {
  name: "drop1_right_eye_confidence"
  type: "Dropout"
  bottom: "fc1_right_eye_confidence"
  top: "fc1_right_eye_confidence"
  dropout_param {
    dropout_ratio: 0.5
  }
}
layer {
  name: "fc2_right_eye_confidence"
  type: "InnerProduct"
  bottom: "fc1_right_eye_confidence"
  top: "fc2_right_eye_confidence"
  param {
    lr_mult: 1
    decay_mult: 1
  }
  param {
    lr_mult: 2
    decay_mult: 0
  }
  inner_product_param {
    num_output: 1
    weight_filler {
      type: "gaussian"
      std: 0.5
    }
    bias_filler {
      type: "constant"
      value: 0.5
    }
  }
}
layer {
  name: "loss_right_eye_confidence"
  type: "EuclideanLoss"
  bottom: "fc2_right_eye_confidence"
  bottom: "eye_visibility_right"
  top: "loss_right_eye_confidence"
}
layer {
  name: "fc1_nose_confidence"
  type: "InnerProduct"
  bottom: "conv4_3"
  top: "fc1_nose_confidence"
  param {
    lr_mult: 1
    decay_mult: 1
  }
  param {
    lr_mult: 2
    decay_mult: 0
  }
  inner_product_param {
    num_output: 128
    weight_filler {
      type: "xavier"
    }
    bias_filler {
      type: "constant"
      value: 0.1
    }
  }
}
layer {
  name: "relu_nose_confidence"
  type: "ReLU"
  bottom: "fc1_nose_confidence"
  top: "fc1_nose_confidence"
}
layer {
  name: "drop1_nose_confidence"
  type: "Dropout"
  bottom: "fc1_nose_confidence"
  top: "fc1_nose_confidence"
  dropout_param {
    dropout_ratio: 0.5
  }
}
layer {
  name: "fc2_nose_confidence"
  type: "InnerProduct"
  bottom: "fc1_nose_confidence"
  top: "fc2_nose_confidence"
  param {
    lr_mult: 1
    decay_mult: 1
  }
  param {
    lr_mult: 2
    decay_mult: 0
  }
  inner_product_param {
    num_output: 1
    weight_filler {
      type: "gaussian"
      std: 0.5
    }
    bias_filler {
      type: "constant"
      value: 0.5
    }
  }
}
layer {
  name: "loss_nose_confidence"
  type: "EuclideanLoss"
  bottom: "fc2_nose_confidence"
  bottom: "nose_visibility"
  top: "loss_nose_confidence"
}
layer {
  name: "fc1_left_mouth_confidence"
  type: "InnerProduct"
  bottom: "conv4_3"
  top: "fc1_left_mouth_confidence"
  param {
    lr_mult: 1
    decay_mult: 1
  }
  param {
    lr_mult: 2
    decay_mult: 0
  }
  inner_product_param {
    num_output: 128
    weight_filler {
      type: "xavier"
    }
    bias_filler {
      type: "constant"
      value: 0.1
    }
  }
}
layer {
  name: "relu_left_mouth_confidence"
  type: "ReLU"
  bottom: "fc1_left_mouth_confidence"
  top: "fc1_left_mouth_confidence"
}
layer {
  name: "drop1_left_mouth_confidence"
  type: "Dropout"
  bottom: "fc1_left_mouth_confidence"
  top: "fc1_left_mouth_confidence"
  dropout_param {
    dropout_ratio: 0.5
  }
}
layer {
  name: "fc2_left_mouth_confidence"
  type: "InnerProduct"
  bottom: "fc1_left_mouth_confidence"
  top: "fc2_left_mouth_confidence"
  param {
    lr_mult: 1
    decay_mult: 1
  }
  param {
    lr_mult: 2
    decay_mult: 0
  }
  inner_product_param {
    num_output: 1
    weight_filler {
      type: "gaussian"
      std: 0.5
    }
    bias_filler {
      type: "constant"
      value: 0.5
    }
  }
}
layer {
  name: "loss_left_mouth_confidence"
  type: "EuclideanLoss"
  bottom: "fc2_left_mouth_confidence"
  bottom: "mouth_visibility_left"
  top: "loss_left_mouth_confidence"
}
layer {
  name: "fc1_center_mouth_confidence"
  type: "InnerProduct"
  bottom: "conv4_3"
  top: "fc1_center_mouth_confidence"
  param {
    lr_mult: 1
    decay_mult: 1
  }
  param {
    lr_mult: 2
    decay_mult: 0
  }
  inner_product_param {
    num_output: 128
    weight_filler {
      type: "xavier"
    }
    bias_filler {
      type: "constant"
      value: 0.1
    }
  }
}
layer {
  name: "relu_center_mouth_confidence"
  type: "ReLU"
  bottom: "fc1_center_mouth_confidence"
  top: "fc1_center_mouth_confidence"
}
layer {
  name: "drop1_center_mouth_confidence"
  type: "Dropout"
  bottom: "fc1_center_mouth_confidence"
  top: "fc1_center_mouth_confidence"
  dropout_param {
    dropout_ratio: 0.5
  }
}
layer {
  name: "fc2_center_mouth_confidence"
  type: "InnerProduct"
  bottom: "fc1_center_mouth_confidence"
  top: "fc2_center_mouth_confidence"
  param {
    lr_mult: 1
    decay_mult: 1
  }
  param {
    lr_mult: 2
    decay_mult: 0
  }
  inner_product_param {
    num_output: 1
    weight_filler {
      type: "gaussian"
      std: 0.5
    }
    bias_filler {
      type: "constant"
      value: 0.5
    }
  }
}
layer {
  name: "loss_center_mouth_confidence"
  type: "EuclideanLoss"
  bottom: "fc2_center_mouth_confidence"
  bottom: "mouth_visibility_center"
  top: "loss_center_mouth_confidence"
}
layer {
  name: "fc1_right_mouth_confidence"
  type: "InnerProduct"
  bottom: "conv4_3"
  top: "fc1_right_mouth_confidence"
  param {
    lr_mult: 1
    decay_mult: 1
  }
  param {
    lr_mult: 2
    decay_mult: 0
  }
  inner_product_param {
    num_output: 128
    weight_filler {
      type: "xavier"
    }
    bias_filler {
      type: "constant"
      value: 0.1
    }
  }
}
layer {
  name: "relu_right_mouth_confidence"
  type: "ReLU"
  bottom: "fc1_right_mouth_confidence"
  top: "fc1_right_mouth_confidence"
}
layer {
  name: "drop1_right_mouth_confidence"
  type: "Dropout"
  bottom: "fc1_right_mouth_confidence"
  top: "fc1_right_mouth_confidence"
  dropout_param {
    dropout_ratio: 0.5
  }
}
layer {
  name: "fc2_right_mouth_confidence"
  type: "InnerProduct"
  bottom: "fc1_right_mouth_confidence"
  top: "fc2_right_mouth_confidence"
  param {
    lr_mult: 1
    decay_mult: 1
  }
  param {
    lr_mult: 2
    decay_mult: 0
  }
  inner_product_param {
    num_output: 1
    weight_filler {
      type: "gaussian"
      std: 0.5
    }
    bias_filler {
      type: "constant"
      value: 0.5
    }
  }
}
layer {
  name: "loss_right_mouth_confidence"
  type: "EuclideanLoss"
  bottom: "fc2_right_mouth_confidence"
  bottom: "mouth_visibility_right"
  top: "loss_right_mouth_confidence"
}
I1110 19:59:43.558903  7294 layer_factory.hpp:77] Creating layer data
I1110 19:59:43.558918  7294 net.cpp:91] Creating Layer data
I1110 19:59:43.558924  7294 net.cpp:399] data -> data
I1110 19:59:43.558944  7294 net.cpp:399] data -> eye_visibility_left
I1110 19:59:43.558953  7294 net.cpp:399] data -> eye_visibility_right
I1110 19:59:43.558957  7294 net.cpp:399] data -> nose_visibility
I1110 19:59:43.558961  7294 net.cpp:399] data -> mouth_visibility_left
I1110 19:59:43.558967  7294 net.cpp:399] data -> mouth_visibility_center
I1110 19:59:43.558971  7294 net.cpp:399] data -> mouth_visibility_right
I1110 19:59:43.558976  7294 hdf5_data_layer.cpp:79] Loading list of HDF5 filenames from: /home/wzleong/Downloads/nottingham_with_scaling_eye_nose_mouth/train_scaled_mean_subtracted_own_data_multiple_label_data_list.txt
I1110 19:59:43.559001  7294 hdf5_data_layer.cpp:93] Number of HDF5 files: 8
I1110 19:59:43.559749  7294 hdf5.cpp:32] Datatype class: H5T_FLOAT
I1110 19:59:43.842471  7294 net.cpp:141] Setting up data
I1110 19:59:43.842494  7294 net.cpp:148] Top shape: 128 1 200 200 (5120000)
I1110 19:59:43.842499  7294 net.cpp:148] Top shape: 128 1 (128)
I1110 19:59:43.842501  7294 net.cpp:148] Top shape: 128 1 (128)
I1110 19:59:43.842504  7294 net.cpp:148] Top shape: 128 1 (128)
I1110 19:59:43.842507  7294 net.cpp:148] Top shape: 128 1 (128)
I1110 19:59:43.842509  7294 net.cpp:148] Top shape: 128 1 (128)
I1110 19:59:43.842512  7294 net.cpp:148] Top shape: 128 1 (128)
I1110 19:59:43.842514  7294 net.cpp:156] Memory required for data: 20483072
I1110 19:59:43.842520  7294 layer_factory.hpp:77] Creating layer conv1
I1110 19:59:43.842537  7294 net.cpp:91] Creating Layer conv1
I1110 19:59:43.842543  7294 net.cpp:425] conv1 <- data
I1110 19:59:43.842553  7294 net.cpp:399] conv1 -> conv1
I1110 19:59:43.843180  7294 net.cpp:141] Setting up conv1
I1110 19:59:43.843188  7294 net.cpp:148] Top shape: 128 32 94 94 (36192256)
I1110 19:59:43.843190  7294 net.cpp:156] Memory required for data: 165252096
I1110 19:59:43.843205  7294 layer_factory.hpp:77] Creating layer relu1
I1110 19:59:43.843210  7294 net.cpp:91] Creating Layer relu1
I1110 19:59:43.843214  7294 net.cpp:425] relu1 <- conv1
I1110 19:59:43.843217  7294 net.cpp:386] relu1 -> conv1 (in-place)
I1110 19:59:43.843224  7294 net.cpp:141] Setting up relu1
I1110 19:59:43.843227  7294 net.cpp:148] Top shape: 128 32 94 94 (36192256)
I1110 19:59:43.843230  7294 net.cpp:156] Memory required for data: 310021120
I1110 19:59:43.843235  7294 layer_factory.hpp:77] Creating layer pool1
I1110 19:59:43.843240  7294 net.cpp:91] Creating Layer pool1
I1110 19:59:43.843242  7294 net.cpp:425] pool1 <- conv1
I1110 19:59:43.843245  7294 net.cpp:399] pool1 -> pool1
I1110 19:59:43.843288  7294 net.cpp:141] Setting up pool1
I1110 19:59:43.843293  7294 net.cpp:148] Top shape: 128 32 47 47 (9048064)
I1110 19:59:43.843297  7294 net.cpp:156] Memory required for data: 346213376
I1110 19:59:43.843298  7294 layer_factory.hpp:77] Creating layer conv2_1
I1110 19:59:43.843307  7294 net.cpp:91] Creating Layer conv2_1
I1110 19:59:43.843310  7294 net.cpp:425] conv2_1 <- pool1
I1110 19:59:43.843314  7294 net.cpp:399] conv2_1 -> conv2_1
I1110 19:59:43.844341  7294 net.cpp:141] Setting up conv2_1
I1110 19:59:43.844352  7294 net.cpp:148] Top shape: 128 32 43 43 (7573504)
I1110 19:59:43.844355  7294 net.cpp:156] Memory required for data: 376507392
I1110 19:59:43.844362  7294 layer_factory.hpp:77] Creating layer relu2_1
I1110 19:59:43.844383  7294 net.cpp:91] Creating Layer relu2_1
I1110 19:59:43.844388  7294 net.cpp:425] relu2_1 <- conv2_1
I1110 19:59:43.844393  7294 net.cpp:386] relu2_1 -> conv2_1 (in-place)
I1110 19:59:43.844398  7294 net.cpp:141] Setting up relu2_1
I1110 19:59:43.844403  7294 net.cpp:148] Top shape: 128 32 43 43 (7573504)
I1110 19:59:43.844406  7294 net.cpp:156] Memory required for data: 406801408
I1110 19:59:43.844408  7294 layer_factory.hpp:77] Creating layer conv2_2
I1110 19:59:43.844415  7294 net.cpp:91] Creating Layer conv2_2
I1110 19:59:43.844419  7294 net.cpp:425] conv2_2 <- conv2_1
I1110 19:59:43.844425  7294 net.cpp:399] conv2_2 -> conv2_2
I1110 19:59:43.844883  7294 net.cpp:141] Setting up conv2_2
I1110 19:59:43.844889  7294 net.cpp:148] Top shape: 128 64 39 39 (12460032)
I1110 19:59:43.844892  7294 net.cpp:156] Memory required for data: 456641536
I1110 19:59:43.844899  7294 layer_factory.hpp:77] Creating layer relu2_2
I1110 19:59:43.844903  7294 net.cpp:91] Creating Layer relu2_2
I1110 19:59:43.844907  7294 net.cpp:425] relu2_2 <- conv2_2
I1110 19:59:43.844910  7294 net.cpp:386] relu2_2 -> conv2_2 (in-place)
I1110 19:59:43.844915  7294 net.cpp:141] Setting up relu2_2
I1110 19:59:43.844919  7294 net.cpp:148] Top shape: 128 64 39 39 (12460032)
I1110 19:59:43.844923  7294 net.cpp:156] Memory required for data: 506481664
I1110 19:59:43.844924  7294 layer_factory.hpp:77] Creating layer pool2
I1110 19:59:43.844930  7294 net.cpp:91] Creating Layer pool2
I1110 19:59:43.844933  7294 net.cpp:425] pool2 <- conv2_2
I1110 19:59:43.844936  7294 net.cpp:399] pool2 -> pool2
I1110 19:59:43.844964  7294 net.cpp:141] Setting up pool2
I1110 19:59:43.844969  7294 net.cpp:148] Top shape: 128 64 20 20 (3276800)
I1110 19:59:43.844972  7294 net.cpp:156] Memory required for data: 519588864
I1110 19:59:43.844974  7294 layer_factory.hpp:77] Creating layer conv3_1
I1110 19:59:43.844980  7294 net.cpp:91] Creating Layer conv3_1
I1110 19:59:43.844985  7294 net.cpp:425] conv3_1 <- pool2
I1110 19:59:43.844988  7294 net.cpp:399] conv3_1 -> conv3_1
I1110 19:59:43.845691  7294 net.cpp:141] Setting up conv3_1
I1110 19:59:43.845700  7294 net.cpp:148] Top shape: 128 64 18 18 (2654208)
I1110 19:59:43.845705  7294 net.cpp:156] Memory required for data: 530205696
I1110 19:59:43.845710  7294 layer_factory.hpp:77] Creating layer relu3_1
I1110 19:59:43.845715  7294 net.cpp:91] Creating Layer relu3_1
I1110 19:59:43.845717  7294 net.cpp:425] relu3_1 <- conv3_1
I1110 19:59:43.845723  7294 net.cpp:386] relu3_1 -> conv3_1 (in-place)
I1110 19:59:43.845728  7294 net.cpp:141] Setting up relu3_1
I1110 19:59:43.845732  7294 net.cpp:148] Top shape: 128 64 18 18 (2654208)
I1110 19:59:43.845736  7294 net.cpp:156] Memory required for data: 540822528
I1110 19:59:43.845738  7294 layer_factory.hpp:77] Creating layer conv3_2
I1110 19:59:43.845744  7294 net.cpp:91] Creating Layer conv3_2
I1110 19:59:43.845747  7294 net.cpp:425] conv3_2 <- conv3_1
I1110 19:59:43.845752  7294 net.cpp:399] conv3_2 -> conv3_2
I1110 19:59:43.846645  7294 net.cpp:141] Setting up conv3_2
I1110 19:59:43.846654  7294 net.cpp:148] Top shape: 128 128 16 16 (4194304)
I1110 19:59:43.846657  7294 net.cpp:156] Memory required for data: 557599744
I1110 19:59:43.846664  7294 layer_factory.hpp:77] Creating layer relu3_2
I1110 19:59:43.846669  7294 net.cpp:91] Creating Layer relu3_2
I1110 19:59:43.846673  7294 net.cpp:425] relu3_2 <- conv3_2
I1110 19:59:43.846676  7294 net.cpp:386] relu3_2 -> conv3_2 (in-place)
I1110 19:59:43.846683  7294 net.cpp:141] Setting up relu3_2
I1110 19:59:43.846686  7294 net.cpp:148] Top shape: 128 128 16 16 (4194304)
I1110 19:59:43.846689  7294 net.cpp:156] Memory required for data: 574376960
I1110 19:59:43.846691  7294 layer_factory.hpp:77] Creating layer pool3
I1110 19:59:43.846694  7294 net.cpp:91] Creating Layer pool3
I1110 19:59:43.846698  7294 net.cpp:425] pool3 <- conv3_2
I1110 19:59:43.846701  7294 net.cpp:399] pool3 -> pool3
I1110 19:59:43.846724  7294 net.cpp:141] Setting up pool3
I1110 19:59:43.846729  7294 net.cpp:148] Top shape: 128 128 8 8 (1048576)
I1110 19:59:43.846742  7294 net.cpp:156] Memory required for data: 578571264
I1110 19:59:43.846745  7294 layer_factory.hpp:77] Creating layer conv4_1
I1110 19:59:43.846751  7294 net.cpp:91] Creating Layer conv4_1
I1110 19:59:43.846755  7294 net.cpp:425] conv4_1 <- pool3
I1110 19:59:43.846760  7294 net.cpp:399] conv4_1 -> conv4_1
I1110 19:59:43.848829  7294 net.cpp:141] Setting up conv4_1
I1110 19:59:43.848837  7294 net.cpp:148] Top shape: 128 256 6 6 (1179648)
I1110 19:59:43.848840  7294 net.cpp:156] Memory required for data: 583289856
I1110 19:59:43.848846  7294 layer_factory.hpp:77] Creating layer relu4_1
I1110 19:59:43.848851  7294 net.cpp:91] Creating Layer relu4_1
I1110 19:59:43.848855  7294 net.cpp:425] relu4_1 <- conv4_1
I1110 19:59:43.848858  7294 net.cpp:386] relu4_1 -> conv4_1 (in-place)
I1110 19:59:43.848863  7294 net.cpp:141] Setting up relu4_1
I1110 19:59:43.848867  7294 net.cpp:148] Top shape: 128 256 6 6 (1179648)
I1110 19:59:43.848870  7294 net.cpp:156] Memory required for data: 588008448
I1110 19:59:43.848872  7294 layer_factory.hpp:77] Creating layer conv4_2
I1110 19:59:43.848881  7294 net.cpp:91] Creating Layer conv4_2
I1110 19:59:43.848883  7294 net.cpp:425] conv4_2 <- conv4_1
I1110 19:59:43.848888  7294 net.cpp:399] conv4_2 -> conv4_2
I1110 19:59:43.852774  7294 net.cpp:141] Setting up conv4_2
I1110 19:59:43.852787  7294 net.cpp:148] Top shape: 128 256 4 4 (524288)
I1110 19:59:43.852790  7294 net.cpp:156] Memory required for data: 590105600
I1110 19:59:43.852797  7294 layer_factory.hpp:77] Creating layer relu4_2
I1110 19:59:43.852802  7294 net.cpp:91] Creating Layer relu4_2
I1110 19:59:43.852805  7294 net.cpp:425] relu4_2 <- conv4_2
I1110 19:59:43.852810  7294 net.cpp:386] relu4_2 -> conv4_2 (in-place)
I1110 19:59:43.852815  7294 net.cpp:141] Setting up relu4_2
I1110 19:59:43.852819  7294 net.cpp:148] Top shape: 128 256 4 4 (524288)
I1110 19:59:43.852823  7294 net.cpp:156] Memory required for data: 592202752
I1110 19:59:43.852824  7294 layer_factory.hpp:77] Creating layer conv4_3
I1110 19:59:43.852831  7294 net.cpp:91] Creating Layer conv4_3
I1110 19:59:43.852834  7294 net.cpp:425] conv4_3 <- conv4_2
I1110 19:59:43.852839  7294 net.cpp:399] conv4_3 -> conv4_3
I1110 19:59:43.860688  7294 net.cpp:141] Setting up conv4_3
I1110 19:59:43.860707  7294 net.cpp:148] Top shape: 128 512 2 2 (262144)
I1110 19:59:43.860709  7294 net.cpp:156] Memory required for data: 593251328
I1110 19:59:43.860716  7294 layer_factory.hpp:77] Creating layer relu4_3
I1110 19:59:43.860723  7294 net.cpp:91] Creating Layer relu4_3
I1110 19:59:43.860726  7294 net.cpp:425] relu4_3 <- conv4_3
I1110 19:59:43.860730  7294 net.cpp:386] relu4_3 -> conv4_3 (in-place)
I1110 19:59:43.860738  7294 net.cpp:141] Setting up relu4_3
I1110 19:59:43.860740  7294 net.cpp:148] Top shape: 128 512 2 2 (262144)
I1110 19:59:43.860743  7294 net.cpp:156] Memory required for data: 594299904
I1110 19:59:43.860744  7294 layer_factory.hpp:77] Creating layer conv4_3_relu4_3_0_split
I1110 19:59:43.860752  7294 net.cpp:91] Creating Layer conv4_3_relu4_3_0_split
I1110 19:59:43.860755  7294 net.cpp:425] conv4_3_relu4_3_0_split <- conv4_3
I1110 19:59:43.860759  7294 net.cpp:399] conv4_3_relu4_3_0_split -> conv4_3_relu4_3_0_split_0
I1110 19:59:43.860765  7294 net.cpp:399] conv4_3_relu4_3_0_split -> conv4_3_relu4_3_0_split_1
I1110 19:59:43.860771  7294 net.cpp:399] conv4_3_relu4_3_0_split -> conv4_3_relu4_3_0_split_2
I1110 19:59:43.860777  7294 net.cpp:399] conv4_3_relu4_3_0_split -> conv4_3_relu4_3_0_split_3
I1110 19:59:43.860782  7294 net.cpp:399] conv4_3_relu4_3_0_split -> conv4_3_relu4_3_0_split_4
I1110 19:59:43.860788  7294 net.cpp:399] conv4_3_relu4_3_0_split -> conv4_3_relu4_3_0_split_5
I1110 19:59:43.860852  7294 net.cpp:141] Setting up conv4_3_relu4_3_0_split
I1110 19:59:43.860857  7294 net.cpp:148] Top shape: 128 512 2 2 (262144)
I1110 19:59:43.860860  7294 net.cpp:148] Top shape: 128 512 2 2 (262144)
I1110 19:59:43.860864  7294 net.cpp:148] Top shape: 128 512 2 2 (262144)
I1110 19:59:43.860868  7294 net.cpp:148] Top shape: 128 512 2 2 (262144)
I1110 19:59:43.860888  7294 net.cpp:148] Top shape: 128 512 2 2 (262144)
I1110 19:59:43.860893  7294 net.cpp:148] Top shape: 128 512 2 2 (262144)
I1110 19:59:43.860894  7294 net.cpp:156] Memory required for data: 600591360
I1110 19:59:43.860898  7294 layer_factory.hpp:77] Creating layer fc1_left_eye_confidence
I1110 19:59:43.860904  7294 net.cpp:91] Creating Layer fc1_left_eye_confidence
I1110 19:59:43.860908  7294 net.cpp:425] fc1_left_eye_confidence <- conv4_3_relu4_3_0_split_0
I1110 19:59:43.860911  7294 net.cpp:399] fc1_left_eye_confidence -> fc1_left_eye_confidence
I1110 19:59:43.862757  7294 net.cpp:141] Setting up fc1_left_eye_confidence
I1110 19:59:43.862766  7294 net.cpp:148] Top shape: 128 128 (16384)
I1110 19:59:43.862769  7294 net.cpp:156] Memory required for data: 600656896
I1110 19:59:43.862777  7294 layer_factory.hpp:77] Creating layer relu_left_eye_confidence
I1110 19:59:43.862784  7294 net.cpp:91] Creating Layer relu_left_eye_confidence
I1110 19:59:43.862787  7294 net.cpp:425] relu_left_eye_confidence <- fc1_left_eye_confidence
I1110 19:59:43.862792  7294 net.cpp:386] relu_left_eye_confidence -> fc1_left_eye_confidence (in-place)
I1110 19:59:43.862798  7294 net.cpp:141] Setting up relu_left_eye_confidence
I1110 19:59:43.862802  7294 net.cpp:148] Top shape: 128 128 (16384)
I1110 19:59:43.862805  7294 net.cpp:156] Memory required for data: 600722432
I1110 19:59:43.862807  7294 layer_factory.hpp:77] Creating layer drop1_left_eye_confidence
I1110 19:59:43.862812  7294 net.cpp:91] Creating Layer drop1_left_eye_confidence
I1110 19:59:43.862817  7294 net.cpp:425] drop1_left_eye_confidence <- fc1_left_eye_confidence
I1110 19:59:43.862819  7294 net.cpp:386] drop1_left_eye_confidence -> fc1_left_eye_confidence (in-place)
I1110 19:59:43.862836  7294 net.cpp:141] Setting up drop1_left_eye_confidence
I1110 19:59:43.862840  7294 net.cpp:148] Top shape: 128 128 (16384)
I1110 19:59:43.862844  7294 net.cpp:156] Memory required for data: 600787968
I1110 19:59:43.862846  7294 layer_factory.hpp:77] Creating layer fc2_left_eye_confidence
I1110 19:59:43.862850  7294 net.cpp:91] Creating Layer fc2_left_eye_confidence
I1110 19:59:43.862854  7294 net.cpp:425] fc2_left_eye_confidence <- fc1_left_eye_confidence
I1110 19:59:43.862859  7294 net.cpp:399] fc2_left_eye_confidence -> fc2_left_eye_confidence
I1110 19:59:43.862936  7294 net.cpp:141] Setting up fc2_left_eye_confidence
I1110 19:59:43.862941  7294 net.cpp:148] Top shape: 128 1 (128)
I1110 19:59:43.862944  7294 net.cpp:156] Memory required for data: 600788480
I1110 19:59:43.862949  7294 layer_factory.hpp:77] Creating layer loss_left_eye_confidence
I1110 19:59:43.862953  7294 net.cpp:91] Creating Layer loss_left_eye_confidence
I1110 19:59:43.862957  7294 net.cpp:425] loss_left_eye_confidence <- fc2_left_eye_confidence
I1110 19:59:43.862960  7294 net.cpp:425] loss_left_eye_confidence <- eye_visibility_left
I1110 19:59:43.862965  7294 net.cpp:399] loss_left_eye_confidence -> loss_left_eye_confidence
I1110 19:59:43.862992  7294 net.cpp:141] Setting up loss_left_eye_confidence
I1110 19:59:43.862995  7294 net.cpp:148] Top shape: (1)
I1110 19:59:43.862998  7294 net.cpp:151]     with loss weight 1
I1110 19:59:43.863016  7294 net.cpp:156] Memory required for data: 600788484
I1110 19:59:43.863019  7294 layer_factory.hpp:77] Creating layer fc1_right_eye_confidence
I1110 19:59:43.863024  7294 net.cpp:91] Creating Layer fc1_right_eye_confidence
I1110 19:59:43.863028  7294 net.cpp:425] fc1_right_eye_confidence <- conv4_3_relu4_3_0_split_1
I1110 19:59:43.863032  7294 net.cpp:399] fc1_right_eye_confidence -> fc1_right_eye_confidence
I1110 19:59:43.864833  7294 net.cpp:141] Setting up fc1_right_eye_confidence
I1110 19:59:43.864841  7294 net.cpp:148] Top shape: 128 128 (16384)
I1110 19:59:43.864845  7294 net.cpp:156] Memory required for data: 600854020
I1110 19:59:43.864850  7294 layer_factory.hpp:77] Creating layer relu_right_eye_confidence
I1110 19:59:43.864856  7294 net.cpp:91] Creating Layer relu_right_eye_confidence
I1110 19:59:43.864858  7294 net.cpp:425] relu_right_eye_confidence <- fc1_right_eye_confidence
I1110 19:59:43.864874  7294 net.cpp:386] relu_right_eye_confidence -> fc1_right_eye_confidence (in-place)
I1110 19:59:43.864881  7294 net.cpp:141] Setting up relu_right_eye_confidence
I1110 19:59:43.864886  7294 net.cpp:148] Top shape: 128 128 (16384)
I1110 19:59:43.864887  7294 net.cpp:156] Memory required for data: 600919556
I1110 19:59:43.864889  7294 layer_factory.hpp:77] Creating layer drop1_right_eye_confidence
I1110 19:59:43.864895  7294 net.cpp:91] Creating Layer drop1_right_eye_confidence
I1110 19:59:43.864898  7294 net.cpp:425] drop1_right_eye_confidence <- fc1_right_eye_confidence
I1110 19:59:43.864902  7294 net.cpp:386] drop1_right_eye_confidence -> fc1_right_eye_confidence (in-place)
I1110 19:59:43.864915  7294 net.cpp:141] Setting up drop1_right_eye_confidence
I1110 19:59:43.864919  7294 net.cpp:148] Top shape: 128 128 (16384)
I1110 19:59:43.864922  7294 net.cpp:156] Memory required for data: 600985092
I1110 19:59:43.864924  7294 layer_factory.hpp:77] Creating layer fc2_right_eye_confidence
I1110 19:59:43.864928  7294 net.cpp:91] Creating Layer fc2_right_eye_confidence
I1110 19:59:43.864933  7294 net.cpp:425] fc2_right_eye_confidence <- fc1_right_eye_confidence
I1110 19:59:43.864936  7294 net.cpp:399] fc2_right_eye_confidence -> fc2_right_eye_confidence
I1110 19:59:43.865006  7294 net.cpp:141] Setting up fc2_right_eye_confidence
I1110 19:59:43.865011  7294 net.cpp:148] Top shape: 128 1 (128)
I1110 19:59:43.865015  7294 net.cpp:156] Memory required for data: 600985604
I1110 19:59:43.865018  7294 layer_factory.hpp:77] Creating layer loss_right_eye_confidence
I1110 19:59:43.865023  7294 net.cpp:91] Creating Layer loss_right_eye_confidence
I1110 19:59:43.865026  7294 net.cpp:425] loss_right_eye_confidence <- fc2_right_eye_confidence
I1110 19:59:43.865031  7294 net.cpp:425] loss_right_eye_confidence <- eye_visibility_right
I1110 19:59:43.865034  7294 net.cpp:399] loss_right_eye_confidence -> loss_right_eye_confidence
I1110 19:59:43.865056  7294 net.cpp:141] Setting up loss_right_eye_confidence
I1110 19:59:43.865061  7294 net.cpp:148] Top shape: (1)
I1110 19:59:43.865064  7294 net.cpp:151]     with loss weight 1
I1110 19:59:43.865069  7294 net.cpp:156] Memory required for data: 600985608
I1110 19:59:43.865072  7294 layer_factory.hpp:77] Creating layer fc1_nose_confidence
I1110 19:59:43.865077  7294 net.cpp:91] Creating Layer fc1_nose_confidence
I1110 19:59:43.865079  7294 net.cpp:425] fc1_nose_confidence <- conv4_3_relu4_3_0_split_2
I1110 19:59:43.865084  7294 net.cpp:399] fc1_nose_confidence -> fc1_nose_confidence
I1110 19:59:43.866896  7294 net.cpp:141] Setting up fc1_nose_confidence
I1110 19:59:43.866905  7294 net.cpp:148] Top shape: 128 128 (16384)
I1110 19:59:43.866909  7294 net.cpp:156] Memory required for data: 601051144
I1110 19:59:43.866914  7294 layer_factory.hpp:77] Creating layer relu_nose_confidence
I1110 19:59:43.866921  7294 net.cpp:91] Creating Layer relu_nose_confidence
I1110 19:59:43.866925  7294 net.cpp:425] relu_nose_confidence <- fc1_nose_confidence
I1110 19:59:43.866930  7294 net.cpp:386] relu_nose_confidence -> fc1_nose_confidence (in-place)
I1110 19:59:43.866935  7294 net.cpp:141] Setting up relu_nose_confidence
I1110 19:59:43.866940  7294 net.cpp:148] Top shape: 128 128 (16384)
I1110 19:59:43.866941  7294 net.cpp:156] Memory required for data: 601116680
I1110 19:59:43.866945  7294 layer_factory.hpp:77] Creating layer drop1_nose_confidence
I1110 19:59:43.866948  7294 net.cpp:91] Creating Layer drop1_nose_confidence
I1110 19:59:43.866951  7294 net.cpp:425] drop1_nose_confidence <- fc1_nose_confidence
I1110 19:59:43.866955  7294 net.cpp:386] drop1_nose_confidence -> fc1_nose_confidence (in-place)
I1110 19:59:43.866968  7294 net.cpp:141] Setting up drop1_nose_confidence
I1110 19:59:43.866971  7294 net.cpp:148] Top shape: 128 128 (16384)
I1110 19:59:43.866973  7294 net.cpp:156] Memory required for data: 601182216
I1110 19:59:43.866976  7294 layer_factory.hpp:77] Creating layer fc2_nose_confidence
I1110 19:59:43.866981  7294 net.cpp:91] Creating Layer fc2_nose_confidence
I1110 19:59:43.866992  7294 net.cpp:425] fc2_nose_confidence <- fc1_nose_confidence
I1110 19:59:43.866997  7294 net.cpp:399] fc2_nose_confidence -> fc2_nose_confidence
I1110 19:59:43.867069  7294 net.cpp:141] Setting up fc2_nose_confidence
I1110 19:59:43.867075  7294 net.cpp:148] Top shape: 128 1 (128)
I1110 19:59:43.867079  7294 net.cpp:156] Memory required for data: 601182728
I1110 19:59:43.867082  7294 layer_factory.hpp:77] Creating layer loss_nose_confidence
I1110 19:59:43.867086  7294 net.cpp:91] Creating Layer loss_nose_confidence
I1110 19:59:43.867090  7294 net.cpp:425] loss_nose_confidence <- fc2_nose_confidence
I1110 19:59:43.867092  7294 net.cpp:425] loss_nose_confidence <- nose_visibility
I1110 19:59:43.867096  7294 net.cpp:399] loss_nose_confidence -> loss_nose_confidence
I1110 19:59:43.867125  7294 net.cpp:141] Setting up loss_nose_confidence
I1110 19:59:43.867130  7294 net.cpp:148] Top shape: (1)
I1110 19:59:43.867131  7294 net.cpp:151]     with loss weight 1
I1110 19:59:43.867136  7294 net.cpp:156] Memory required for data: 601182732
I1110 19:59:43.867138  7294 layer_factory.hpp:77] Creating layer fc1_left_mouth_confidence
I1110 19:59:43.867144  7294 net.cpp:91] Creating Layer fc1_left_mouth_confidence
I1110 19:59:43.867147  7294 net.cpp:425] fc1_left_mouth_confidence <- conv4_3_relu4_3_0_split_3
I1110 19:59:43.867151  7294 net.cpp:399] fc1_left_mouth_confidence -> fc1_left_mouth_confidence
I1110 19:59:43.868867  7294 net.cpp:141] Setting up fc1_left_mouth_confidence
I1110 19:59:43.868876  7294 net.cpp:148] Top shape: 128 128 (16384)
I1110 19:59:43.868880  7294 net.cpp:156] Memory required for data: 601248268
I1110 19:59:43.868885  7294 layer_factory.hpp:77] Creating layer relu_left_mouth_confidence
I1110 19:59:43.868890  7294 net.cpp:91] Creating Layer relu_left_mouth_confidence
I1110 19:59:43.868892  7294 net.cpp:425] relu_left_mouth_confidence <- fc1_left_mouth_confidence
I1110 19:59:43.868896  7294 net.cpp:386] relu_left_mouth_confidence -> fc1_left_mouth_confidence (in-place)
I1110 19:59:43.868902  7294 net.cpp:141] Setting up relu_left_mouth_confidence
I1110 19:59:43.868906  7294 net.cpp:148] Top shape: 128 128 (16384)
I1110 19:59:43.868909  7294 net.cpp:156] Memory required for data: 601313804
I1110 19:59:43.868911  7294 layer_factory.hpp:77] Creating layer drop1_left_mouth_confidence
I1110 19:59:43.868914  7294 net.cpp:91] Creating Layer drop1_left_mouth_confidence
I1110 19:59:43.868916  7294 net.cpp:425] drop1_left_mouth_confidence <- fc1_left_mouth_confidence
I1110 19:59:43.868921  7294 net.cpp:386] drop1_left_mouth_confidence -> fc1_left_mouth_confidence (in-place)
I1110 19:59:43.868934  7294 net.cpp:141] Setting up drop1_left_mouth_confidence
I1110 19:59:43.868938  7294 net.cpp:148] Top shape: 128 128 (16384)
I1110 19:59:43.868940  7294 net.cpp:156] Memory required for data: 601379340
I1110 19:59:43.868943  7294 layer_factory.hpp:77] Creating layer fc2_left_mouth_confidence
I1110 19:59:43.868947  7294 net.cpp:91] Creating Layer fc2_left_mouth_confidence
I1110 19:59:43.868950  7294 net.cpp:425] fc2_left_mouth_confidence <- fc1_left_mouth_confidence
I1110 19:59:43.868954  7294 net.cpp:399] fc2_left_mouth_confidence -> fc2_left_mouth_confidence
I1110 19:59:43.869022  7294 net.cpp:141] Setting up fc2_left_mouth_confidence
I1110 19:59:43.869027  7294 net.cpp:148] Top shape: 128 1 (128)
I1110 19:59:43.869029  7294 net.cpp:156] Memory required for data: 601379852
I1110 19:59:43.869034  7294 layer_factory.hpp:77] Creating layer loss_left_mouth_confidence
I1110 19:59:43.869038  7294 net.cpp:91] Creating Layer loss_left_mouth_confidence
I1110 19:59:43.869041  7294 net.cpp:425] loss_left_mouth_confidence <- fc2_left_mouth_confidence
I1110 19:59:43.869045  7294 net.cpp:425] loss_left_mouth_confidence <- mouth_visibility_left
I1110 19:59:43.869050  7294 net.cpp:399] loss_left_mouth_confidence -> loss_left_mouth_confidence
I1110 19:59:43.869073  7294 net.cpp:141] Setting up loss_left_mouth_confidence
I1110 19:59:43.869076  7294 net.cpp:148] Top shape: (1)
I1110 19:59:43.869078  7294 net.cpp:151]     with loss weight 1
I1110 19:59:43.869092  7294 net.cpp:156] Memory required for data: 601379856
I1110 19:59:43.869094  7294 layer_factory.hpp:77] Creating layer fc1_center_mouth_confidence
I1110 19:59:43.869099  7294 net.cpp:91] Creating Layer fc1_center_mouth_confidence
I1110 19:59:43.869103  7294 net.cpp:425] fc1_center_mouth_confidence <- conv4_3_relu4_3_0_split_4
I1110 19:59:43.869107  7294 net.cpp:399] fc1_center_mouth_confidence -> fc1_center_mouth_confidence
I1110 19:59:43.871538  7294 net.cpp:141] Setting up fc1_center_mouth_confidence
I1110 19:59:43.871557  7294 net.cpp:148] Top shape: 128 128 (16384)
I1110 19:59:43.871562  7294 net.cpp:156] Memory required for data: 601445392
I1110 19:59:43.871578  7294 layer_factory.hpp:77] Creating layer relu_center_mouth_confidence
I1110 19:59:43.871587  7294 net.cpp:91] Creating Layer relu_center_mouth_confidence
I1110 19:59:43.871592  7294 net.cpp:425] relu_center_mouth_confidence <- fc1_center_mouth_confidence
I1110 19:59:43.871600  7294 net.cpp:386] relu_center_mouth_confidence -> fc1_center_mouth_confidence (in-place)
I1110 19:59:43.871609  7294 net.cpp:141] Setting up relu_center_mouth_confidence
I1110 19:59:43.871613  7294 net.cpp:148] Top shape: 128 128 (16384)
I1110 19:59:43.871618  7294 net.cpp:156] Memory required for data: 601510928
I1110 19:59:43.871621  7294 layer_factory.hpp:77] Creating layer drop1_center_mouth_confidence
I1110 19:59:43.871628  7294 net.cpp:91] Creating Layer drop1_center_mouth_confidence
I1110 19:59:43.871631  7294 net.cpp:425] drop1_center_mouth_confidence <- fc1_center_mouth_confidence
I1110 19:59:43.871639  7294 net.cpp:386] drop1_center_mouth_confidence -> fc1_center_mouth_confidence (in-place)
I1110 19:59:43.871660  7294 net.cpp:141] Setting up drop1_center_mouth_confidence
I1110 19:59:43.871666  7294 net.cpp:148] Top shape: 128 128 (16384)
I1110 19:59:43.871670  7294 net.cpp:156] Memory required for data: 601576464
I1110 19:59:43.871673  7294 layer_factory.hpp:77] Creating layer fc2_center_mouth_confidence
I1110 19:59:43.871680  7294 net.cpp:91] Creating Layer fc2_center_mouth_confidence
I1110 19:59:43.871685  7294 net.cpp:425] fc2_center_mouth_confidence <- fc1_center_mouth_confidence
I1110 19:59:43.871692  7294 net.cpp:399] fc2_center_mouth_confidence -> fc2_center_mouth_confidence
I1110 19:59:43.871814  7294 net.cpp:141] Setting up fc2_center_mouth_confidence
I1110 19:59:43.871821  7294 net.cpp:148] Top shape: 128 1 (128)
I1110 19:59:43.871824  7294 net.cpp:156] Memory required for data: 601576976
I1110 19:59:43.871830  7294 layer_factory.hpp:77] Creating layer loss_center_mouth_confidence
I1110 19:59:43.871837  7294 net.cpp:91] Creating Layer loss_center_mouth_confidence
I1110 19:59:43.871840  7294 net.cpp:425] loss_center_mouth_confidence <- fc2_center_mouth_confidence
I1110 19:59:43.871846  7294 net.cpp:425] loss_center_mouth_confidence <- mouth_visibility_center
I1110 19:59:43.871858  7294 net.cpp:399] loss_center_mouth_confidence -> loss_center_mouth_confidence
I1110 19:59:43.871896  7294 net.cpp:141] Setting up loss_center_mouth_confidence
I1110 19:59:43.871904  7294 net.cpp:148] Top shape: (1)
I1110 19:59:43.871907  7294 net.cpp:151]     with loss weight 1
I1110 19:59:43.871915  7294 net.cpp:156] Memory required for data: 601576980
I1110 19:59:43.871919  7294 layer_factory.hpp:77] Creating layer fc1_right_mouth_confidence
I1110 19:59:43.871927  7294 net.cpp:91] Creating Layer fc1_right_mouth_confidence
I1110 19:59:43.871932  7294 net.cpp:425] fc1_right_mouth_confidence <- conv4_3_relu4_3_0_split_5
I1110 19:59:43.871938  7294 net.cpp:399] fc1_right_mouth_confidence -> fc1_right_mouth_confidence
I1110 19:59:43.873883  7294 net.cpp:141] Setting up fc1_right_mouth_confidence
I1110 19:59:43.873895  7294 net.cpp:148] Top shape: 128 128 (16384)
I1110 19:59:43.873898  7294 net.cpp:156] Memory required for data: 601642516
I1110 19:59:43.873903  7294 layer_factory.hpp:77] Creating layer relu_right_mouth_confidence
I1110 19:59:43.873909  7294 net.cpp:91] Creating Layer relu_right_mouth_confidence
I1110 19:59:43.873913  7294 net.cpp:425] relu_right_mouth_confidence <- fc1_right_mouth_confidence
I1110 19:59:43.873930  7294 net.cpp:386] relu_right_mouth_confidence -> fc1_right_mouth_confidence (in-place)
I1110 19:59:43.873939  7294 net.cpp:141] Setting up relu_right_mouth_confidence
I1110 19:59:43.873944  7294 net.cpp:148] Top shape: 128 128 (16384)
I1110 19:59:43.873945  7294 net.cpp:156] Memory required for data: 601708052
I1110 19:59:43.873947  7294 layer_factory.hpp:77] Creating layer drop1_right_mouth_confidence
I1110 19:59:43.873952  7294 net.cpp:91] Creating Layer drop1_right_mouth_confidence
I1110 19:59:43.873956  7294 net.cpp:425] drop1_right_mouth_confidence <- fc1_right_mouth_confidence
I1110 19:59:43.873960  7294 net.cpp:386] drop1_right_mouth_confidence -> fc1_right_mouth_confidence (in-place)
I1110 19:59:43.873975  7294 net.cpp:141] Setting up drop1_right_mouth_confidence
I1110 19:59:43.873980  7294 net.cpp:148] Top shape: 128 128 (16384)
I1110 19:59:43.873982  7294 net.cpp:156] Memory required for data: 601773588
I1110 19:59:43.873983  7294 layer_factory.hpp:77] Creating layer fc2_right_mouth_confidence
I1110 19:59:43.873996  7294 net.cpp:91] Creating Layer fc2_right_mouth_confidence
I1110 19:59:43.873998  7294 net.cpp:425] fc2_right_mouth_confidence <- fc1_right_mouth_confidence
I1110 19:59:43.874004  7294 net.cpp:399] fc2_right_mouth_confidence -> fc2_right_mouth_confidence
I1110 19:59:43.874084  7294 net.cpp:141] Setting up fc2_right_mouth_confidence
I1110 19:59:43.874089  7294 net.cpp:148] Top shape: 128 1 (128)
I1110 19:59:43.874090  7294 net.cpp:156] Memory required for data: 601774100
I1110 19:59:43.874095  7294 layer_factory.hpp:77] Creating layer loss_right_mouth_confidence
I1110 19:59:43.874099  7294 net.cpp:91] Creating Layer loss_right_mouth_confidence
I1110 19:59:43.874101  7294 net.cpp:425] loss_right_mouth_confidence <- fc2_right_mouth_confidence
I1110 19:59:43.874104  7294 net.cpp:425] loss_right_mouth_confidence <- mouth_visibility_right
…
