…
  top: "left_eye"
  top: "right_eye"
  top: "nose"
  top: "left_mouth"
  top: "center_mouth"
  top: "right_mouth"
  top: "eye_visibility_left"
  top: "eye_visibility_right"
  top: "nose_visibility"
  top: "mouth_visibility_left"
  top: "mouth_visibility_center"
  top: "mouth_visibility_right"
  include {
    phase: TRAIN
  }
  hdf5_data_param {
    source: "/home/wzleong/Downloads/nottingham_with_scaling_eye_nose_mouth/hdf5_complete/train_scaled_mean_subtracted_own_data_multiple_label_complete_data_list.txt"
    batch_size: 128
    shuffle: true
  }
}
layer {
  name: "conv1"
  type: "Convolution"
  bottom: "data"
  top: "conv1"
  param {
    lr_mult: 0
    decay_mult: 0
  }
  param {
    lr_mult: 0
    decay_mult: 0
  }
  convolution_param {
    num_output: 32
    pad: 0
    kernel_size: 13
    stride: 2
  }
}
layer {
  name: "relu1"
  type: "ReLU"
  bottom: "conv1"
  top: "conv1"
}
layer {
  name: "pool1"
  type: "Pooling"
  bottom: "conv1"
  top: "pool1"
  pooling_param {
    pool: MAX
    kernel_size: 2
    stride: 2
  }
}
layer {
  name: "conv2_1"
  type: "Convolution"
  bottom: "pool1"
  top: "conv2_1"
  param {
    lr_mult: 0
    decay_mult: 0
  }
  param {
    lr_mult: 0
    decay_mult: 0
  }
  convolution_param {
    num_output: 32
    pad: 0
    kernel_size: 3
    stride: 1
  }
}
layer {
  name: "relu2_1"
  type: "ReLU"
  bottom: "conv2_1"
  top: "conv2_1"
}
layer {
  name: "conv2_2"
  type: "Convolution"
  bottom: "conv2_1"
  top: "conv2_2"
  param {
    lr_mult: 0
    decay_mult: 0
  }
  param {
    lr_mult: 0
    decay_mult: 0
  }
  convolution_param {
    num_output: 32
    pad: 0
    kernel_size: 3
    stride: 1
  }
}
layer {
  name: "relu2_2"
  type: "ReLU"
  bottom: "conv2_2"
  top: "conv2_2"
}
layer {
  name: "conv2_3"
  type: "Convolution"
  bottom: "conv2_2"
  top: "conv2_3"
  param {
    lr_mult: 0
    decay_mult: 0
  }
  param {
    lr_mult: 0
    decay_mult: 0
  }
  convolution_param {
    num_output: 32
    pad: 0
    kernel_size: 3
    stride: 1
  }
}
layer {
  name: "relu2_3"
  type: "ReLU"
  bottom: "conv2_3"
  top: "conv2_3"
}
layer {
  name: "conv2_4"
  type: "Convolution"
  bottom: "conv2_3"
  top: "conv2_4"
  param {
    lr_mult: 0
    decay_mult: 0
  }
  param {
    lr_mult: 0
    decay_mult: 0
  }
  convolution_param {
    num_output: 32
    pad: 0
    kernel_size: 3
    stride: 1
  }
}
layer {
  name: "relu2_4"
  type: "ReLU"
  bottom: "conv2_4"
  top: "conv2_4"
}
layer {
  name: "conv2_sub"
  type: "Convolution"
  bottom: "pool1"
  top: "conv2_sub"
  param {
    lr_mult: 0
    decay_mult: 0
  }
  param {
    lr_mult: 0
    decay_mult: 0
  }
  convolution_param {
    num_output: 32
    pad: 0
    kernel_size: 3
    stride: 1
    dilation: 4
  }
}
layer {
  name: "relu2_sub"
  type: "ReLU"
  bottom: "conv2_sub"
  top: "conv2_sub"
}
layer {
  name: "concat_conv2"
  type: "Concat"
  bottom: "conv2_sub"
  bottom: "conv2_4"
  top: "concat_conv2"
  concat_param {
    axis: 1
  }
}
layer {
  name: "pool2"
  type: "Pooling"
  bottom: "concat_conv2"
  top: "pool2"
  pooling_param {
    pool: MAX
    kernel_size: 2
    stride: 2
  }
}
layer {
  name: "conv3_1"
  type: "Convolution"
  bottom: "pool2"
  top: "conv3_1"
  param {
    lr_mult: 0
    decay_mult: 0
  }
  param {
    lr_mult: 0
    decay_mult: 0
  }
  convolution_param {
    num_output: 32
    pad: 0
    kernel_size: 3
    stride: 1
  }
}
layer {
  name: "relu3_1"
  type: "ReLU"
  bottom: "conv3_1"
  top: "conv3_1"
}
layer {
  name: "conv3_2"
  type: "Convolution"
  bottom: "conv3_1"
  top: "conv3_2"
  param {
    lr_mult: 0
    decay_mult: 0
  }
  param {
    lr_mult: 0
    decay_mult: 0
  }
  convolution_param {
    num_output: 64
    pad: 0
    kernel_size: 3
    stride: 1
  }
}
layer {
  name: "relu3_2"
  type: "ReLU"
  bottom: "conv3_2"
  top: "conv3_2"
}
layer {
  name: "conv3_sub"
  type: "Convolution"
  bottom: "pool2"
  top: "conv3_sub"
  param {
    lr_mult: 0
    decay_mult: 0
  }
  param {
    lr_mult: 0
    decay_mult: 0
  }
  convolution_param {
    num_output: 64
    pad: 0
    kernel_size: 3
    stride: 1
    dilation: 2
  }
}
layer {
  name: "relu3_sub"
  type: "ReLU"
  bottom: "conv3_sub"
  top: "conv3_sub"
}
layer {
  name: "concat_conv3"
  type: "Concat"
  bottom: "conv3_sub"
  bottom: "conv3_2"
  top: "concat_conv3"
  concat_param {
    axis: 1
  }
}
layer {
  name: "pool3"
  type: "Pooling"
  bottom: "concat_conv3"
  top: "pool3"
  pooling_param {
    pool: MAX
    kernel_size: 2
    stride: 2
  }
}
layer {
  name: "conv4_1"
  type: "Convolution"
  bottom: "pool3"
  top: "conv4_1"
  param {
    lr_mult: 0
    decay_mult: 0
  }
  param {
    lr_mult: 0
    decay_mult: 0
  }
  convolution_param {
    num_output: 64
    pad: 0
    kernel_size: 3
    stride: 1
  }
}
layer {
  name: "relu4_1"
  type: "ReLU"
  bottom: "conv4_1"
  top: "conv4_1"
}
layer {
  name: "conv4_2"
  type: "Convolution"
  bottom: "conv4_1"
  top: "conv4_2"
  param {
    lr_mult: 0
    decay_mult: 0
  }
  param {
    lr_mult: 0
    decay_mult: 0
  }
  convolution_param {
    num_output: 128
    pad: 0
    kernel_size: 3
    stride: 1
  }
}
layer {
  name: "relu4_2"
  type: "ReLU"
  bottom: "conv4_2"
  top: "conv4_2"
}
layer {
  name: "conv4_3"
  type: "Convolution"
  bottom: "conv4_2"
  top: "conv4_3"
  param {
    lr_mult: 0
    decay_mult: 0
  }
  param {
    lr_mult: 0
    decay_mult: 0
  }
  convolution_param {
    num_output: 128
    pad: 0
    kernel_size: 3
    stride: 1
  }
}
layer {
  name: "relu4_3"
  type: "ReLU"
  bottom: "conv4_3"
  top: "conv4_3"
}
layer {
  name: "conv5"
  type: "Convolution"
  bottom: "conv4_3"
  top: "conv5"
  param {
    lr_mult: 0
    decay_mult: 0
  }
  param {
    lr_mult: 0
    decay_mult: 0
  }
  convolution_param {
    num_output: 512
    pad: 0
    kernel_size: 1
    stride: 1
  }
}
layer {
  name: "relu5"
  type: "ReLU"
  bottom: "conv5"
  top: "conv5"
}
layer {
  name: "fc1_left_eye_confidence"
  type: "InnerProduct"
  bottom: "conv5"
  top: "fc1_left_eye_confidence"
  param {
    lr_mult: 1
    decay_mult: 1
  }
  param {
    lr_mult: 2
    decay_mult: 0
  }
  inner_product_param {
    num_output: 54
  }
}
layer {
  name: "relu_left_eye_confidence"
  type: "ReLU"
  bottom: "fc1_left_eye_confidence"
  top: "fc1_left_eye_confidence"
}
layer {
  name: "drop1_left_eye_confidence"
  type: "Dropout"
  bottom: "fc1_left_eye_confidence"
  top: "fc1_left_eye_confidence"
  dropout_param {
    dropout_ratio: 0.125
  }
}
layer {
  name: "fc2_left_eye_confidence"
  type: "InnerProduct"
  bottom: "fc1_left_eye_confidence"
  top: "fc2_left_eye_confidence"
  param {
    lr_mult: 1
    decay_mult: 1
  }
  param {
    lr_mult: 2
    decay_mult: 0
  }
  inner_product_param {
    num_output: 1
  }
}
layer {
  name: "loss_left_eye_confidence"
  type: "EuclideanLoss"
  bottom: "fc2_left_eye_confidence"
  bottom: "eye_visibility_left"
  top: "loss_left_eye_confidence"
}
layer {
  name: "fc1_right_eye_confidence"
  type: "InnerProduct"
  bottom: "conv5"
  top: "fc1_right_eye_confidence"
  param {
    lr_mult: 1
    decay_mult: 1
  }
  param {
    lr_mult: 2
    decay_mult: 0
  }
  inner_product_param {
    num_output: 55
  }
}
layer {
  name: "relu_right_eye_confidence"
  type: "ReLU"
  bottom: "fc1_right_eye_confidence"
  top: "fc1_right_eye_confidence"
}
layer {
  name: "drop1_right_eye_confidence"
  type: "Dropout"
  bottom: "fc1_right_eye_confidence"
  top: "fc1_right_eye_confidence"
  dropout_param {
    dropout_ratio: 0.125
  }
}
layer {
  name: "fc2_right_eye_confidence"
  type: "InnerProduct"
  bottom: "fc1_right_eye_confidence"
  top: "fc2_right_eye_confidence"
  param {
    lr_mult: 1
    decay_mult: 1
  }
  param {
    lr_mult: 2
    decay_mult: 0
  }
  inner_product_param {
    num_output: 1
  }
}
layer {
  name: "loss_right_eye_confidence"
  type: "EuclideanLoss"
  bottom: "fc2_right_eye_confidence"
  bottom: "eye_visibility_right"
  top: "loss_right_eye_confidence"
}
layer {
  name: "fc1_nose_confidence"
  type: "InnerProduct"
  bottom: "conv5"
  top: "fc1_nose_confidence"
  param {
    lr_mult: 1
    decay_mult: 1
  }
  param {
    lr_mult: 2
    decay_mult: 0
  }
  inner_product_param {
    num_output: 56
  }
}
layer {
  name: "relu_nose_confidence"
  type: "ReLU"
  bottom: "fc1_nose_confidence"
  top: "fc1_nose_confidence"
}
layer {
  name: "drop1_nose_confidence"
  type: "Dropout"
  bottom: "fc1_nose_confidence"
  top: "fc1_nose_confidence"
  dropout_param {
    dropout_ratio: 0.125
  }
}
layer {
  name: "fc2_nose_confidence"
  type: "InnerProduct"
  bottom: "fc1_nose_confidence"
  top: "fc2_nose_confidence"
  param {
    lr_mult: 1
    decay_mult: 1
  }
  param {
    lr_mult: 2
    decay_mult: 0
  }
  inner_product_param {
    num_output: 1
  }
}
layer {
  name: "loss_nose_confidence"
  type: "EuclideanLoss"
  bottom: "fc2_nose_confidence"
  bottom: "nose_visibility"
  top: "loss_nose_confidence"
}
layer {
  name: "fc1_left_mouth_confidence"
  type: "InnerProduct"
  bottom: "conv5"
  top: "fc1_left_mouth_confidence"
  param {
    lr_mult: 1
    decay_mult: 1
  }
  param {
    lr_mult: 2
    decay_mult: 0
  }
  inner_product_param {
    num_output: 58
  }
}
layer {
  name: "relu_left_mouth_confidence"
  type: "ReLU"
  bottom: "fc1_left_mouth_confidence"
  top: "fc1_left_mouth_confidence"
}
layer {
  name: "drop1_left_mouth_confidence"
  type: "Dropout"
  bottom: "fc1_left_mouth_confidence"
  top: "fc1_left_mouth_confidence"
  dropout_param {
    dropout_ratio: 0.125
  }
}
layer {
  name: "fc2_left_mouth_confidence"
  type: "InnerProduct"
  bottom: "fc1_left_mouth_confidence"
  top: "fc2_left_mouth_confidence"
  param {
    lr_mult: 1
    decay_mult: 1
  }
  param {
    lr_mult: 2
    decay_mult: 0
  }
  inner_product_param {
    num_output: 1
  }
}
layer {
  name: "loss_left_mouth_confidence"
  type: "EuclideanLoss"
  bottom: "fc2_left_mouth_confidence"
  bottom: "mouth_visibility_left"
  top: "loss_left_mouth_confidence"
}
layer {
  name: "fc1_center_mouth_confidence"
  type: "InnerProduct"
  bottom: "conv5"
  top: "fc1_center_mouth_confidence"
  param {
    lr_mult: 1
    decay_mult: 1
  }
  param {
    lr_mult: 2
    decay_mult: 0
  }
  inner_product_param {
    num_output: 59
  }
}
layer {
  name: "relu_center_mouth_confidence"
  type: "ReLU"
  bottom: "fc1_center_mouth_confidence"
  top: "fc1_center_mouth_confidence"
}
layer {
  name: "drop1_center_mouth_confidence"
  type: "Dropout"
  bottom: "fc1_center_mouth_confidence"
  top: "fc1_center_mouth_confidence"
  dropout_param {
    dropout_ratio: 0.125
  }
}
layer {
  name: "fc2_center_mouth_confidence"
  type: "InnerProduct"
  bottom: "fc1_center_mouth_confidence"
  top: "fc2_center_mouth_confidence"
  param {
    lr_mult: 1
    decay_mult: 1
  }
  param {
    lr_mult: 2
    decay_mult: 0
  }
  inner_product_param {
    num_output: 1
  }
}
layer {
  name: "loss_center_mouth_confidence"
  type: "EuclideanLoss"
  bottom: "fc2_center_mouth_confidence"
  bottom: "mouth_visibility_center"
  top: "loss_center_mouth_confidence"
}
layer {
  name: "fc1_right_mouth_confidence"
  type: "InnerProduct"
  bottom: "conv5"
  top: "fc1_right_mouth_confidence"
  param {
    lr_mult: 1
    decay_mult: 1
  }
  param {
    lr_mult: 2
    decay_mult: 0
  }
  inner_product_param {
    num_output: 53
  }
}
layer {
  name: "relu_right_mouth_confidence"
  type: "ReLU"
  bottom: "fc1_right_mouth_confidence"
  top: "fc1_right_mouth_confidence"
}
layer {
  name: "drop1_right_mouth_confidence"
  type: "Dropout"
  bottom: "fc1_right_mouth_confidence"
  top: "fc1_right_mouth_confidence"
  dropout_param {
    dropout_ratio: 0.125
  }
}
layer {
  name: "fc2_right_mouth_confidence"
  type: "InnerProduct"
  bottom: "fc1_right_mouth_confidence"
  top: "fc2_right_mouth_confidence"
  param {
    lr_mult: 1
    decay_mult: 1
  }
  param {
    lr_mult: 2
    decay_mult: 0
  }
  inner_product_param {
    num_output: 1
  }
}
layer {
  name: "loss_right_mouth_confidence"
  type: "EuclideanLoss"
  bottom: "fc2_right_mouth_confidence"
  bottom: "mouth_visibility_right"
  top: "loss_right_mouth_confidence"
}
layer {
  name: "fc1_left_eye_coordinate"
  type: "InnerProduct"
  bottom: "conv5"
  top: "fc1_left_eye_coordinate"
  param {
    lr_mult: 1
    decay_mult: 1
  }
  param {
    lr_mult: 2
    decay_mult: 0
  }
  inner_product_param {
    num_output: 105
  }
}
layer {
  name: "drop1_left_eye_coordinate"
  type: "Dropout"
  bottom: "fc1_left_eye_coordinate"
  top: "fc1_left_eye_coordinate"
  dropout_param {
    dropout_ratio: 0.125
  }
}
layer {
  name: "fc2_left_eye_coordinate"
  type: "InnerProduct"
  bottom: "fc1_left_eye_coordinate"
  top: "fc2_left_eye_coordinate"
  param {
    lr_mult: 1
    decay_mult: 1
  }
  param {
    lr_mult: 2
    decay_mult: 0
  }
  inner_product_param {
    num_output: 2
  }
}
layer {
  name: "loss_left_eye_coordinate"
  type: "EuclideanLoss"
  bottom: "fc2_left_eye_coordinate"
  bottom: "left_eye"
  top: "loss_left_eye_coordinate"
}
layer {
  name: "fc1_right_eye_coordinate"
  type: "InnerProduct"
  bottom: "conv5"
  top: "fc1_right_eye_coordinate"
  param {
    lr_mult: 1
    decay_mult: 1
  }
  param {
    lr_mult: 2
    decay_mult: 0
  }
  inner_product_param {
    num_output: 56
  }
}
layer {
  name: "drop1_right_eye_coordinate"
  type: "Dropout"
  bottom: "fc1_right_eye_coordinate"
  top: "fc1_right_eye_coordinate"
  dropout_param {
    dropout_ratio: 0.125
  }
}
layer {
  name: "fc2_right_eye_coordinate"
  type: "InnerProduct"
  bottom: "fc1_right_eye_coordinate"
  top: "fc2_right_eye_coordinate"
  param {
    lr_mult: 1
    decay_mult: 1
  }
  param {
    lr_mult: 2
    decay_mult: 0
  }
  inner_product_param {
    num_output: 2
  }
}
layer {
  name: "loss_right_eye_coordinate"
  type: "EuclideanLoss"
  bottom: "fc2_right_eye_coordinate"
  bottom: "right_eye"
  top: "loss_right_eye_coordinate"
}
layer {
  name: "fc1_nose_coordinate"
  type: "InnerProduct"
  bottom: "conv5"
  top: "fc1_nose_coordinate"
  param {
    lr_mult: 1
    decay_mult: 1
  }
  param {
    lr_mult: 2
    decay_mult: 0
  }
  inner_product_param {
    num_output: 117
  }
}
layer {
  name: "drop1_nose_coordinate"
  type: "Dropout"
  bottom: "fc1_nose_coordinate"
  top: "fc1_nose_coordinate"
  dropout_param {
    dropout_ratio: 0.125
  }
}
layer {
  name: "fc2_nose_coordinate"
  type: "InnerProduct"
  bottom: "fc1_nose_coordinate"
  top: "fc2_nose_coordinate"
  param {
    lr_mult: 1
    decay_mult: 1
  }
  param {
    lr_mult: 2
    decay_mult: 0
  }
  inner_product_param {
    num_output: 2
  }
}
layer {
  name: "loss_nose_coordinate"
  type: "EuclideanLoss"
  bottom: "fc2_nose_coordinate"
  bottom: "nose"
  top: "loss_nose_coordinate"
}
layer {
  name: "fc1_left_mouth_coordinate"
  type: "InnerProduct"
  bottom: "conv5"
  top: "fc1_left_mouth_coordinate"
  param {
    lr_mult: 1
    decay_mult: 1
  }
  param {
    lr_mult: 2
    decay_mult: 0
  }
  inner_product_param {
    num_output: 62
  }
}
layer {
  name: "drop1_left_mouth_coordinate"
  type: "Dropout"
  bottom: "fc1_left_mouth_coordinate"
  top: "fc1_left_mouth_coordinate"
  dropout_param {
    dropout_ratio: 0.125
  }
}
layer {
  name: "fc2_left_mouth_coordinate"
  type: "InnerProduct"
  bottom: "fc1_left_mouth_coordinate"
  top: "fc2_left_mouth_coordinate"
  param {
    lr_mult: 1
    decay_mult: 1
  }
  param {
    lr_mult: 2
    decay_mult: 0
  }
  inner_product_param {
    num_output: 2
  }
}
layer {
  name: "loss_left_mouth_coordinate"
  type: "EuclideanLoss"
  bottom: "fc2_left_mouth_coordinate"
  bottom: "left_mouth"
  top: "loss_left_mouth_coordinate"
}
layer {
  name: "fc1_center_mouth_coordinate"
  type: "InnerProduct"
  bottom: "conv5"
  top: "fc1_center_mouth_coordinate"
  param {
    lr_mult: 1
    decay_mult: 1
  }
  param {
    lr_mult: 2
    decay_mult: 0
  }
  inner_product_param {
    num_output: 127
  }
}
layer {
  name: "drop1_center_mouth_coordinate"
  type: "Dropout"
  bottom: "fc1_center_mouth_coordinate"
  top: "fc1_center_mouth_coordinate"
  dropout_param {
    dropout_ratio: 0.125
  }
}
layer {
  name: "fc2_center_mouth_coordinate"
  type: "InnerProduct"
  bottom: "fc1_center_mouth_coordinate"
  top: "fc2_center_mouth_coordinate"
  param {
    lr_mult: 1
    decay_mult: 1
  }
  param {
    lr_mult: 2
    decay_mult: 0
  }
  inner_product_param {
    num_output: 2
  }
}
layer {
  name: "loss_center_mouth_coordinate"
  type: "EuclideanLoss"
  bottom: "fc2_center_mouth_coordinate"
  bottom: "center_mouth"
  top: "loss_center_mouth_coordinate"
}
layer {
  name: "fc1_right_mouth_coordinate"
  type: "InnerProduct"
  bottom: "conv5"
  top: "fc1_right_mouth_coordinate"
  param {
    lr_mult: 1
    decay_mult: 1
  }
  param {
    lr_mult: 2
    decay_mult: 0
  }
  inner_product_param {
    num_output: 82
  }
}
layer {
  name: "drop1_right_mouth_coordinate"
  type: "Dropout"
  bottom: "fc1_right_mouth_coordinate"
  top: "fc1_right_mouth_coordinate"
  dropout_param {
    dropout_ratio: 0.125
  }
}
layer {
  name: "fc2_right_mouth_coordinate"
  type: "InnerProduct"
  bottom: "fc1_right_mouth_coordinate"
  top: "fc2_right_mouth_coordinate"
  param {
    lr_mult: 1
    decay_mult: 1
  }
  param {
    lr_mult: 2
    decay_mult: 0
  }
  inner_product_param {
    num_output: 2
  }
}
layer {
  name: "loss_right_mouth_coordinate"
  type: "EuclideanLoss"
  bottom: "fc2_right_mouth_coordinate"
  bottom: "right_mouth"
  top: "loss_right_mouth_coordinate"
}
I0210 09:50:31.176123  2497 layer_factory.hpp:77] Creating layer data
I0210 09:50:31.176136  2497 net.cpp:91] Creating Layer data
I0210 09:50:31.176141  2497 net.cpp:399] data -> data
I0210 09:50:31.176161  2497 net.cpp:399] data -> left_eye
I0210 09:50:31.176168  2497 net.cpp:399] data -> right_eye
I0210 09:50:31.176173  2497 net.cpp:399] data -> nose
I0210 09:50:31.176177  2497 net.cpp:399] data -> left_mouth
I0210 09:50:31.176183  2497 net.cpp:399] data -> center_mouth
I0210 09:50:31.176187  2497 net.cpp:399] data -> right_mouth
I0210 09:50:31.176192  2497 net.cpp:399] data -> eye_visibility_left
I0210 09:50:31.176196  2497 net.cpp:399] data -> eye_visibility_right
I0210 09:50:31.176203  2497 net.cpp:399] data -> nose_visibility
I0210 09:50:31.176208  2497 net.cpp:399] data -> mouth_visibility_left
I0210 09:50:31.176213  2497 net.cpp:399] data -> mouth_visibility_center
I0210 09:50:31.176216  2497 net.cpp:399] data -> mouth_visibility_right
I0210 09:50:31.176223  2497 hdf5_data_layer.cpp:79] Loading list of HDF5 filenames from: /home/wzleong/Downloads/nottingham_with_scaling_eye_nose_mouth/hdf5_complete/train_scaled_mean_subtracted_own_data_multiple_label_complete_data_list.txt
I0210 09:50:31.176420  2497 hdf5_data_layer.cpp:93] Number of HDF5 files: 8
I0210 09:50:31.181079  2497 hdf5.cpp:32] Datatype class: H5T_FLOAT
I0210 09:50:31.903635  2497 net.cpp:141] Setting up data
I0210 09:50:31.903676  2497 net.cpp:148] Top shape: 128 1 200 200 (5120000)
I0210 09:50:31.903679  2497 net.cpp:148] Top shape: 128 2 (256)
I0210 09:50:31.903682  2497 net.cpp:148] Top shape: 128 2 (256)
I0210 09:50:31.903687  2497 net.cpp:148] Top shape: 128 2 (256)
I0210 09:50:31.903690  2497 net.cpp:148] Top shape: 128 2 (256)
I0210 09:50:31.903693  2497 net.cpp:148] Top shape: 128 2 (256)
I0210 09:50:31.903714  2497 net.cpp:148] Top shape: 128 2 (256)
I0210 09:50:31.903717  2497 net.cpp:148] Top shape: 128 1 (128)
I0210 09:50:31.903723  2497 net.cpp:148] Top shape: 128 1 (128)
I0210 09:50:31.903740  2497 net.cpp:148] Top shape: 128 1 (128)
I0210 09:50:31.903744  2497 net.cpp:148] Top shape: 128 1 (128)
I0210 09:50:31.903748  2497 net.cpp:148] Top shape: 128 1 (128)
I0210 09:50:31.903780  2497 net.cpp:148] Top shape: 128 1 (128)
I0210 09:50:31.903784  2497 net.cpp:156] Memory required for data: 20489216
I0210 09:50:31.903792  2497 layer_factory.hpp:77] Creating layer conv1
I0210 09:50:31.903825  2497 net.cpp:91] Creating Layer conv1
I0210 09:50:31.903832  2497 net.cpp:425] conv1 <- data
I0210 09:50:31.903844  2497 net.cpp:399] conv1 -> conv1
I0210 09:50:31.904316  2497 net.cpp:141] Setting up conv1
I0210 09:50:31.904342  2497 net.cpp:148] Top shape: 128 32 94 94 (36192256)
I0210 09:50:31.904345  2497 net.cpp:156] Memory required for data: 165258240
I0210 09:50:31.904373  2497 layer_factory.hpp:77] Creating layer relu1
I0210 09:50:31.904398  2497 net.cpp:91] Creating Layer relu1
I0210 09:50:31.904402  2497 net.cpp:425] relu1 <- conv1
I0210 09:50:31.904407  2497 net.cpp:386] relu1 -> conv1 (in-place)
I0210 09:50:31.904412  2497 net.cpp:141] Setting up relu1
I0210 09:50:31.904415  2497 net.cpp:148] Top shape: 128 32 94 94 (36192256)
I0210 09:50:31.904431  2497 net.cpp:156] Memory required for data: 310027264
I0210 09:50:31.904433  2497 layer_factory.hpp:77] Creating layer pool1
I0210 09:50:31.904444  2497 net.cpp:91] Creating Layer pool1
I0210 09:50:31.904448  2497 net.cpp:425] pool1 <- conv1
I0210 09:50:31.904453  2497 net.cpp:399] pool1 -> pool1
I0210 09:50:31.904489  2497 net.cpp:141] Setting up pool1
I0210 09:50:31.904505  2497 net.cpp:148] Top shape: 128 32 47 47 (9048064)
I0210 09:50:31.904507  2497 net.cpp:156] Memory required for data: 346219520
I0210 09:50:31.904510  2497 layer_factory.hpp:77] Creating layer pool1_pool1_0_split
I0210 09:50:31.904532  2497 net.cpp:91] Creating Layer pool1_pool1_0_split
I0210 09:50:31.904536  2497 net.cpp:425] pool1_pool1_0_split <- pool1
I0210 09:50:31.904539  2497 net.cpp:399] pool1_pool1_0_split -> pool1_pool1_0_split_0
I0210 09:50:31.904544  2497 net.cpp:399] pool1_pool1_0_split -> pool1_pool1_0_split_1
I0210 09:50:31.904587  2497 net.cpp:141] Setting up pool1_pool1_0_split
I0210 09:50:31.904608  2497 net.cpp:148] Top shape: 128 32 47 47 (9048064)
I0210 09:50:31.904609  2497 net.cpp:148] Top shape: 128 32 47 47 (9048064)
I0210 09:50:31.904611  2497 net.cpp:156] Memory required for data: 418604032
I0210 09:50:31.904628  2497 layer_factory.hpp:77] Creating layer conv2_1
I0210 09:50:31.904633  2497 net.cpp:91] Creating Layer conv2_1
I0210 09:50:31.904654  2497 net.cpp:425] conv2_1 <- pool1_pool1_0_split_0
I0210 09:50:31.904657  2497 net.cpp:399] conv2_1 -> conv2_1
I0210 09:50:31.905145  2497 net.cpp:141] Setting up conv2_1
I0210 09:50:31.905153  2497 net.cpp:148] Top shape: 128 32 45 45 (8294400)
I0210 09:50:31.905155  2497 net.cpp:156] Memory required for data: 451781632
I0210 09:50:31.905180  2497 layer_factory.hpp:77] Creating layer relu2_1
I0210 09:50:31.905185  2497 net.cpp:91] Creating Layer relu2_1
I0210 09:50:31.905189  2497 net.cpp:425] relu2_1 <- conv2_1
I0210 09:50:31.905205  2497 net.cpp:386] relu2_1 -> conv2_1 (in-place)
I0210 09:50:31.905210  2497 net.cpp:141] Setting up relu2_1
I0210 09:50:31.905213  2497 net.cpp:148] Top shape: 128 32 45 45 (8294400)
I0210 09:50:31.905215  2497 net.cpp:156] Memory required for data: 484959232
I0210 09:50:31.905217  2497 layer_factory.hpp:77] Creating layer conv2_2
I0210 09:50:31.905221  2497 net.cpp:91] Creating Layer conv2_2
I0210 09:50:31.905225  2497 net.cpp:425] conv2_2 <- conv2_1
I0210 09:50:31.905228  2497 net.cpp:399] conv2_2 -> conv2_2
I0210 09:50:31.905402  2497 net.cpp:141] Setting up conv2_2
I0210 09:50:31.905407  2497 net.cpp:148] Top shape: 128 32 43 43 (7573504)
I0210 09:50:31.905410  2497 net.cpp:156] Memory required for data: 515253248
I0210 09:50:31.905434  2497 layer_factory.hpp:77] Creating layer relu2_2
I0210 09:50:31.905439  2497 net.cpp:91] Creating Layer relu2_2
I0210 09:50:31.905441  2497 net.cpp:425] relu2_2 <- conv2_2
I0210 09:50:31.905445  2497 net.cpp:386] relu2_2 -> conv2_2 (in-place)
I0210 09:50:31.905448  2497 net.cpp:141] Setting up relu2_2
I0210 09:50:31.905452  2497 net.cpp:148] Top shape: 128 32 43 43 (7573504)
I0210 09:50:31.905452  2497 net.cpp:156] Memory required for data: 545547264
I0210 09:50:31.905483  2497 layer_factory.hpp:77] Creating layer conv2_3
I0210 09:50:31.905501  2497 net.cpp:91] Creating Layer conv2_3
I0210 09:50:31.905503  2497 net.cpp:425] conv2_3 <- conv2_2
I0210 09:50:31.905508  2497 net.cpp:399] conv2_3 -> conv2_3
I0210 09:50:31.905702  2497 net.cpp:141] Setting up conv2_3
I0210 09:50:31.905707  2497 net.cpp:148] Top shape: 128 32 41 41 (6885376)
I0210 09:50:31.905709  2497 net.cpp:156] Memory required for data: 573088768
I0210 09:50:31.905732  2497 layer_factory.hpp:77] Creating layer relu2_3
I0210 09:50:31.905737  2497 net.cpp:91] Creating Layer relu2_3
I0210 09:50:31.905740  2497 net.cpp:425] relu2_3 <- conv2_3
I0210 09:50:31.905755  2497 net.cpp:386] relu2_3 -> conv2_3 (in-place)
I0210 09:50:31.905760  2497 net.cpp:141] Setting up relu2_3
I0210 09:50:31.905781  2497 net.cpp:148] Top shape: 128 32 41 41 (6885376)
I0210 09:50:31.905783  2497 net.cpp:156] Memory required for data: 600630272
I0210 09:50:31.905786  2497 layer_factory.hpp:77] Creating layer conv2_4
I0210 09:50:31.905789  2497 net.cpp:91] Creating Layer conv2_4
I0210 09:50:31.905792  2497 net.cpp:425] conv2_4 <- conv2_3
I0210 09:50:31.905796  2497 net.cpp:399] conv2_4 -> conv2_4
I0210 09:50:31.906003  2497 net.cpp:141] Setting up conv2_4
I0210 09:50:31.906008  2497 net.cpp:148] Top shape: 128 32 39 39 (6230016)
I0210 09:50:31.906011  2497 net.cpp:156] Memory required for data: 625550336
I0210 09:50:31.906035  2497 layer_factory.hpp:77] Creating layer relu2_4
I0210 09:50:31.906039  2497 net.cpp:91] Creating Layer relu2_4
I0210 09:50:31.906042  2497 net.cpp:425] relu2_4 <- conv2_4
I0210 09:50:31.906046  2497 net.cpp:386] relu2_4 -> conv2_4 (in-place)
I0210 09:50:31.906050  2497 net.cpp:141] Setting up relu2_4
I0210 09:50:31.906054  2497 net.cpp:148] Top shape: 128 32 39 39 (6230016)
I0210 09:50:31.906055  2497 net.cpp:156] Memory required for data: 650470400
I0210 09:50:31.906057  2497 layer_factory.hpp:77] Creating layer conv2_sub
I0210 09:50:31.906062  2497 net.cpp:91] Creating Layer conv2_sub
I0210 09:50:31.906064  2497 net.cpp:425] conv2_sub <- pool1_pool1_0_split_1
I0210 09:50:31.906069  2497 net.cpp:399] conv2_sub -> conv2_sub
I0210 09:50:31.906230  2497 net.cpp:141] Setting up conv2_sub
I0210 09:50:31.906235  2497 net.cpp:148] Top shape: 128 32 39 39 (6230016)
I0210 09:50:31.906237  2497 net.cpp:156] Memory required for data: 675390464
I0210 09:50:31.906241  2497 layer_factory.hpp:77] Creating layer relu2_sub
I0210 09:50:31.906244  2497 net.cpp:91] Creating Layer relu2_sub
I0210 09:50:31.906247  2497 net.cpp:425] relu2_sub <- conv2_sub
I0210 09:50:31.906250  2497 net.cpp:386] relu2_sub -> conv2_sub (in-place)
I0210 09:50:31.906253  2497 net.cpp:141] Setting up relu2_sub
I0210 09:50:31.906256  2497 net.cpp:148] Top shape: 128 32 39 39 (6230016)
I0210 09:50:31.906258  2497 net.cpp:156] Memory required for data: 700310528
I0210 09:50:31.906260  2497 layer_factory.hpp:77] Creating layer concat_conv2
I0210 09:50:31.906263  2497 net.cpp:91] Creating Layer concat_conv2
I0210 09:50:31.906265  2497 net.cpp:425] concat_conv2 <- conv2_sub
I0210 09:50:31.906268  2497 net.cpp:425] concat_conv2 <- conv2_4
I0210 09:50:31.906271  2497 net.cpp:399] concat_conv2 -> concat_conv2
I0210 09:50:31.906287  2497 net.cpp:141] Setting up concat_conv2
I0210 09:50:31.906291  2497 net.cpp:148] Top shape: 128 64 39 39 (12460032)
I0210 09:50:31.906293  2497 net.cpp:156] Memory required for data: 750150656
I0210 09:50:31.906296  2497 layer_factory.hpp:77] Creating layer pool2
I0210 09:50:31.906299  2497 net.cpp:91] Creating Layer pool2
I0210 09:50:31.906302  2497 net.cpp:425] pool2 <- concat_conv2
I0210 09:50:31.906306  2497 net.cpp:399] pool2 -> pool2
I0210 09:50:31.906364  2497 net.cpp:141] Setting up pool2
I0210 09:50:31.906368  2497 net.cpp:148] Top shape: 128 64 20 20 (3276800)
I0210 09:50:31.906370  2497 net.cpp:156] Memory required for data: 763257856
I0210 09:50:31.906391  2497 layer_factory.hpp:77] Creating layer pool2_pool2_0_split
I0210 09:50:31.906395  2497 net.cpp:91] Creating Layer pool2_pool2_0_split
I0210 09:50:31.906404  2497 net.cpp:425] pool2_pool2_0_split <- pool2
I0210 09:50:31.906409  2497 net.cpp:399] pool2_pool2_0_split -> pool2_pool2_0_split_0
I0210 09:50:31.906430  2497 net.cpp:399] pool2_pool2_0_split -> pool2_pool2_0_split_1
I0210 09:50:31.906486  2497 net.cpp:141] Setting up pool2_pool2_0_split
I0210 09:50:31.906491  2497 net.cpp:148] Top shape: 128 64 20 20 (3276800)
I0210 09:50:31.906493  2497 net.cpp:148] Top shape: 128 64 20 20 (3276800)
I0210 09:50:31.906497  2497 net.cpp:156] Memory required for data: 789472256
I0210 09:50:31.906498  2497 layer_factory.hpp:77] Creating layer conv3_1
I0210 09:50:31.906502  2497 net.cpp:91] Creating Layer conv3_1
I0210 09:50:31.906507  2497 net.cpp:425] conv3_1 <- pool2_pool2_0_split_0
I0210 09:50:31.906509  2497 net.cpp:399] conv3_1 -> conv3_1
I0210 09:50:31.907325  2497 net.cpp:141] Setting up conv3_1
I0210 09:50:31.907333  2497 net.cpp:148] Top shape: 128 32 18 18 (1327104)
I0210 09:50:31.907337  2497 net.cpp:156] Memory required for data: 794780672
I0210 09:50:31.907341  2497 layer_factory.hpp:77] Creating layer relu3_1
I0210 09:50:31.907366  2497 net.cpp:91] Creating Layer relu3_1
I0210 09:50:31.907369  2497 net.cpp:425] relu3_1 <- conv3_1
I0210 09:50:31.907374  2497 net.cpp:386] relu3_1 -> conv3_1 (in-place)
I0210 09:50:31.907378  2497 net.cpp:141] Setting up relu3_1
I0210 09:50:31.907382  2497 net.cpp:148] Top shape: 128 32 18 18 (1327104)
I0210 09:50:31.907384  2497 net.cpp:156] Memory required for data: 800089088
I0210 09:50:31.907399  2497 layer_factory.hpp:77] Creating layer conv3_2
I0210 09:50:31.907404  2497 net.cpp:91] Creating Layer conv3_2
I0210 09:50:31.907420  2497 net.cpp:425] conv3_2 <- conv3_1
I0210 09:50:31.907425  2497 net.cpp:399] conv3_2 -> conv3_2
I0210 09:50:31.907618  2497 net.cpp:141] Setting up conv3_2
I0210 09:50:31.907622  2497 net.cpp:148] Top shape: 128 64 16 16 (2097152)
I0210 09:50:31.907624  2497 net.cpp:156] Memory required for data: 808477696
I0210 09:50:31.907641  2497 layer_factory.hpp:77] Creating layer relu3_2
I0210 09:50:31.907646  2497 net.cpp:91] Creating Layer relu3_2
I0210 09:50:31.907649  2497 net.cpp:425] relu3_2 <- conv3_2
I0210 09:50:31.907651  2497 net.cpp:386] relu3_2 -> conv3_2 (in-place)
I0210 09:50:31.907655  2497 net.cpp:141] Setting up relu3_2
I0210 09:50:31.907658  2497 net.cpp:148] Top shape: 128 64 16 16 (2097152)
I0210 09:50:31.907660  2497 net.cpp:156] Memory required for data: 816866304
I0210 09:50:31.907661  2497 layer_factory.hpp:77] Creating layer conv3_sub
I0210 09:50:31.907666  2497 net.cpp:91] Creating Layer conv3_sub
I0210 09:50:31.907688  2497 net.cpp:425] conv3_sub <- pool2_pool2_0_split_1
I0210 09:50:31.907693  2497 net.cpp:399] conv3_sub -> conv3_sub
I0210 09:50:31.907876  2497 net.cpp:141] Setting up conv3_sub
I0210 09:50:31.907881  2497 net.cpp:148] Top shape: 128 64 16 16 (2097152)
I0210 09:50:31.907883  2497 net.cpp:156] Memory required for data: 825254912
I0210 09:50:31.907889  2497 layer_factory.hpp:77] Creating layer relu3_sub
I0210 09:50:31.907893  2497 net.cpp:91] Creating Layer relu3_sub
I0210 09:50:31.907896  2497 net.cpp:425] relu3_sub <- conv3_sub
I0210 09:50:31.907899  2497 net.cpp:386] relu3_sub -> conv3_sub (in-place)
I0210 09:50:31.907903  2497 net.cpp:141] Setting up relu3_sub
I0210 09:50:31.907905  2497 net.cpp:148] Top shape: 128 64 16 16 (2097152)
I0210 09:50:31.907907  2497 net.cpp:156] Memory required for data: 833643520
I0210 09:50:31.907909  2497 layer_factory.hpp:77] Creating layer concat_conv3
I0210 09:50:31.907912  2497 net.cpp:91] Creating Layer concat_conv3
I0210 09:50:31.907933  2497 net.cpp:425] concat_conv3 <- conv3_sub
I0210 09:50:31.907937  2497 net.cpp:425] concat_conv3 <- conv3_2
I0210 09:50:31.907939  2497 net.cpp:399] concat_conv3 -> concat_conv3
I0210 09:50:31.907951  2497 net.cpp:141] Setting up concat_conv3
I0210 09:50:31.907973  2497 net.cpp:148] Top shape: 128 128 16 16 (4194304)
I0210 09:50:31.907974  2497 net.cpp:156] Memory required for data: 850420736
I0210 09:50:31.907976  2497 layer_factory.hpp:77] Creating layer pool3
I0210 09:50:31.907979  2497 net.cpp:91] Creating Layer pool3
I0210 09:50:31.907989  2497 net.cpp:425] pool3 <- concat_conv3
I0210 09:50:31.907992  2497 net.cpp:399] pool3 -> pool3
I0210 09:50:31.908016  2497 net.cpp:141] Setting up pool3
I0210 09:50:31.908020  2497 net.cpp:148] Top shape: 128 128 8 8 (1048576)
I0210 09:50:31.908022  2497 net.cpp:156] Memory required for data: 854615040
I0210 09:50:31.908025  2497 layer_factory.hpp:77] Creating layer conv4_1
I0210 09:50:31.908028  2497 net.cpp:91] Creating Layer conv4_1
I0210 09:50:31.908032  2497 net.cpp:425] conv4_1 <- pool3
I0210 09:50:31.908035  2497 net.cpp:399] conv4_1 -> conv4_1
I0210 09:50:31.908555  2497 net.cpp:141] Setting up conv4_1
I0210 09:50:31.908565  2497 net.cpp:148] Top shape: 128 64 6 6 (294912)
I0210 09:50:31.908566  2497 net.cpp:156] Memory required for data: 855794688
I0210 09:50:31.908584  2497 layer_factory.hpp:77] Creating layer relu4_1
I0210 09:50:31.908589  2497 net.cpp:91] Creating Layer relu4_1
I0210 09:50:31.908592  2497 net.cpp:425] relu4_1 <- conv4_1
I0210 09:50:31.908596  2497 net.cpp:386] relu4_1 -> conv4_1 (in-place)
I0210 09:50:31.908617  2497 net.cpp:141] Setting up relu4_1
I0210 09:50:31.908619  2497 net.cpp:148] Top shape: 128 64 6 6 (294912)
I0210 09:50:31.908622  2497 net.cpp:156] Memory required for data: 856974336
I0210 09:50:31.908623  2497 layer_factory.hpp:77] Creating layer conv4_2
I0210 09:50:31.908640  2497 net.cpp:91] Creating Layer conv4_2
I0210 09:50:31.908643  2497 net.cpp:425] conv4_2 <- conv4_1
I0210 09:50:31.908646  2497 net.cpp:399] conv4_2 -> conv4_2
I0210 09:50:31.908818  2497 net.cpp:141] Setting up conv4_2
I0210 09:50:31.908824  2497 net.cpp:148] Top shape: 128 128 4 4 (262144)
I0210 09:50:31.908825  2497 net.cpp:156] Memory required for data: 858022912
I0210 09:50:31.908830  2497 layer_factory.hpp:77] Creating layer relu4_2
I0210 09:50:31.908833  2497 net.cpp:91] Creating Layer relu4_2
I0210 09:50:31.908835  2497 net.cpp:425] relu4_2 <- conv4_2
I0210 09:50:31.908838  2497 net.cpp:386] relu4_2 -> conv4_2 (in-place)
I0210 09:50:31.908841  2497 net.cpp:141] Setting up relu4_2
I0210 09:50:31.908844  2497 net.cpp:148] Top shape: 128 128 4 4 (262144)
I0210 09:50:31.908860  2497 net.cpp:156] Memory required for data: 859071488
I0210 09:50:31.908862  2497 layer_factory.hpp:77] Creating layer conv4_3
I0210 09:50:31.908867  2497 net.cpp:91] Creating Layer conv4_3
I0210 09:50:31.908869  2497 net.cpp:425] conv4_3 <- conv4_2
I0210 09:50:31.908872  2497 net.cpp:399] conv4_3 -> conv4_3
I0210 09:50:31.909415  2497 net.cpp:141] Setting up conv4_3
I0210 09:50:31.909422  2497 net.cpp:148] Top shape: 128 128 2 2 (65536)
I0210 09:50:31.909425  2497 net.cpp:156] Memory required for data: 859333632
I0210 09:50:31.909443  2497 layer_factory.hpp:77] Creating layer relu4_3
I0210 09:50:31.909448  2497 net.cpp:91] Creating Layer relu4_3
I0210 09:50:31.909451  2497 net.cpp:425] relu4_3 <- conv4_3
I0210 09:50:31.909467  2497 net.cpp:386] relu4_3 -> conv4_3 (in-place)
I0210 09:50:31.909471  2497 net.cpp:141] Setting up relu4_3
I0210 09:50:31.909474  2497 net.cpp:148] Top shape: 128 128 2 2 (65536)
I0210 09:50:31.909476  2497 net.cpp:156] Memory required for data: 859595776
I0210 09:50:31.909478  2497 layer_factory.hpp:77] Creating layer conv5
I0210 09:50:31.909484  2497 net.cpp:91] Creating Layer conv5
I0210 09:50:31.909487  2497 net.cpp:425] conv5 <- conv4_3
I0210 09:50:31.909492  2497 net.cpp:399] conv5 -> conv5
I0210 09:50:31.909735  2497 net.cpp:141] Setting up conv5
I0210 09:50:31.909744  2497 net.cpp:148] Top shape: 128 512 2 2 (262144)
I0210 09:50:31.909749  2497 net.cpp:156] Memory required for data: 860644352
I0210 09:50:31.909754  2497 layer_factory.hpp:77] Creating layer relu5
I0210 09:50:31.909762  2497 net.cpp:91] Creating Layer relu5
I0210 09:50:31.909766  2497 net.cpp:425] relu5 <- conv5
I0210 09:50:31.909770  2497 net.cpp:386] relu5 -> conv5 (in-place)
I0210 09:50:31.909777  2497 net.cpp:141] Setting up relu5
I0210 09:50:31.909782  2497 net.cpp:148] Top shape: 128 512 2 2 (262144)
I0210 09:50:31.909785  2497 net.cpp:156] Memory required for data: 861692928
I0210 09:50:31.909812  2497 layer_factory.hpp:77] Creating layer conv5_relu5_0_split
I0210 09:50:31.909835  2497 net.cpp:91] Creating Layer conv5_relu5_0_split
I0210 09:50:31.909853  2497 net.cpp:425] conv5_relu5_0_split <- conv5
I0210 09:50:31.909862  2497 net.cpp:399] conv5_relu5_0_split -> conv5_relu5_0_split_0
I0210 09:50:31.909884  2497 net.cpp:399] conv5_relu5_0_split -> conv5_relu5_0_split_1
I0210 09:50:31.909893  2497 net.cpp:399] conv5_relu5_0_split -> conv5_relu5_0_split_2
I0210 09:50:31.909916  2497 net.cpp:399] conv5_relu5_0_split -> conv5_relu5_0_split_3
I0210 09:50:31.909921  2497 net.cpp:399] conv5_relu5_0_split -> conv5_relu5_0_split_4
I0210 09:50:31.909940  2497 net.cpp:399] conv5_relu5_0_split -> conv5_relu5_0_split_5
I0210 09:50:31.909946  2497 net.cpp:399] conv5_relu5_0_split -> conv5_relu5_0_split_6
I0210 09:50:31.909967  2497 net.cpp:399] conv5_relu5_0_split -> conv5_relu5_0_split_7
I0210 09:50:31.909972  2497 net.cpp:399] conv5_relu5_0_split -> conv5_relu5_0_split_8
I0210 09:50:31.909979  2497 net.cpp:399] conv5_relu5_0_split -> conv5_relu5_0_split_9
I0210 09:50:31.909986  2497 net.cpp:399] conv5_relu5_0_split -> conv5_relu5_0_split_10
I0210 09:50:31.909991  2497 net.cpp:399] conv5_relu5_0_split -> conv5_relu5_0_split_11
I0210 09:50:31.910115  2497 net.cpp:141] Setting up conv5_relu5_0_split
I0210 09:50:31.910118  2497 net.cpp:148] Top shape: 128 512 2 2 (262144)
I0210 09:50:31.910122  2497 net.cpp:148] Top shape: 128 512 2 2 (262144)
I0210 09:50:31.910125  2497 net.cpp:148] Top shape: 128 512 2 2 (262144)
I0210 09:50:31.910127  2497 net.cpp:148] Top shape: 128 512 2 2 (262144)
I0210 09:50:31.910130  2497 net.cpp:148] Top shape: 128 512 2 2 (262144)
I0210 09:50:31.910133  2497 net.cpp:148] Top shape: 128 512 2 2 (262144)
I0210 09:50:31.910135  2497 net.cpp:148] Top shape: 128 512 2 2 (262144)
I0210 09:50:31.910151  2497 net.cpp:148] Top shape: 128 512 2 2 (262144)
I0210 09:50:31.910154  2497 net.cpp:148] Top shape: 128 512 2 2 (262144)
I0210 09:50:31.910157  2497 net.cpp:148] Top shape: 128 512 2 2 (262144)
I0210 09:50:31.910174  2497 net.cpp:148] Top shape: 128 512 2 2 (262144)
I0210 09:50:31.910176  2497 net.cpp:148] Top shape: 128 512 2 2 (262144)
I0210 09:50:31.910178  2497 net.cpp:156] Memory required for data: 874275840
I0210 09:50:31.910181  2497 layer_factory.hpp:77] Creating layer fc1_left_eye_confidence
I0210 09:50:31.910192  2497 net.cpp:91] Creating Layer fc1_left_eye_confidence
I0210 09:50:31.910195  2497 net.cpp:425] fc1_left_eye_confidence <- conv5_relu5_0_split_0
I0210 09:50:31.910199  2497 net.cpp:399] fc1_left_eye_confidence -> fc1_left_eye_confidence
I0210 09:50:31.910341  2497 net.cpp:141] Setting up fc1_left_eye_confidence
I0210 09:50:31.910346  2497 net.cpp:148] Top shape: 128 54 (6912)
I0210 09:50:31.910348  2497 net.cpp:156] Memory required for data: 874303488
I0210 09:50:31.910352  2497 layer_factory.hpp:77] Creating layer relu_left_eye_confidence
I0210 09:50:31.910356  2497 net.cpp:91] Creating Layer relu_left_eye_confidence
I0210 09:50:31.910358  2497 net.cpp:425] relu_left_eye_confidence <- fc1_left_eye_confidence
I0210 09:50:31.910363  2497 net.cpp:386] relu_left_eye_confidence -> fc1_left_eye_confidence (in-place)
I0210 09:50:31.910367  2497 net.cpp:141] Setting up relu_left_eye_confidence
I0210 09:50:31.910372  2497 net.cpp:148] Top shape: 128 54 (6912)
I0210 09:50:31.910372  2497 net.cpp:156] Memory required for data: 874331136
I0210 09:50:31.910374  2497 layer_factory.hpp:77] Creating layer drop1_left_eye_confidence
I0210 09:50:31.910379  2497 net.cpp:91] Creating Layer drop1_left_eye_confidence
I0210 09:50:31.910382  2497 net.cpp:425] drop1_left_eye_confidence <- fc1_left_eye_confidence
I0210 09:50:31.910384  2497 net.cpp:386] drop1_left_eye_confidence -> fc1_left_eye_confidence (in-place)
I0210 09:50:31.910398  2497 net.cpp:141] Setting up drop1_left_eye_confidence
I0210 09:50:31.910403  2497 net.cpp:148] Top shape: 128 54 (6912)
I0210 09:50:31.910404  2497 net.cpp:156] Memory required for data: 874358784
I0210 09:50:31.910406  2497 layer_factory.hpp:77] Creating layer fc2_left_eye_confidence
I0210 09:50:31.910418  2497 net.cpp:91] Creating Layer fc2_left_eye_confidence
I0210 09:50:31.910419  2497 net.cpp:425] fc2_left_eye_confidence <- fc1_left_eye_confidence
I0210 09:50:31.910424  2497 net.cpp:399] fc2_left_eye_confidence -> fc2_left_eye_confidence
I0210 09:50:31.910491  2497 net.cpp:141] Setting up fc2_left_eye_confidence
I0210 09:50:31.910496  2497 net.cpp:148] Top shape: 128 1 (128)
I0210 09:50:31.910498  2497 net.cpp:156] Memory required for data: 874359296
I0210 09:50:31.910502  2497 layer_factory.hpp:77] Creating layer loss_left_eye_confidence
I0210 09:50:31.910506  2497 net.cpp:91] Creating Layer loss_left_eye_confidence
I0210 09:50:31.910508  2497 net.cpp:425] loss_left_eye_confidence <- fc2_left_eye_confidence
I0210 09:50:31.910511  2497 net.cpp:425] loss_left_eye_confidence <- eye_visibility_left
I0210 09:50:31.910516  2497 net.cpp:399] loss_left_eye_confidence -> loss_left_eye_confidence
I0210 09:50:31.910540  2497 net.cpp:141] Setting up loss_left_eye_confidence
I0210 09:50:31.910543  2497 net.cpp:148] Top shape: (1)
I0210 09:50:31.910545  2497 net.cpp:151]     with loss weight 1
I0210 09:50:31.910564  2497 net.cpp:156] Memory required for data: 874359300
I0210 09:50:31.910567  2497 layer_factory.hpp:77] Creating layer fc1_right_eye_confidence
I0210 09:50:31.910569  2497 net.cpp:91] Creating Layer fc1_right_eye_confidence
I0210 09:50:31.910571  2497 net.cpp:425] fc1_right_eye_confidence <- conv5_relu5_0_split_1
I0210 09:50:31.910578  2497 net.cpp:399] fc1_right_eye_confidence -> fc1_right_eye_confidence
I0210 09:50:31.910699  2497 net.cpp:141] Setting up fc1_right_eye_confidence
I0210 09:50:31.910704  2497 net.cpp:148] Top shape: 128 55 (7040)
I0210 09:50:31.910706  2497 net.cpp:156] Memory required for data: 874387460
I0210 09:50:31.910711  2497 layer_factory.hpp:77] Creating layer relu_right_eye_confidence
I0210 09:50:31.910714  2497 net.cpp:91] Creating Layer relu_right_eye_confidence
I0210 09:50:31.910717  2497 net.cpp:425] relu_right_eye_confidence <- fc1_right_eye_confidence
I0210 09:50:31.910722  2497 net.cpp:386] relu_right_eye_confidence -> fc1_right_eye_confidence (in-place)
I0210 09:50:31.910725  2497 net.cpp:141] Setting up relu_right_eye_confidence
I0210 09:50:31.910728  2497 net.cpp:148] Top shape: 128 55 (7040)
I0210 09:50:31.910729  2497 net.cpp:156] Memory required for data: 874415620
I0210 09:50:31.910732  2497 layer_factory.hpp:77] Creating layer drop1_right_eye_confidence
I0210 09:50:31.910735  2497 net.cpp:91] Creating Layer drop1_right_eye_confidence
I0210 09:50:31.910737  2497 net.cpp:425] drop1_right_eye_confidence <- fc1_right_eye_confidence
I0210 09:50:31.910740  2497 net.cpp:386] drop1_right_eye_confidence -> fc1_right_eye_confidence (in-place)
I0210 09:50:31.910753  2497 net.cpp:141] Setting up drop1_right_eye_confidence
I0210 09:50:31.910756  2497 net.cpp:148] Top shape: 128 55 (7040)
I0210 09:50:31.910758  2497 net.cpp:156] Memory required for data: 874443780
I0210 09:50:31.910759  2497 layer_factory.hpp:77] Creating layer fc2_right_eye_confidence
I0210 09:50:31.910763  2497 net.cpp:91] Creating Layer fc2_right_eye_confidence
I0210 09:50:31.910765  2497 net.cpp:425] fc2_right_eye_confidence <- fc1_right_eye_confidence
I0210 09:50:31.910770  2497 net.cpp:399] fc2_right_eye_confidence -> fc2_right_eye_confidence
I0210 09:50:31.910835  2497 net.cpp:141] Setting up fc2_right_eye_confidence
I0210 09:50:31.910840  2497 net.cpp:148] Top shape: 128 1 (128)
I0210 09:50:31.910842  2497 net.cpp:156] Memory required for data: 874444292
I0210 09:50:31.910851  2497 layer_factory.hpp:77] Creating layer loss_right_eye_confidence
I0210 09:50:31.910854  2497 net.cpp:91] Creating Layer loss_right_eye_confidence
I0210 09:50:31.910857  2497 net.cpp:425] loss_right_eye_confidence <- fc2_right_eye_confidence
I0210 09:50:31.910861  2497 net.cpp:425] loss_right_eye_confidence <- eye_visibility_right
I0210 09:50:31.910864  2497 net.cpp:399] loss_right_eye_confidence -> loss_right_eye_confidence
I0210 09:50:31.910887  2497 net.cpp:141] Setting up loss_right_eye_confidence
I0210 09:50:31.910897  2497 net.cpp:148] Top shape: (1)
I0210 09:50:31.910898  2497 net.cpp:151]     with loss weight 1
I0210 09:50:31.910903  2497 net.cpp:156] Memory required for data: 874444296
I0210 09:50:31.910905  2497 layer_factory.hpp:77] Creating layer fc1_nose_confidence
I0210 09:50:31.910908  2497 net.cpp:91] Creating Layer fc1_nose_confidence
I0210 09:50:31.910912  2497 net.cpp:425] fc1_nose_confidence <- conv5_relu5_0_split_2
I0210 09:50:31.910917  2497 net.cpp:399] fc1_nose_confidence -> fc1_nose_confidence
I0210 09:50:31.911394  2497 net.cpp:141] Setting up fc1_nose_confidence
I0210 09:50:31.911402  2497 net.cpp:148] Top shape: 128 56 (7168)
I0210 09:50:31.911406  2497 net.cpp:156] Memory required for data: 874472968
I0210 09:50:31.911411  2497 layer_factory.hpp:77] Creating layer relu_nose_confidence
I0210 09:50:31.911414  2497 net.cpp:91] Creating Layer relu_nose_confidence
I0210 09:50:31.911418  2497 net.cpp:425] relu_nose_confidence <- fc1_nose_confidence
I0210 09:50:31.911422  2497 net.cpp:386] relu_nose_confidence -> fc1_nose_confidence (in-place)
I0210 09:50:31.911427  2497 net.cpp:141] Setting up relu_nose_confidence
I0210 09:50:31.911430  2497 net.cpp:148] Top shape: 128 56 (7168)
I0210 09:50:31.911432  2497 net.cpp:156] Memory required for data: 874501640
I0210 09:50:31.911434  2497 layer_factory.hpp:77] Creating layer drop1_nose_confidence
I0210 09:50:31.911438  2497 net.cpp:91] Creating Layer drop1_nose_confidence
I0210 09:50:31.911440  2497 net.cpp:425] drop1_nose_confidence <- fc1_nose_confidence
I0210 09:50:31.911443  2497 net.cpp:386] drop1_nose_confidence -> fc1_nose_confidence (in-place)
I0210 09:50:31.911455  2497 net.cpp:141] Setting up drop1_nose_confidence
I0210 09:50:31.911459  2497 net.cpp:148] Top shape: 128 56 (7168)
I0210 09:50:31.911460  2497 net.cpp:156] Memory required for data: 874530312
I0210 09:50:31.911463  2497 layer_factory.hpp:77] Creating layer fc2_nose_confidence
I0210 09:50:31.911468  2497 net.cpp:91] Creating Layer fc2_nose_confidence
I0210 09:50:31.911469  2497 net.cpp:425] fc2_nose_confidence <- fc1_nose_confidence
I0210 09:50:31.911475  2497 net.cpp:399] fc2_nose_confidence -> fc2_nose_confidence
I0210 09:50:31.911540  2497 net.cpp:141] Setting up fc2_nose_confidence
I0210 09:50:31.911543  2497 net.cpp:148] Top shape: 128 1 (128)
I0210 09:50:31.911545  2497 net.cpp:156] Memory required for data: 874530824
I0210 09:50:31.911550  2497 layer_factory.hpp:77] Creating layer loss_nose_confidence
I0210 09:50:31.911552  2497 net.cpp:91] Creating Layer loss_nose_confidence
I0210 09:50:31.911556  2497 net.cpp:425] loss_nose_confidence <- fc2_nose_confidence
I0210 09:50:31.911558  2497 net.cpp:425] loss_nose_confidence <- nose_visibility
I0210 09:50:31.911562  2497 net.cpp:399] loss_nose_confidence -> loss_nose_confidence
I0210 09:50:31.911582  2497 net.cpp:141] Setting up loss_nose_confidence
I0210 09:50:31.911586  2497 net.cpp:148] Top shape: (1)
I0210 09:50:31.911588  2497 net.cpp:151]     with loss weight 1
I0210 09:50:31.911592  2497 net.cpp:156] Memory required for data: 874530828
I0210 09:50:31.911594  2497 layer_factory.hpp:77] Creating layer fc1_left_mouth_confidence
I0210 09:50:31.911599  2497 net.cpp:91] Creating Layer fc1_left_mouth_confidence
I0210 09:50:31.911602  2497 net.cpp:425] fc1_left_mouth_confidence <- conv5_relu5_0_split_3
I0210 09:50:31.911604  2497 net.cpp:399] fc1_left_mouth_confidence -> fc1_left_mouth_confidence
I0210 09:50:31.911727  2497 net.cpp:141] Setting up fc1_left_mouth_confidence
I0210 09:50:31.911732  2497 net.cpp:148] Top shape: 128 58 (7424)
I0210 09:50:31.911734  2497 net.cpp:156] Memory required for data: 874560524
I0210 09:50:31.911738  2497 layer_factory.hpp:77] Creating layer relu_left_mouth_confidence
I0210 09:50:31.911741  2497 net.cpp:91] Creating Layer relu_left_mouth_confidence
I0210 09:50:31.911744  2497 net.cpp:425] relu_left_mouth_confidence <- fc1_left_mouth_confidence
I0210 09:50:31.911748  2497 net.cpp:386] relu_left_mouth_confidence -> fc1_left_mouth_confidence (in-place)
I0210 09:50:31.911752  2497 net.cpp:141] Setting up relu_left_mouth_confidence
I0210 09:50:31.911763  2497 net.cpp:148] Top shape: 128 58 (7424)
I0210 09:50:31.911765  2497 net.cpp:156] Memory required for data: 874590220
I0210 09:50:31.911767  2497 layer_factory.hpp:77] Creating layer drop1_left_mouth_confidence
I0210 09:50:31.911770  2497 net.cpp:91] Creating Layer drop1_left_mouth_confidence
I0210 09:50:31.911772  2497 net.cpp:425] drop1_left_mouth_confidence <- fc1_left_mouth_confidence
I0210 09:50:31.911777  2497 net.cpp:386] drop1_left_mouth_confidence -> fc1_left_mouth_confidence (in-place)
I0210 09:50:31.911789  2497 net.cpp:141] Setting up drop1_left_mouth_confidence
I0210 09:50:31.911792  2497 net.cpp:148] Top shape: 128 58 (7424)
I0210 09:50:31.911794  2497 net.cpp:156] Memory required for data: 874619916
I0210 09:50:31.911797  2497 layer_factory.hpp:77] Creating layer fc2_left_mouth_confidence
I0210 09:50:31.911801  2497 net.cpp:91] Creating Layer fc2_left_mouth_confidence
I0210 09:50:31.911804  2497 net.cpp:425] fc2_left_mouth_confidence <- fc1_left_mouth_confidence
I0210 09:50:31.911808  2497 net.cpp:399] fc2_left_mouth_confidence -> fc2_left_mouth_confidence
I0210 09:50:31.911870  2497 net.cpp:141] Setting up fc2_left_mouth_confidence
I0210 09:50:31.911875  2497 net.cpp:148] Top shape: 128 1 (128)
I0210 09:50:31.911876  2497 net.cpp:156] Memory required for data: 874620428
I0210 09:50:31.911880  2497 layer_factory.hpp:77] Creating layer loss_left_mouth_confidence
I0210 09:50:31.911885  2497 net.cpp:91] Creating Layer loss_left_mouth_confidence
I0210 09:50:31.911888  2497 net.cpp:425] loss_left_mouth_confidence <- fc2_left_mouth_confidence
I0210 09:50:31.911891  2497 net.cpp:425] loss_left_mouth_confidence <- mouth_visibility_left
I0210 09:50:31.911895  2497 net.cpp:399] loss_left_mouth_confidence -> loss_left_mouth_confidence
I0210 09:50:31.911916  2497 net.cpp:141] Setting up loss_left_mouth_confidence
I0210 09:50:31.911921  2497 net.cpp:148] Top shape: (1)
I0210 09:50:31.911922  2497 net.cpp:151]     with loss weight 1
I0210 09:50:31.911926  2497 net.cpp:156] Memory required for data: 874620432
I0210 09:50:31.911928  2497 layer_factory.hpp:77] Creating layer fc1_center_mouth_confidence
I0210 09:50:31.911931  2497 net.cpp:91] Creating Layer fc1_center_mouth_confidence
I0210 09:50:31.911933  2497 net.cpp:425] fc1_center_mouth_confidence <- conv5_relu5_0_split_4
I0210 09:50:31.911938  2497 net.cpp:399] fc1_center_mouth_confidence -> fc1_center_mouth_confidence
I0210 09:50:31.912386  2497 net.cpp:141] Setting up fc1_center_mouth_confidence
I0210 09:50:31.912395  2497 net.cpp:148] Top shape: 128 59 (7552)
I0210 09:50:31.912396  2497 net.cpp:156] Memory required for data: 874650640
I0210 09:50:31.912400  2497 layer_factory.hpp:77] Creating layer relu_center_mouth_confidence
I0210 09:50:31.912405  2497 net.cpp:91] Creating Layer relu_center_mouth_confidence
I0210 09:50:31.912408  2497 net.cpp:425] relu_center_mouth_confidence <- fc1_center_mouth_confidence
I0210 09:50:31.912412  2497 net.cpp:386] relu_center_mouth_confidence -> fc1_center_mouth_confidence (in-place)
I0210 09:50:31.912416  2497 net.cpp:141] Setting up relu_center_mouth_confidence
I0210 09:50:31.912420  2497 net.cpp:148] Top shape: 128 59 (7552)
I0210 09:50:31.912422  2497 net.cpp:156] Memory required for data: 874680848
I0210 09:50:31.912425  2497 layer_factory.hpp:77] Creating layer drop1_center_mouth_confidence
I0210 09:50:31.912428  2497 net.cpp:91] Creating Layer drop1_center_mouth_confidence
I0210 09:50:31.912432  2497 net.cpp:425] drop1_center_mouth_confidence <- fc1_center_mouth_confidence
I0210 09:50:31.912436  2497 net.cpp:386] drop1_center_mouth_confidence -> fc1_center_mouth_confidence (in-place)
I0210 09:50:31.912446  2497 net.cpp:141] Setting up drop1_center_mouth_confidence
I0210 09:50:31.912451  2497 net.cpp:148] Top shape: 128 59 (7552)
I0210 09:50:31.912452  2497 net.cpp:156] Memory required for data: 874711056
I0210 09:50:31.912454  2497 layer_factory.hpp:77] Creating layer fc2_center_mouth_confidence
I0210 09:50:31.912457  2497 net.cpp:91] Creating Layer fc2_center_mouth_confidence
I0210 09:50:31.912467  2497 net.cpp:425] fc2_center_mouth_confidence <- fc1_center_mouth_confidence
I0210 09:50:31.912472  2497 net.cpp:399] fc2_center_mouth_confidence -> fc2_center_mouth_confidence
I0210 09:50:31.912539  2497 net.cpp:141] Setting up fc2_center_mouth_confidence
I0210 09:50:31.912542  2497 net.cpp:148] Top shape: 128 1 (128)
I0210 09:50:31.912544  2497 net.cpp:156] Memory required for data: 874711568
I0210 09:50:31.912549  2497 layer_factory.hpp:77] Creating layer loss_center_mouth_confidence
I0210 09:50:31.912551  2497 net.cpp:91] Creating Layer loss_center_mouth_confidence
I0210 09:50:31.912554  2497 net.cpp:425] loss_center_mouth_confidence <- fc2_center_mouth_confidence
I0210 09:50:31.912556  2497 net.cpp:425] loss_center_mouth_confidence <- mouth_visibility_center
I0210 09:50:31.912562  2497 net.cpp:399] loss_center_mouth_confidence -> loss_center_mouth_confidence
I0210 09:50:31.912583  2497 net.cpp:141] Setting up loss_center_mouth_confidence
I0210 09:50:31.912586  2497 net.cpp:148] Top shape: (1)
I0210 09:50:31.912588  2497 net.cpp:151]     with loss weight 1
I0210 09:50:31.912592  2497 net.cpp:156] Memory required for data: 874711572
I0210 09:50:31.912595  2497 layer_factory.hpp:77] Creating layer fc1_right_mouth_confidence
I0210 09:50:31.912600  2497 net.cpp:91] Creating Layer fc1_right_mouth_confidence
I0210 09:50:31.912603  2497 net.cpp:425] fc1_right_mouth_confidence <- conv5_relu5_0_split_5
I0210 09:50:31.912607  2497 net.cpp:399] fc1_right_mouth_confidence -> fc1_right_mouth_confidence
I0210 09:50:31.912724  2497 net.cpp:141] Setting up fc1_right_mouth_confidence
I0210 09:50:31.912729  2497 net.cpp:148] Top shape: 128 53 (6784)
I0210 09:50:31.912729  2497 net.cpp:156] Memory required for data: 874738708
I0210 09:50:31.912734  2497 layer_factory.hpp:77] Creating layer relu_right_mouth_confidence
I0210 09:50:31.912737  2497 net.cpp:91] Creating Layer relu_right_mouth_confidence
I0210 09:50:31.912739  2497 net.cpp:425] relu_right_mouth_confidence <- fc1_right_mouth_confidence
I0210 09:50:31.912744  2497 net.cpp:386] relu_right_mouth_confidence -> fc1_right_mouth_confidence (in-place)
I0210 09:50:31.912748  2497 net.cpp:141] Setting up relu_right_mouth_confidence
I0210 09:50:31.912751  2497 net.cpp:148] Top shape: 128 53 (6784)
I0210 09:50:31.912752  2497 net.cpp:156] Memory required for data: 874765844
I0210 09:50:31.912755  2497 layer_factory.hpp:77] Creating layer drop1_right_mouth_confidence
I0210 09:50:31.912758  2497 net.cpp:91] Creating Layer drop1_right_mouth_confidence
I0210 09:50:31.912760  2497 net.cpp:425] drop1_right_mouth_confidence <- fc1_right_mouth_confidence
I0210 09:50:31.912763  2497 net.cpp:386] drop1_right_mouth_confidence -> fc1_right_mouth_confidence (in-place)
I0210 09:50:31.912775  2497 net.cpp:141] Setting up drop1_right_mouth_confidence
I0210 09:50:31.912778  2497 net.cpp:148] Top shape: 128 53 (6784)
I0210 09:50:31.912781  2497 net.cpp:156] Memory required for data: 874792980
I0210 09:50:31.912782  2497 layer_factory.hpp:77] Creating layer fc2_right_mouth_confidence
I0210 09:50:31.912786  2497 net.cpp:91] Creating Layer fc2_right_mouth_confidence
I0210 09:50:31.912789  2497 net.cpp:425] fc2_right_mouth_confidence <- fc1_right_mouth_confidence
I0210 09:50:31.912793  2497 net.cpp:399] fc2_right_mouth_confidence -> fc2_right_mouth_confidence
I0210 09:50:31.912854  2497 net.cpp:141] Setting up fc2_right_mouth_confidence
I0210 09:50:31.912859  2497 net.cpp:148] Top shape: 128 1 (128)
I0210 09:50:31.912861  2497 net.cpp:156] Memory required for data: 874793492
I0210 09:50:31.912864  2497 layer_factory.hpp:77] Creating layer loss_right_mouth_confidence
I0210 09:50:31.912878  2497 net.cpp:91] Creating Layer loss_right_mouth_confidence
I0210 09:50:31.912880  2497 net.cpp:425] loss_right_mouth_confidence <- fc2_right_mouth_confidence
I0210 09:50:31.912883  2497 net.cpp:425] loss_right_mouth_confidence <- mouth_visibility_right
I0210 09:50:31.912888  2497 net.cpp:399] loss_right_mouth_confidence -> loss_right_mouth_confidence
I0210 09:50:31.912915  2497 net.cpp:141] Setting up loss_right_mouth_confidence
I0210 09:50:31.912926  2497 net.cpp:148] Top shape: (1)
I0210 09:50:31.912930  2497 net.cpp:151]     with loss weight 1
I0210 09:50:31.912933  2497 net.cpp:156] Memory required for data: 874793496
I0210 09:50:31.912936  2497 layer_factory.hpp:77] Creating layer fc1_left_eye_coordinate
I0210 09:50:31.912940  2497 net.cpp:91] Creating Layer fc1_left_eye_coordinate
I0210 09:50:31.912942  2497 net.cpp:425] fc1_left_eye_coordinate <- conv5_relu5_0_split_6
I0210 09:50:31.912946  2497 net.cpp:399] fc1_left_eye_coordinate -> fc1_left_eye_coordinate
I0210 09:50:31.913440  2497 net.cpp:141] Setting up fc1_left_eye_coordinate
I0210 09:50:31.913447  2497 net.cpp:148] Top shape: 128 105 (13440)
I0210 09:50:31.913450  2497 net.cpp:156] Memory required for data: 874847256
I0210 09:50:31.913455  2497 layer_factory.hpp:77] Creating layer drop1_left_eye_coordinate
I0210 09:50:31.913460  2497 net.cpp:91] Creating Layer drop1_left_eye_coordinate
I0210 09:50:31.913465  2497 net.cpp:425] drop1_left_eye_coordinate <- fc1_left_eye_coordinate
I0210 09:50:31.913468  2497 net.cpp:386] drop1_left_eye_coordinate -> fc1_left_eye_coordinate (in-place)
I0210 09:50:31.913480  2497 net.cpp:141] Setting up drop1_left_eye_coordinate
I0210 09:50:31.913485  2497 net.cpp:148] Top shape: 128 105 (13440)
I0210 09:50:31.913486  2497 net.cpp:156] Memory required for data: 874901016
I0210 09:50:31.913488  2497 layer_factory.hpp:77] Creating layer fc2_left_eye_coordinate
I0210 09:50:31.913493  2497 net.cpp:91] Creating Layer fc2_left_eye_coordinate
I0210 09:50:31.913496  2497 net.cpp:425] fc2_left_eye_coordinate <- fc1_left_eye_coordinate
I0210 09:50:31.913498  2497 net.cpp:399] fc2_left_eye_coordinate -> fc2_left_eye_coordinate
I0210 09:50:31.913564  2497 net.cpp:141] Setting up fc2_left_eye_coordinate
I0210 09:50:31.913569  2497 net.cpp:148] Top shape: 128 2 (256)
I0210 09:50:31.913571  2497 net.cpp:156] Memory required for data: 874902040
I0210 09:50:31.913574  2497 layer_factory.hpp:77] Creating layer loss_left_eye_coordinate
I0210 09:50:31.913578  2497 net.cpp:91] Creating Layer loss_left_eye_coordinate
I0210 09:50:31.913580  2497 net.cpp:425] loss_left_eye_coordinate <- fc2_left_eye_coordinate
I0210 09:50:31.913583  2497 net.cpp:425] loss_left_eye_coordinate <- left_eye
I0210 09:50:31.913586  2497 net.cpp:399] loss_left_eye_coordinate -> loss_left_eye_coordinate
I0210 09:50:31.913609  2497 net.cpp:141] Setting up loss_left_eye_coordinate
I0210 09:50:31.913612  2497 net.cpp:148] Top shape: (1)
I0210 09:50:31.913614  2497 net.cpp:151]     with loss weight 1
I0210 09:50:31.913619  2497 net.cpp:156] Memory required for data: 874902044
I0210 09:50:31.913621  2497 layer_factory.hpp:77] Creating layer fc1_right_eye_coordinate
I0210 09:50:31.913625  2497 net.cpp:91] Creating Layer fc1_right_eye_coordinate
I0210 09:50:31.913627  2497 net.cpp:425] fc1_right_eye_coordinate <- conv5_relu5_0_split_7
I0210 09:50:31.913632  2497 net.cpp:399] fc1_right_eye_coordinate -> fc1_right_eye_coordinate
I0210 09:50:31.914139  2497 net.cpp:141] Setting up fc1_right_eye_coordinate
I0210 09:50:31.914149  2497 net.cpp:148] Top shape: 128 56 (7168)
I0210 09:50:31.914151  2497 net.cpp:156] Memory required for data: 874930716
I0210 09:50:31.914156  2497 layer_factory.hpp:77] Creating layer drop1_right_eye_coordinate
I0210 09:50:31.914161  2497 net.cpp:91] Creating Layer drop1_right_eye_coordinate
I0210 09:50:31.914165  2497 net.cpp:425] drop1_right_eye_coordinate <- fc1_right_eye_coordinate
I0210 09:50:31.914170  2497 net.cpp:386] drop1_right_eye_coordinate -> fc1_right_eye_coordinate (in-place)
I0210 09:50:31.914185  2497 net.cpp:141] Setting up drop1_right_eye_coordinate
I0210 09:50:31.914188  2497 net.cpp:148] Top shape: 128 56 (7168)
I0210 09:50:31.914191  2497 net.cpp:156] Memory required for data: 874959388
I0210 09:50:31.914192  2497 layer_factory.hpp:77] Creating layer fc2_right_eye_coordinate
I0210 09:50:31.914197  2497 net.cpp:91] Creating Layer fc2_right_eye_coordinate
I0210 09:50:31.914201  2497 net.cpp:425] fc2_right_eye_coordinate <- fc1_right_eye_coordinate
I0210 09:50:31.914213  2497 net.cpp:399] fc2_right_eye_coordinate -> fc2_right_eye_coordinate
I0210 09:50:31.914283  2497 net.cpp:141] Setting up fc2_right_eye_coordinate
I0210 09:50:31.914288  2497 net.cpp:148] Top shape: 128 2 (256)
I0210 09:50:31.914289  2497 net.cpp:156] Memory required for data: 874960412
I0210 09:50:31.914294  2497 layer_factory.hpp:77] Creating layer loss_right_eye_coordinate
I0210 09:50:31.914297  2497 net.cpp:91] Creating Layer loss_right_eye_coordinate
I0210 09:50:31.914300  2497 net.cpp:425] loss_right_eye_coordinate <- fc2_right_eye_coordinate
I0210 09:50:31.914304  2497 net.cpp:425] loss_right_eye_coordinate <- right_eye
I0210 09:50:31.914309  2497 net.cpp:399] loss_right_eye_coordinate -> loss_right_eye_coordinate
I0210 09:50:31.914330  2497 net.cpp:141] Setting up loss_right_eye_coordinate
I0210 09:50:31.914333  2497 net.cpp:148] Top shape: (1)
I0210 09:50:31.914335  2497 net.cpp:151]     with loss weight 1
I0210 09:50:31.914340  2497 net.cpp:156] Memory required for data: 874960416
I0210 09:50:31.914342  2497 layer_factory.hpp:77] Creating layer fc1_nose_coordinate
I0210 09:50:31.914347  2497 net.cpp:91] Creating Layer fc1_nose_coordinate
I0210 09:50:31.914351  2497 net.cpp:425] fc1_nose_coordinate <- conv5_relu5_0_split_8
I0210 09:50:31.914355  2497 net.cpp:399] fc1_nose_coordinate -> fc1_nose_coordinate
I0210 09:50:31.914862  2497 net.cpp:141] Setting up fc1_nose_coordinate
I0210 09:50:31.914870  2497 net.cpp:148] Top shape: 128 117 (14976)
I0210 09:50:31.914872  2497 net.cpp:156] Memory required for data: 875020320
I0210 09:50:31.914876  2497 layer_factory.hpp:77] Creating layer drop1_nose_coordinate
I0210 09:50:31.914882  2497 net.cpp:91] Creating Layer drop1_nose_coordinate
I0210 09:50:31.914886  2497 net.cpp:425] drop1_nose_coordinate <- fc1_nose_coordinate
I0210 09:50:31.914891  2497 net.cpp:386] drop1_nose_coordinate -> fc1_nose_coordinate (in-place)
I0210 09:50:31.914904  2497 net.cpp:141] Setting up drop1_nose_coordinate
I0210 09:50:31.914908  2497 net.cpp:148] Top shape: 128 117 (14976)
I0210 09:50:31.914909  2497 net.cpp:156] Memory required for data: 875080224
I0210 09:50:31.914912  2497 layer_factory.hpp:77] Creating layer fc2_nose_coordinate
I0210 09:50:31.914930  2497 net.cpp:91] Creating Layer fc2_nose_coordinate
I0210 09:50:31.914933  2497 net.cpp:425] fc2_nose_coordinate <- fc1_nose_coordinate
I0210 09:50:31.914937  2497 net.cpp:399] fc2_nose_coordinate -> fc2_nose_coordinate
I0210 09:50:31.915019  2497 net.cpp:141] Setting up fc2_nose_coordinate
I0210 09:50:31.915022  2497 net.cpp:148] Top shape: 128 2 (256)
I0210 09:50:31.915024  2497 net.cpp:156] Memory required for data: 875081248
I0210 09:50:31.915029  2497 layer_factory.hpp:77] Creating layer loss_nose_coordinate
I0210 09:50:31.915031  2497 net.cpp:91] Creating Layer loss_nose_coordinate
I0210 09:50:31.915035  2497 net.cpp:425] loss_nose_coordinate <- fc2_nose_coordinate
I0210 09:50:31.915038  2497 net.cpp:425] loss_nose_coordinate <- nose
I0210 09:50:31.915042  2497 net.cpp:399] loss_nose_coordinate -> loss_nose_coordinate
I0210 09:50:31.915065  2497 net.cpp:141] Setting up loss_nose_coordinate
I0210 09:50:31.915068  2497 net.cpp:148] Top shape: (1)
I0210 09:50:31.915071  2497 net.cpp:151]     with loss weight 1
I0210 09:50:31.915076  2497 net.cpp:156] Memory required for data: 875081252
I0210 09:50:31.915077  2497 layer_factory.hpp:77] Creating layer fc1_left_mouth_coordinate
I0210 09:50:31.915081  2497 net.cpp:91] Creating Layer fc1_left_mouth_coordinate
I0210 09:50:31.915083  2497 net.cpp:425] fc1_left_mouth_coordinate <- conv5_relu5_0_split_9
I0210 09:50:31.915087  2497 net.cpp:399] fc1_left_mouth_coordinate -> fc1_left_mouth_coordinate
I0210 09:50:31.915225  2497 net.cpp:141] Setting up fc1_left_mouth_coordinate
I0210 09:50:31.915230  2497 net.cpp:148] Top shape: 128 62 (7936)
I0210 09:50:31.915231  2497 net.cpp:156] Memory required for data: 875112996
I0210 09:50:31.915235  2497 layer_factory.hpp:77] Creating layer drop1_left_mouth_coordinate
I0210 09:50:31.915242  2497 net.cpp:91] Creating Layer drop1_left_mouth_coordinate
I0210 09:50:31.915252  2497 net.cpp:425] drop1_left_mouth_coordinate <- fc1_left_mouth_coordinate
I0210 09:50:31.915256  2497 net.cpp:386] drop1_left_mouth_coordinate -> fc1_left_mouth_coordinate (in-place)
I0210 09:50:31.915269  2497 net.cpp:141] Setting up drop1_left_mouth_coordinate
I0210 09:50:31.915274  2497 net.cpp:148] Top shape: 128 62 (7936)
I0210 09:50:31.915277  2497 net.cpp:156] Memory required for data: 875144740
I0210 09:50:31.915277  2497 layer_factory.hpp:77] Creating layer fc2_left_mouth_coordinate
I0210 09:50:31.915282  2497 net.cpp:91] Creating Layer fc2_left_mouth_coordinate
I0210 09:50:31.915284  2497 net.cpp:425] fc2_left_mouth_coordinate <- fc1_left_mouth_coordinate
I0210 09:50:31.915289  2497 net.cpp:399] fc2_left_mouth_coordinate -> fc2_left_mouth_coordinate
I0210 09:50:31.915359  2497 net.cpp:141] Setting up fc2_left_mouth_coordinate
I0210 09:50:31.915364  2497 net.cpp:148] Top shape: 128 2 (256)
I0210 09:50:31.915365  2497 net.cpp:156] Memory required for data: 875145764
I0210 09:50:31.915376  2497 layer_factory.hpp:77] Creating layer loss_left_mouth_coordinate
I0210 09:50:31.915381  2497 net.cpp:91] Creating Layer loss_left_mouth_coordinate
I0210 09:50:31.915383  2497 net.cpp:425] loss_left_mouth_coordinate <- fc2_left_mouth_coordinate
I0210 09:50:31.915387  2497 net.cpp:425] loss_left_mouth_coordinate <- left_mouth
I0210 09:50:31.915390  2497 net.cpp:399] loss_left_mouth_coordinate -> loss_left_mouth_coordinate
I0210 09:50:31.915413  2497 net.cpp:141] Setting up loss_left_mouth_coordinate
I0210 09:50:31.915417  2497 net.cpp:148] Top shape: (1)
I0210 09:50:31.915421  2497 net.cpp:151]     with loss weight 1
I0210 09:50:31.915424  2497 net.cpp:156] Memory required for data: 875145768
I0210 09:50:31.915426  2497 layer_factory.hpp:77] Creating layer fc1_center_mouth_coordinate
I0210 09:50:31.915431  2497 net.cpp:91] Creating Layer fc1_center_mouth_coordinate
I0210 09:50:31.915433  2497 net.cpp:425] fc1_center_mouth_coordinate <- conv5_relu5_0_split_10
I0210 09:50:31.915438  2497 net.cpp:399] fc1_center_mouth_coordinate -> fc1_center_mouth_coordinate
I0210 09:50:31.915959  2497 net.cpp:141] Setting up fc1_center_mouth_coordinate
I0210 09:50:31.915966  2497 net.cpp:148] Top shape: 128 127 (16256)
I0210 09:50:31.915968  2497 net.cpp:156] Memory required for data: 875210792
I0210 09:50:31.915973  2497 layer_factory.hpp:77] Creating layer drop1_center_mouth_coordinate
I0210 09:50:31.915977  2497 net.cpp:91] Creating Layer drop1_center_mouth_coordinate
I0210 09:50:31.915980  2497 net.cpp:425] drop1_center_mouth_coordinate <- fc1_center_mouth_coordinate
I0210 09:50:31.915985  2497 net.cpp:386] drop1_center_mouth_coordinate -> fc1_center_mouth_coordinate (in-place)
I0210 09:50:31.915999  2497 net.cpp:141] Setting up drop1_center_mouth_coordinate
I0210 09:50:31.916002  2497 net.cpp:148] Top shape: 128 127 (16256)
I0210 09:50:31.916004  2497 net.cpp:156] Memory required for data: 875275816
I0210 09:50:31.916007  2497 layer_factory.hpp:77] Creating layer fc2_center_mouth_coordinate
I0210 09:50:31.916010  2497 net.cpp:91] Creating Layer fc2_center_mouth_coordinate
I0210 09:50:31.916013  2497 net.cpp:425] fc2_center_mouth_coordinate <- fc1_center_mouth_coordinate
I0210 09:50:31.916016  2497 net.cpp:399] fc2_center_mouth_coordinate -> fc2_center_mouth_coordinate
I0210 09:50:31.916082  2497 net.cpp:141] Setting up fc2_center_mouth_coordinate
I0210 09:50:31.916086  2497 net.cpp:148] Top shape: 128 2 (256)
I0210 09:50:31.916088  2497 net.cpp:156] Memory required for data: 875276840
I0210 09:50:31.916091  2497 layer_factory.hpp:77] Creating layer loss_center_mouth_coordinate
I0210 09:50:31.916096  2497 net.cpp:91] Creating Layer loss_center_mouth_coordinate
I0210 09:50:31.916100  2497 net.cpp:425] loss_center_mouth_coordinate <- fc2_center_mouth_coordinate
I0210 09:50:31.916102  2497 net.cpp:425] loss_center_mouth_coordinate <- center_mouth
I0210 09:50:31.916106  2497 net.cpp:399] loss_center_mouth_coordinate -> loss_center_mouth_coordinate
I0210 09:50:31.916137  2497 net.cpp:141] Setting up loss_center_mouth_coordinate
I0210 09:50:31.916141  2497 net.cpp:148] Top shape: (1)
I0210 09:50:31.916143  2497 net.cpp:151]     with loss weight 1
I0210 09:50:31.916147  2497 net.cpp:156] Memory required for data: 875276844
I0210 09:50:31.916149  2497 layer_factory.hpp:77] Creating layer fc1_right_mouth_coordinate
I0210 09:50:31.916154  2497 net.cpp:91] Creating Layer fc1_right_mouth_coordinate
I0210 09:50:31.916157  2497 net.cpp:425] fc1_right_mouth_coordinate <- conv5_relu5_0_split_11
I0210 09:50:31.916162  2497 net.cpp:399] fc1_right_mouth_coordinate -> fc1_right_mouth_coordinate
I0210 09:50:31.916642  2497 net.cpp:141] Setting up fc1_right_mouth_coordinate
I0210 09:50:31.916649  2497 net.cpp:148] Top shape: 128 82 (10496)
I0210 09:50:31.916651  2497 net.cpp:156] Memory required for data: 875318828
I0210 09:50:31.916656  2497 layer_factory.hpp:77] Creating layer drop1_right_mouth_coordinate
I0210 09:50:31.916662  2497 net.cpp:91] Creating Layer drop1_right_mouth_coordinate
I0210 09:50:31.916666  2497 net.cpp:425] drop1_right_mouth_coordinate <- fc1_right_mouth_coordinate
I0210 09:50:31.916669  2497 net.cpp:386] drop1_right_mouth_coordinate -> fc1_right_mouth_coordinate (in-place)
I0210 09:50:31.916682  2497 net.cpp:141] Setting up drop1_right_mouth_coordinate
I0210 09:50:31.916687  2497 net.cpp:148] Top shape: 128 82 (10496)
I0210 09:50:31.916688  2497 net.cpp:156] Memory required for data: 875360812
I0210 09:50:31.916690  2497 layer_factory.hpp:77] Creating layer fc2_right_mouth_coordinate
I0210 09:50:31.916694  2497 net.cpp:91] Creating Layer fc2_right_mouth_coordinate
I0210 09:50:31.916697  2497 net.cpp:425] fc2_right_mouth_coordinate <- fc1_right_mouth_coordinate
I0210 09:50:31.916702  2497 net.cpp:399] fc2_right_mouth_coordinate -> fc2_right_mouth_coordinate
I0210 09:50:31.916767  2497 net.cpp:141] Setting up fc2_right_mouth_coordinate
I0210 09:50:31.916771  2497 net.cpp:148] Top shape: 128 2 (256)
I0210 09:50:31.916774  2497 net.cpp:156] Memory required for data: 875361836
I0210 09:50:31.916779  2497 layer_factory.hpp:77] Creating layer loss_right_mouth_coordinate
I0210 09:50:31.916782  2497 net.cpp:91] Creating Layer loss_right_mouth_coordinate
I0210 09:50:31.916785  2497 net.cpp:425] loss_right_mouth_coordinate <- fc2_right_mouth_coordinate
I0210 09:50:31.916788  2497 net.cpp:425] loss_right_mouth_coordinate <- right_mouth
…
