…
I1101 23:18:28.676841  8436 net.cpp:313] The NetState phase (0) differed from the phase (1) specified by a rule in layer data
I1101 23:18:28.677053  8436 net.cpp:49] Initializing net from parameters: 
name: "FaceNet"
state {
  phase: TRAIN
}
layer {
  name: "data"
  type: "HDF5Data"
  top: "data"
  top: "left_eye"
  top: "visibility_left"
  top: "right_eye"
  top: "visibility_right"
  include {
    phase: TRAIN
  }
  hdf5_data_param {
    source: "/home/wzleong/Downloads/nottingham_with_scaling/complete_hdf5/train_scaled_mean_subtracted_own_data_multiple_label_complete_data_list.txt"
    batch_size: 128
    shuffle: true
  }
}
layer {
  name: "conv1"
  type: "Convolution"
  bottom: "data"
  top: "conv1"
  param {
    lr_mult: 0
    decay_mult: 0
  }
  param {
    lr_mult: 0
    decay_mult: 0
  }
  convolution_param {
    num_output: 16
    pad: 0
    kernel_size: 13
    stride: 2
  }
}
layer {
  name: "relu1"
  type: "ReLU"
  bottom: "conv1"
  top: "conv1"
}
layer {
  name: "pool1"
  type: "Pooling"
  bottom: "conv1"
  top: "pool1"
  pooling_param {
    pool: MAX
    kernel_size: 2
    stride: 2
  }
}
layer {
  name: "conv2_1"
  type: "Convolution"
  bottom: "pool1"
  top: "conv2_1"
  param {
    lr_mult: 0
    decay_mult: 0
  }
  param {
    lr_mult: 0
    decay_mult: 0
  }
  convolution_param {
    num_output: 16
    pad: 0
    kernel_size: 5
    stride: 1
  }
}
layer {
  name: "relu2_1"
  type: "ReLU"
  bottom: "conv2_1"
  top: "conv2_1"
}
layer {
  name: "conv2_2"
  type: "Convolution"
  bottom: "conv2_1"
  top: "conv2_2"
  param {
    lr_mult: 0
    decay_mult: 0
  }
  param {
    lr_mult: 0
    decay_mult: 0
  }
  convolution_param {
    num_output: 32
    pad: 0
    kernel_size: 5
    stride: 1
  }
}
layer {
  name: "relu2_2"
  type: "ReLU"
  bottom: "conv2_2"
  top: "conv2_2"
}
layer {
  name: "pool2"
  type: "Pooling"
  bottom: "conv2_2"
  top: "pool2"
  pooling_param {
    pool: MAX
    kernel_size: 2
    stride: 2
  }
}
layer {
  name: "conv3_1"
  type: "Convolution"
  bottom: "pool2"
  top: "conv3_1"
  param {
    lr_mult: 1
    decay_mult: 1
  }
  param {
    lr_mult: 2
    decay_mult: 0
  }
  convolution_param {
    num_output: 32
    pad: 0
    kernel_size: 3
    stride: 1
  }
}
layer {
  name: "relu3_1"
  type: "ReLU"
  bottom: "conv3_1"
  top: "conv3_1"
}
layer {
  name: "conv3_2"
  type: "Convolution"
  bottom: "conv3_1"
  top: "conv3_2"
  param {
    lr_mult: 1
    decay_mult: 1
  }
  param {
    lr_mult: 2
    decay_mult: 0
  }
  convolution_param {
    num_output: 64
    pad: 0
    kernel_size: 3
    stride: 1
  }
}
layer {
  name: "relu3_2"
  type: "ReLU"
  bottom: "conv3_2"
  top: "conv3_2"
}
layer {
  name: "pool3"
  type: "Pooling"
  bottom: "conv3_2"
  top: "pool3"
  pooling_param {
    pool: MAX
    kernel_size: 2
    stride: 2
  }
}
layer {
  name: "conv4_1"
  type: "Convolution"
  bottom: "pool3"
  top: "conv4_1"
  param {
    lr_mult: 1
    decay_mult: 1
  }
  param {
    lr_mult: 2
    decay_mult: 0
  }
  convolution_param {
    num_output: 64
    pad: 0
    kernel_size: 3
    stride: 1
  }
}
layer {
  name: "relu4_1"
  type: "ReLU"
  bottom: "conv4_1"
  top: "conv4_1"
}
layer {
  name: "conv4_2"
  type: "Convolution"
  bottom: "conv4_1"
  top: "conv4_2"
  param {
    lr_mult: 1
    decay_mult: 1
  }
  param {
    lr_mult: 2
    decay_mult: 0
  }
  convolution_param {
    num_output: 64
    pad: 0
    kernel_size: 3
    stride: 1
  }
}
layer {
  name: "relu4_2"
  type: "ReLU"
  bottom: "conv4_2"
  top: "conv4_2"
}
layer {
  name: "conv4_3"
  type: "Convolution"
  bottom: "conv4_2"
  top: "conv4_3"
  param {
    lr_mult: 1
    decay_mult: 1
  }
  param {
    lr_mult: 2
    decay_mult: 0
  }
  convolution_param {
    num_output: 128
    pad: 0
    kernel_size: 3
    stride: 1
  }
}
layer {
  name: "relu4_3"
  type: "ReLU"
  bottom: "conv4_3"
  top: "conv4_3"
}
layer {
  name: "fc1_left_confidence"
  type: "InnerProduct"
  bottom: "conv4_3"
  top: "fc1_left_confidence"
  param {
    lr_mult: 1
    decay_mult: 1
  }
  param {
    lr_mult: 2
    decay_mult: 0
  }
  inner_product_param {
    num_output: 128
  }
}
layer {
  name: "relu_left_confidence"
  type: "ReLU"
  bottom: "fc1_left_confidence"
  top: "fc1_left_confidence"
}
layer {
  name: "drop1_left_confidence"
  type: "Dropout"
  bottom: "fc1_left_confidence"
  top: "fc1_left_confidence"
  dropout_param {
    dropout_ratio: 0.5
  }
}
layer {
  name: "fc2_left_confidence"
  type: "InnerProduct"
  bottom: "fc1_left_confidence"
  top: "fc2_left_confidence"
  param {
    lr_mult: 1
    decay_mult: 1
  }
  param {
    lr_mult: 2
    decay_mult: 0
  }
  inner_product_param {
    num_output: 1
  }
}
layer {
  name: "loss_left_confidence"
  type: "EuclideanLoss"
  bottom: "fc2_left_confidence"
  bottom: "visibility_left"
  top: "loss_left_confidence"
}
layer {
  name: "fc1_right_confidence"
  type: "InnerProduct"
  bottom: "conv4_3"
  top: "fc1_right_confidence"
  param {
    lr_mult: 1
    decay_mult: 1
  }
  param {
    lr_mult: 2
    decay_mult: 0
  }
  inner_product_param {
    num_output: 128
  }
}
layer {
  name: "relu_right_confidence"
  type: "ReLU"
  bottom: "fc1_right_confidence"
  top: "fc1_right_confidence"
}
layer {
  name: "drop1_right_confidence"
  type: "Dropout"
  bottom: "fc1_right_confidence"
  top: "fc1_right_confidence"
  dropout_param {
    dropout_ratio: 0.5
  }
}
layer {
  name: "fc2_right_confidence"
  type: "InnerProduct"
  bottom: "fc1_right_confidence"
  top: "fc2_right_confidence"
  param {
    lr_mult: 1
    decay_mult: 1
  }
  param {
    lr_mult: 2
    decay_mult: 0
  }
  inner_product_param {
    num_output: 1
  }
}
layer {
  name: "loss_right_confidence"
  type: "EuclideanLoss"
  bottom: "fc2_right_confidence"
  bottom: "visibility_right"
  top: "loss_right_confidence"
}
layer {
  name: "fc1_left"
  type: "InnerProduct"
  bottom: "conv4_3"
  top: "fc1_left"
  param {
    lr_mult: 1
    decay_mult: 1
  }
  param {
    lr_mult: 2
    decay_mult: 0
  }
  inner_product_param {
    num_output: 256
    weight_filler {
      type: "xavier"
    }
    bias_filler {
      type: "constant"
    }
  }
}
layer {
  name: "drop1_left"
  type: "Dropout"
  bottom: "fc1_left"
  top: "fc1_left"
  dropout_param {
    dropout_ratio: 0.5
  }
}
layer {
  name: "fc2_left"
  type: "InnerProduct"
  bottom: "fc1_left"
  top: "fc2_left"
  param {
    lr_mult: 1
    decay_mult: 1
  }
  param {
    lr_mult: 2
    decay_mult: 0
  }
  inner_product_param {
    num_output: 2
    weight_filler {
      type: "xavier"
    }
    bias_filler {
      type: "constant"
    }
  }
}
layer {
  name: "loss_left_coordinate"
  type: "EuclideanLoss"
  bottom: "fc2_left"
  bottom: "left_eye"
  top: "loss_left_coordinate"
}
layer {
  name: "fc1_right"
  type: "InnerProduct"
  bottom: "conv4_3"
  top: "fc1_right"
  param {
    lr_mult: 1
    decay_mult: 1
  }
  param {
    lr_mult: 2
    decay_mult: 0
  }
  inner_product_param {
    num_output: 256
    weight_filler {
      type: "xavier"
    }
    bias_filler {
      type: "constant"
    }
  }
}
layer {
  name: "drop1_right"
  type: "Dropout"
  bottom: "fc1_right"
  top: "fc1_right"
  dropout_param {
    dropout_ratio: 0.5
  }
}
layer {
  name: "fc2_right"
  type: "InnerProduct"
  bottom: "fc1_right"
  top: "fc2_right"
  param {
    lr_mult: 1
    decay_mult: 1
  }
  param {
    lr_mult: 2
    decay_mult: 0
  }
  inner_product_param {
    num_output: 2
    weight_filler {
      type: "xavier"
    }
    bias_filler {
      type: "constant"
    }
  }
}
layer {
  name: "loss_right_coordinate"
  type: "EuclideanLoss"
  bottom: "fc2_right"
  bottom: "right_eye"
  top: "loss_right_coordinate"
}
I1101 23:18:28.677281  8436 layer_factory.hpp:77] Creating layer data
I1101 23:18:28.677294  8436 net.cpp:91] Creating Layer data
I1101 23:18:28.677299  8436 net.cpp:399] data -> data
I1101 23:18:28.677320  8436 net.cpp:399] data -> left_eye
I1101 23:18:28.677330  8436 net.cpp:399] data -> visibility_left
I1101 23:18:28.677335  8436 net.cpp:399] data -> right_eye
I1101 23:18:28.677341  8436 net.cpp:399] data -> visibility_right
I1101 23:18:28.677350  8436 hdf5_data_layer.cpp:79] Loading list of HDF5 filenames from: /home/wzleong/Downloads/nottingham_with_scaling/complete_hdf5/train_scaled_mean_subtracted_own_data_multiple_label_complete_data_list.txt
I1101 23:18:28.677378  8436 hdf5_data_layer.cpp:93] Number of HDF5 files: 8
I1101 23:18:28.678218  8436 hdf5.cpp:32] Datatype class: H5T_FLOAT
I1101 23:18:28.849253  8436 net.cpp:141] Setting up data
I1101 23:18:28.849277  8436 net.cpp:148] Top shape: 128 1 200 200 (5120000)
I1101 23:18:28.849282  8436 net.cpp:148] Top shape: 128 2 (256)
I1101 23:18:28.849284  8436 net.cpp:148] Top shape: 128 1 (128)
I1101 23:18:28.849287  8436 net.cpp:148] Top shape: 128 2 (256)
I1101 23:18:28.849290  8436 net.cpp:148] Top shape: 128 1 (128)
I1101 23:18:28.849292  8436 net.cpp:156] Memory required for data: 20483072
I1101 23:18:28.849298  8436 layer_factory.hpp:77] Creating layer conv1
I1101 23:18:28.849314  8436 net.cpp:91] Creating Layer conv1
I1101 23:18:28.849320  8436 net.cpp:425] conv1 <- data
I1101 23:18:28.849329  8436 net.cpp:399] conv1 -> conv1
I1101 23:18:28.849544  8436 net.cpp:141] Setting up conv1
I1101 23:18:28.849552  8436 net.cpp:148] Top shape: 128 16 94 94 (18096128)
I1101 23:18:28.849555  8436 net.cpp:156] Memory required for data: 92867584
I1101 23:18:28.849570  8436 layer_factory.hpp:77] Creating layer relu1
I1101 23:18:28.849581  8436 net.cpp:91] Creating Layer relu1
I1101 23:18:28.849583  8436 net.cpp:425] relu1 <- conv1
I1101 23:18:28.849589  8436 net.cpp:386] relu1 -> conv1 (in-place)
I1101 23:18:28.849598  8436 net.cpp:141] Setting up relu1
I1101 23:18:28.849604  8436 net.cpp:148] Top shape: 128 16 94 94 (18096128)
I1101 23:18:28.849606  8436 net.cpp:156] Memory required for data: 165252096
I1101 23:18:28.849611  8436 layer_factory.hpp:77] Creating layer pool1
I1101 23:18:28.849617  8436 net.cpp:91] Creating Layer pool1
I1101 23:18:28.849622  8436 net.cpp:425] pool1 <- conv1
I1101 23:18:28.849625  8436 net.cpp:399] pool1 -> pool1
I1101 23:18:28.849668  8436 net.cpp:141] Setting up pool1
I1101 23:18:28.849673  8436 net.cpp:148] Top shape: 128 16 47 47 (4524032)
I1101 23:18:28.849674  8436 net.cpp:156] Memory required for data: 183348224
I1101 23:18:28.849678  8436 layer_factory.hpp:77] Creating layer conv2_1
I1101 23:18:28.849684  8436 net.cpp:91] Creating Layer conv2_1
I1101 23:18:28.849686  8436 net.cpp:425] conv2_1 <- pool1
I1101 23:18:28.849690  8436 net.cpp:399] conv2_1 -> conv2_1
I1101 23:18:28.849861  8436 net.cpp:141] Setting up conv2_1
I1101 23:18:28.849867  8436 net.cpp:148] Top shape: 128 16 43 43 (3786752)
I1101 23:18:28.849869  8436 net.cpp:156] Memory required for data: 198495232
I1101 23:18:28.849876  8436 layer_factory.hpp:77] Creating layer relu2_1
I1101 23:18:28.849879  8436 net.cpp:91] Creating Layer relu2_1
I1101 23:18:28.849882  8436 net.cpp:425] relu2_1 <- conv2_1
I1101 23:18:28.849886  8436 net.cpp:386] relu2_1 -> conv2_1 (in-place)
I1101 23:18:28.849889  8436 net.cpp:141] Setting up relu2_1
I1101 23:18:28.849894  8436 net.cpp:148] Top shape: 128 16 43 43 (3786752)
I1101 23:18:28.849895  8436 net.cpp:156] Memory required for data: 213642240
I1101 23:18:28.849897  8436 layer_factory.hpp:77] Creating layer conv2_2
I1101 23:18:28.849903  8436 net.cpp:91] Creating Layer conv2_2
I1101 23:18:28.849905  8436 net.cpp:425] conv2_2 <- conv2_1
I1101 23:18:28.849910  8436 net.cpp:399] conv2_2 -> conv2_2
I1101 23:18:28.850080  8436 net.cpp:141] Setting up conv2_2
I1101 23:18:28.850086  8436 net.cpp:148] Top shape: 128 32 39 39 (6230016)
I1101 23:18:28.850088  8436 net.cpp:156] Memory required for data: 238562304
I1101 23:18:28.850108  8436 layer_factory.hpp:77] Creating layer relu2_2
I1101 23:18:28.850112  8436 net.cpp:91] Creating Layer relu2_2
I1101 23:18:28.850114  8436 net.cpp:425] relu2_2 <- conv2_2
I1101 23:18:28.850118  8436 net.cpp:386] relu2_2 -> conv2_2 (in-place)
I1101 23:18:28.850122  8436 net.cpp:141] Setting up relu2_2
I1101 23:18:28.850126  8436 net.cpp:148] Top shape: 128 32 39 39 (6230016)
I1101 23:18:28.850128  8436 net.cpp:156] Memory required for data: 263482368
I1101 23:18:28.850131  8436 layer_factory.hpp:77] Creating layer pool2
I1101 23:18:28.850134  8436 net.cpp:91] Creating Layer pool2
I1101 23:18:28.850138  8436 net.cpp:425] pool2 <- conv2_2
I1101 23:18:28.850143  8436 net.cpp:399] pool2 -> pool2
I1101 23:18:28.850175  8436 net.cpp:141] Setting up pool2
I1101 23:18:28.850181  8436 net.cpp:148] Top shape: 128 32 20 20 (1638400)
I1101 23:18:28.850183  8436 net.cpp:156] Memory required for data: 270035968
I1101 23:18:28.850185  8436 layer_factory.hpp:77] Creating layer conv3_1
I1101 23:18:28.850190  8436 net.cpp:91] Creating Layer conv3_1
I1101 23:18:28.850193  8436 net.cpp:425] conv3_1 <- pool2
I1101 23:18:28.850198  8436 net.cpp:399] conv3_1 -> conv3_1
I1101 23:18:28.850755  8436 net.cpp:141] Setting up conv3_1
I1101 23:18:28.850764  8436 net.cpp:148] Top shape: 128 32 18 18 (1327104)
I1101 23:18:28.850767  8436 net.cpp:156] Memory required for data: 275344384
I1101 23:18:28.850774  8436 layer_factory.hpp:77] Creating layer relu3_1
I1101 23:18:28.850777  8436 net.cpp:91] Creating Layer relu3_1
I1101 23:18:28.850780  8436 net.cpp:425] relu3_1 <- conv3_1
I1101 23:18:28.850785  8436 net.cpp:386] relu3_1 -> conv3_1 (in-place)
I1101 23:18:28.850790  8436 net.cpp:141] Setting up relu3_1
I1101 23:18:28.850793  8436 net.cpp:148] Top shape: 128 32 18 18 (1327104)
I1101 23:18:28.850795  8436 net.cpp:156] Memory required for data: 280652800
I1101 23:18:28.850798  8436 layer_factory.hpp:77] Creating layer conv3_2
I1101 23:18:28.850805  8436 net.cpp:91] Creating Layer conv3_2
I1101 23:18:28.850811  8436 net.cpp:425] conv3_2 <- conv3_1
I1101 23:18:28.850817  8436 net.cpp:399] conv3_2 -> conv3_2
I1101 23:18:28.851382  8436 net.cpp:141] Setting up conv3_2
I1101 23:18:28.851392  8436 net.cpp:148] Top shape: 128 64 16 16 (2097152)
I1101 23:18:28.851394  8436 net.cpp:156] Memory required for data: 289041408
I1101 23:18:28.851402  8436 layer_factory.hpp:77] Creating layer relu3_2
I1101 23:18:28.851407  8436 net.cpp:91] Creating Layer relu3_2
I1101 23:18:28.851409  8436 net.cpp:425] relu3_2 <- conv3_2
I1101 23:18:28.851413  8436 net.cpp:386] relu3_2 -> conv3_2 (in-place)
I1101 23:18:28.851418  8436 net.cpp:141] Setting up relu3_2
I1101 23:18:28.851421  8436 net.cpp:148] Top shape: 128 64 16 16 (2097152)
I1101 23:18:28.851423  8436 net.cpp:156] Memory required for data: 297430016
I1101 23:18:28.851428  8436 layer_factory.hpp:77] Creating layer pool3
I1101 23:18:28.851433  8436 net.cpp:91] Creating Layer pool3
I1101 23:18:28.851439  8436 net.cpp:425] pool3 <- conv3_2
I1101 23:18:28.851444  8436 net.cpp:399] pool3 -> pool3
I1101 23:18:28.851477  8436 net.cpp:141] Setting up pool3
I1101 23:18:28.851482  8436 net.cpp:148] Top shape: 128 64 8 8 (524288)
I1101 23:18:28.851485  8436 net.cpp:156] Memory required for data: 299527168
I1101 23:18:28.851487  8436 layer_factory.hpp:77] Creating layer conv4_1
I1101 23:18:28.851492  8436 net.cpp:91] Creating Layer conv4_1
I1101 23:18:28.851495  8436 net.cpp:425] conv4_1 <- pool3
I1101 23:18:28.851500  8436 net.cpp:399] conv4_1 -> conv4_1
I1101 23:18:28.851691  8436 net.cpp:141] Setting up conv4_1
I1101 23:18:28.851698  8436 net.cpp:148] Top shape: 128 64 6 6 (294912)
I1101 23:18:28.851701  8436 net.cpp:156] Memory required for data: 300706816
I1101 23:18:28.851706  8436 layer_factory.hpp:77] Creating layer relu4_1
I1101 23:18:28.851708  8436 net.cpp:91] Creating Layer relu4_1
I1101 23:18:28.851711  8436 net.cpp:425] relu4_1 <- conv4_1
I1101 23:18:28.851714  8436 net.cpp:386] relu4_1 -> conv4_1 (in-place)
I1101 23:18:28.851719  8436 net.cpp:141] Setting up relu4_1
I1101 23:18:28.851722  8436 net.cpp:148] Top shape: 128 64 6 6 (294912)
I1101 23:18:28.851733  8436 net.cpp:156] Memory required for data: 301886464
I1101 23:18:28.851737  8436 layer_factory.hpp:77] Creating layer conv4_2
I1101 23:18:28.851747  8436 net.cpp:91] Creating Layer conv4_2
I1101 23:18:28.851752  8436 net.cpp:425] conv4_2 <- conv4_1
I1101 23:18:28.851758  8436 net.cpp:399] conv4_2 -> conv4_2
I1101 23:18:28.851949  8436 net.cpp:141] Setting up conv4_2
I1101 23:18:28.851956  8436 net.cpp:148] Top shape: 128 64 4 4 (131072)
I1101 23:18:28.851958  8436 net.cpp:156] Memory required for data: 302410752
I1101 23:18:28.851963  8436 layer_factory.hpp:77] Creating layer relu4_2
I1101 23:18:28.851966  8436 net.cpp:91] Creating Layer relu4_2
I1101 23:18:28.851969  8436 net.cpp:425] relu4_2 <- conv4_2
I1101 23:18:28.851972  8436 net.cpp:386] relu4_2 -> conv4_2 (in-place)
I1101 23:18:28.851976  8436 net.cpp:141] Setting up relu4_2
I1101 23:18:28.851980  8436 net.cpp:148] Top shape: 128 64 4 4 (131072)
I1101 23:18:28.851985  8436 net.cpp:156] Memory required for data: 302935040
I1101 23:18:28.851990  8436 layer_factory.hpp:77] Creating layer conv4_3
I1101 23:18:28.851997  8436 net.cpp:91] Creating Layer conv4_3
I1101 23:18:28.852001  8436 net.cpp:425] conv4_3 <- conv4_2
I1101 23:18:28.852007  8436 net.cpp:399] conv4_3 -> conv4_3
I1101 23:18:28.852607  8436 net.cpp:141] Setting up conv4_3
I1101 23:18:28.852617  8436 net.cpp:148] Top shape: 128 128 2 2 (65536)
I1101 23:18:28.852622  8436 net.cpp:156] Memory required for data: 303197184
I1101 23:18:28.852632  8436 layer_factory.hpp:77] Creating layer relu4_3
I1101 23:18:28.852639  8436 net.cpp:91] Creating Layer relu4_3
I1101 23:18:28.852643  8436 net.cpp:425] relu4_3 <- conv4_3
I1101 23:18:28.852649  8436 net.cpp:386] relu4_3 -> conv4_3 (in-place)
I1101 23:18:28.852656  8436 net.cpp:141] Setting up relu4_3
I1101 23:18:28.852663  8436 net.cpp:148] Top shape: 128 128 2 2 (65536)
I1101 23:18:28.852668  8436 net.cpp:156] Memory required for data: 303459328
I1101 23:18:28.852670  8436 layer_factory.hpp:77] Creating layer conv4_3_relu4_3_0_split
I1101 23:18:28.852679  8436 net.cpp:91] Creating Layer conv4_3_relu4_3_0_split
I1101 23:18:28.852684  8436 net.cpp:425] conv4_3_relu4_3_0_split <- conv4_3
I1101 23:18:28.852689  8436 net.cpp:399] conv4_3_relu4_3_0_split -> conv4_3_relu4_3_0_split_0
I1101 23:18:28.852700  8436 net.cpp:399] conv4_3_relu4_3_0_split -> conv4_3_relu4_3_0_split_1
I1101 23:18:28.852710  8436 net.cpp:399] conv4_3_relu4_3_0_split -> conv4_3_relu4_3_0_split_2
I1101 23:18:28.852717  8436 net.cpp:399] conv4_3_relu4_3_0_split -> conv4_3_relu4_3_0_split_3
I1101 23:18:28.852766  8436 net.cpp:141] Setting up conv4_3_relu4_3_0_split
I1101 23:18:28.852772  8436 net.cpp:148] Top shape: 128 128 2 2 (65536)
I1101 23:18:28.852779  8436 net.cpp:148] Top shape: 128 128 2 2 (65536)
I1101 23:18:28.852785  8436 net.cpp:148] Top shape: 128 128 2 2 (65536)
I1101 23:18:28.852792  8436 net.cpp:148] Top shape: 128 128 2 2 (65536)
I1101 23:18:28.852794  8436 net.cpp:156] Memory required for data: 304507904
I1101 23:18:28.852800  8436 layer_factory.hpp:77] Creating layer fc1_left_confidence
I1101 23:18:28.852807  8436 net.cpp:91] Creating Layer fc1_left_confidence
I1101 23:18:28.852812  8436 net.cpp:425] fc1_left_confidence <- conv4_3_relu4_3_0_split_0
I1101 23:18:28.852815  8436 net.cpp:399] fc1_left_confidence -> fc1_left_confidence
I1101 23:18:28.852932  8436 net.cpp:141] Setting up fc1_left_confidence
I1101 23:18:28.852939  8436 net.cpp:148] Top shape: 128 128 (16384)
I1101 23:18:28.852941  8436 net.cpp:156] Memory required for data: 304573440
I1101 23:18:28.852954  8436 layer_factory.hpp:77] Creating layer relu_left_confidence
I1101 23:18:28.852960  8436 net.cpp:91] Creating Layer relu_left_confidence
I1101 23:18:28.852965  8436 net.cpp:425] relu_left_confidence <- fc1_left_confidence
I1101 23:18:28.852973  8436 net.cpp:386] relu_left_confidence -> fc1_left_confidence (in-place)
I1101 23:18:28.852980  8436 net.cpp:141] Setting up relu_left_confidence
I1101 23:18:28.852988  8436 net.cpp:148] Top shape: 128 128 (16384)
I1101 23:18:28.853000  8436 net.cpp:156] Memory required for data: 304638976
I1101 23:18:28.853003  8436 layer_factory.hpp:77] Creating layer drop1_left_confidence
I1101 23:18:28.853010  8436 net.cpp:91] Creating Layer drop1_left_confidence
I1101 23:18:28.853014  8436 net.cpp:425] drop1_left_confidence <- fc1_left_confidence
I1101 23:18:28.853019  8436 net.cpp:386] drop1_left_confidence -> fc1_left_confidence (in-place)
I1101 23:18:28.853039  8436 net.cpp:141] Setting up drop1_left_confidence
I1101 23:18:28.853044  8436 net.cpp:148] Top shape: 128 128 (16384)
I1101 23:18:28.853049  8436 net.cpp:156] Memory required for data: 304704512
I1101 23:18:28.853054  8436 layer_factory.hpp:77] Creating layer fc2_left_confidence
I1101 23:18:28.853060  8436 net.cpp:91] Creating Layer fc2_left_confidence
I1101 23:18:28.853062  8436 net.cpp:425] fc2_left_confidence <- fc1_left_confidence
I1101 23:18:28.853067  8436 net.cpp:399] fc2_left_confidence -> fc2_left_confidence
I1101 23:18:28.853137  8436 net.cpp:141] Setting up fc2_left_confidence
I1101 23:18:28.853142  8436 net.cpp:148] Top shape: 128 1 (128)
I1101 23:18:28.853143  8436 net.cpp:156] Memory required for data: 304705024
I1101 23:18:28.853152  8436 layer_factory.hpp:77] Creating layer loss_left_confidence
I1101 23:18:28.853157  8436 net.cpp:91] Creating Layer loss_left_confidence
I1101 23:18:28.853163  8436 net.cpp:425] loss_left_confidence <- fc2_left_confidence
I1101 23:18:28.853168  8436 net.cpp:425] loss_left_confidence <- visibility_left
I1101 23:18:28.853174  8436 net.cpp:399] loss_left_confidence -> loss_left_confidence
I1101 23:18:28.853211  8436 net.cpp:141] Setting up loss_left_confidence
I1101 23:18:28.853216  8436 net.cpp:148] Top shape: (1)
I1101 23:18:28.853219  8436 net.cpp:151]     with loss weight 1
I1101 23:18:28.853242  8436 net.cpp:156] Memory required for data: 304705028
I1101 23:18:28.853245  8436 layer_factory.hpp:77] Creating layer fc1_right_confidence
I1101 23:18:28.853251  8436 net.cpp:91] Creating Layer fc1_right_confidence
I1101 23:18:28.853255  8436 net.cpp:425] fc1_right_confidence <- conv4_3_relu4_3_0_split_1
I1101 23:18:28.853260  8436 net.cpp:399] fc1_right_confidence -> fc1_right_confidence
I1101 23:18:28.853368  8436 net.cpp:141] Setting up fc1_right_confidence
I1101 23:18:28.853374  8436 net.cpp:148] Top shape: 128 128 (16384)
I1101 23:18:28.853375  8436 net.cpp:156] Memory required for data: 304770564
I1101 23:18:28.853380  8436 layer_factory.hpp:77] Creating layer relu_right_confidence
I1101 23:18:28.853384  8436 net.cpp:91] Creating Layer relu_right_confidence
I1101 23:18:28.853386  8436 net.cpp:425] relu_right_confidence <- fc1_right_confidence
I1101 23:18:28.853389  8436 net.cpp:386] relu_right_confidence -> fc1_right_confidence (in-place)
I1101 23:18:28.853395  8436 net.cpp:141] Setting up relu_right_confidence
I1101 23:18:28.853402  8436 net.cpp:148] Top shape: 128 128 (16384)
I1101 23:18:28.853406  8436 net.cpp:156] Memory required for data: 304836100
I1101 23:18:28.853410  8436 layer_factory.hpp:77] Creating layer drop1_right_confidence
I1101 23:18:28.853417  8436 net.cpp:91] Creating Layer drop1_right_confidence
I1101 23:18:28.853422  8436 net.cpp:425] drop1_right_confidence <- fc1_right_confidence
I1101 23:18:28.853427  8436 net.cpp:386] drop1_right_confidence -> fc1_right_confidence (in-place)
I1101 23:18:28.853459  8436 net.cpp:141] Setting up drop1_right_confidence
I1101 23:18:28.853466  8436 net.cpp:148] Top shape: 128 128 (16384)
I1101 23:18:28.853467  8436 net.cpp:156] Memory required for data: 304901636
I1101 23:18:28.853469  8436 layer_factory.hpp:77] Creating layer fc2_right_confidence
I1101 23:18:28.853473  8436 net.cpp:91] Creating Layer fc2_right_confidence
I1101 23:18:28.853477  8436 net.cpp:425] fc2_right_confidence <- fc1_right_confidence
I1101 23:18:28.853482  8436 net.cpp:399] fc2_right_confidence -> fc2_right_confidence
I1101 23:18:28.853552  8436 net.cpp:141] Setting up fc2_right_confidence
I1101 23:18:28.853559  8436 net.cpp:148] Top shape: 128 1 (128)
I1101 23:18:28.853560  8436 net.cpp:156] Memory required for data: 304902148
I1101 23:18:28.853575  8436 layer_factory.hpp:77] Creating layer loss_right_confidence
I1101 23:18:28.853579  8436 net.cpp:91] Creating Layer loss_right_confidence
I1101 23:18:28.853582  8436 net.cpp:425] loss_right_confidence <- fc2_right_confidence
I1101 23:18:28.853586  8436 net.cpp:425] loss_right_confidence <- visibility_right
I1101 23:18:28.853590  8436 net.cpp:399] loss_right_confidence -> loss_right_confidence
I1101 23:18:28.853616  8436 net.cpp:141] Setting up loss_right_confidence
I1101 23:18:28.853621  8436 net.cpp:148] Top shape: (1)
I1101 23:18:28.853626  8436 net.cpp:151]     with loss weight 1
I1101 23:18:28.853634  8436 net.cpp:156] Memory required for data: 304902152
I1101 23:18:28.853637  8436 layer_factory.hpp:77] Creating layer fc1_left
I1101 23:18:28.853644  8436 net.cpp:91] Creating Layer fc1_left
I1101 23:18:28.853648  8436 net.cpp:425] fc1_left <- conv4_3_relu4_3_0_split_2
I1101 23:18:28.853652  8436 net.cpp:399] fc1_left -> fc1_left
I1101 23:18:28.855082  8436 net.cpp:141] Setting up fc1_left
I1101 23:18:28.855089  8436 net.cpp:148] Top shape: 128 256 (32768)
I1101 23:18:28.855093  8436 net.cpp:156] Memory required for data: 305033224
I1101 23:18:28.855098  8436 layer_factory.hpp:77] Creating layer drop1_left
I1101 23:18:28.855104  8436 net.cpp:91] Creating Layer drop1_left
I1101 23:18:28.855108  8436 net.cpp:425] drop1_left <- fc1_left
I1101 23:18:28.855113  8436 net.cpp:386] drop1_left -> fc1_left (in-place)
I1101 23:18:28.855125  8436 net.cpp:141] Setting up drop1_left
I1101 23:18:28.855130  8436 net.cpp:148] Top shape: 128 256 (32768)
I1101 23:18:28.855132  8436 net.cpp:156] Memory required for data: 305164296
I1101 23:18:28.855135  8436 layer_factory.hpp:77] Creating layer fc2_left
I1101 23:18:28.855139  8436 net.cpp:91] Creating Layer fc2_left
I1101 23:18:28.855141  8436 net.cpp:425] fc2_left <- fc1_left
I1101 23:18:28.855147  8436 net.cpp:399] fc2_left -> fc2_left
I1101 23:18:28.855234  8436 net.cpp:141] Setting up fc2_left
I1101 23:18:28.855239  8436 net.cpp:148] Top shape: 128 2 (256)
I1101 23:18:28.855242  8436 net.cpp:156] Memory required for data: 305165320
I1101 23:18:28.855247  8436 layer_factory.hpp:77] Creating layer loss_left_coordinate
I1101 23:18:28.855250  8436 net.cpp:91] Creating Layer loss_left_coordinate
I1101 23:18:28.855253  8436 net.cpp:425] loss_left_coordinate <- fc2_left
I1101 23:18:28.855257  8436 net.cpp:425] loss_left_coordinate <- left_eye
I1101 23:18:28.855259  8436 net.cpp:399] loss_left_coordinate -> loss_left_coordinate
I1101 23:18:28.855299  8436 net.cpp:141] Setting up loss_left_coordinate
I1101 23:18:28.855304  8436 net.cpp:148] Top shape: (1)
I1101 23:18:28.855306  8436 net.cpp:151]     with loss weight 1
I1101 23:18:28.855312  8436 net.cpp:156] Memory required for data: 305165324
I1101 23:18:28.855316  8436 layer_factory.hpp:77] Creating layer fc1_right
I1101 23:18:28.855322  8436 net.cpp:91] Creating Layer fc1_right
I1101 23:18:28.855325  8436 net.cpp:425] fc1_right <- conv4_3_relu4_3_0_split_3
I1101 23:18:28.855330  8436 net.cpp:399] fc1_right -> fc1_right
I1101 23:18:28.856468  8436 net.cpp:141] Setting up fc1_right
I1101 23:18:28.856477  8436 net.cpp:148] Top shape: 128 256 (32768)
I1101 23:18:28.856482  8436 net.cpp:156] Memory required for data: 305296396
I1101 23:18:28.856489  8436 layer_factory.hpp:77] Creating layer drop1_right
I1101 23:18:28.856498  8436 net.cpp:91] Creating Layer drop1_right
I1101 23:18:28.856503  8436 net.cpp:425] drop1_right <- fc1_right
I1101 23:18:28.856510  8436 net.cpp:386] drop1_right -> fc1_right (in-place)
I1101 23:18:28.856528  8436 net.cpp:141] Setting up drop1_right
I1101 23:18:28.856534  8436 net.cpp:148] Top shape: 128 256 (32768)
I1101 23:18:28.856535  8436 net.cpp:156] Memory required for data: 305427468
I1101 23:18:28.856537  8436 layer_factory.hpp:77] Creating layer fc2_right
I1101 23:18:28.856541  8436 net.cpp:91] Creating Layer fc2_right
I1101 23:18:28.856545  8436 net.cpp:425] fc2_right <- fc1_right
I1101 23:18:28.856549  8436 net.cpp:399] fc2_right -> fc2_right
I1101 23:18:28.856621  8436 net.cpp:141] Setting up fc2_right
I1101 23:18:28.856636  8436 net.cpp:148] Top shape: 128 2 (256)
I1101 23:18:28.856639  8436 net.cpp:156] Memory required for data: 305428492
I1101 23:18:28.856643  8436 layer_factory.hpp:77] Creating layer loss_right_coordinate
I1101 23:18:28.856647  8436 net.cpp:91] Creating Layer loss_right_coordinate
I1101 23:18:28.856649  8436 net.cpp:425] loss_right_coordinate <- fc2_right
I1101 23:18:28.856654  8436 net.cpp:425] loss_right_coordinate <- right_eye
…
