…
I1023 19:31:58.051606  8748 net.cpp:313] The NetState phase (0) differed from the phase (1) specified by a rule in layer data
I1023 19:31:58.052189  8748 net.cpp:49] Initializing net from parameters: 
name: "FaceNet"
state {
  phase: TRAIN
}
layer {
  name: "data"
  type: "HDF5Data"
  top: "data"
  top: "left_eye"
  top: "visibility_left"
  top: "right_eye"
  top: "visibility_right"
  include {
    phase: TRAIN
  }
  hdf5_data_param {
    source: "/home/wzleong/Downloads/nottingham/hdf5_latest/train_scaled_mean_subtracted_own_data_compile_multiple_label_data_list.txt"
    batch_size: 128
    shuffle: true
  }
}
layer {
  name: "conv1_small_1"
  type: "Convolution"
  bottom: "data"
  top: "conv1_small_1"
  param {
    lr_mult: 1
    decay_mult: 0
  }
  param {
    lr_mult: 2
    decay_mult: 0
  }
  convolution_param {
    num_output: 4
    pad: 1
    kernel_size: 3
    stride: 2
    weight_filler {
      type: "xavier"
    }
    bias_filler {
      type: "constant"
    }
  }
}
layer {
  name: "relu1_small_1"
  type: "ReLU"
  bottom: "conv1_small_1"
  top: "conv1_small_1"
}
layer {
  name: "pool1_small_1"
  type: "Pooling"
  bottom: "conv1_small_1"
  top: "pool1_small_1"
  pooling_param {
    pool: MAX
    kernel_size: 2
    stride: 2
  }
}
layer {
  name: "conv1_medium_1"
  type: "Convolution"
  bottom: "data"
  top: "conv1_medium_1"
  param {
    lr_mult: 1
    decay_mult: 0
  }
  param {
    lr_mult: 2
    decay_mult: 0
  }
  convolution_param {
    num_output: 4
    pad: 2
    kernel_size: 5
    stride: 2
    weight_filler {
      type: "xavier"
    }
    bias_filler {
      type: "constant"
    }
  }
}
layer {
  name: "relu1_medium_1"
  type: "ReLU"
  bottom: "conv1_medium_1"
  top: "conv1_medium_1"
}
layer {
  name: "pool1_medium_1"
  type: "Pooling"
  bottom: "conv1_medium_1"
  top: "pool1_medium_1"
  pooling_param {
    pool: MAX
    kernel_size: 2
    stride: 2
  }
}
layer {
  name: "concat_pool1_1"
  type: "Concat"
  bottom: "pool1_small_1"
  bottom: "pool1_medium_1"
  top: "concat_pool1_1"
  concat_param {
    axis: 1
  }
}
layer {
  name: "conv1_small_2"
  type: "Convolution"
  bottom: "data"
  top: "conv1_small_2"
  param {
    lr_mult: 1
    decay_mult: 0
  }
  param {
    lr_mult: 2
    decay_mult: 0
  }
  convolution_param {
    num_output: 4
    pad: 3
    kernel_size: 7
    stride: 2
    weight_filler {
      type: "xavier"
    }
    bias_filler {
      type: "constant"
    }
  }
}
layer {
  name: "relu1_small_2"
  type: "ReLU"
  bottom: "conv1_small_2"
  top: "conv1_small_2"
}
layer {
  name: "pool1_small_2"
  type: "Pooling"
  bottom: "conv1_small_2"
  top: "pool1_small_2"
  pooling_param {
    pool: MAX
    kernel_size: 2
    stride: 2
  }
}
layer {
  name: "conv1_medium_2"
  type: "Convolution"
  bottom: "data"
  top: "conv1_medium_2"
  param {
    lr_mult: 1
    decay_mult: 0
  }
  param {
    lr_mult: 2
    decay_mult: 0
  }
  convolution_param {
    num_output: 4
    pad: 4
    kernel_size: 9
    stride: 2
    weight_filler {
      type: "xavier"
    }
    bias_filler {
      type: "constant"
    }
  }
}
layer {
  name: "relu1_medium_2"
  type: "ReLU"
  bottom: "conv1_medium_2"
  top: "conv1_medium_2"
}
layer {
  name: "pool1_medium_2"
  type: "Pooling"
  bottom: "conv1_medium_2"
  top: "pool1_medium_2"
  pooling_param {
    pool: MAX
    kernel_size: 2
    stride: 2
  }
}
layer {
  name: "concat_pool1_2"
  type: "Concat"
  bottom: "pool1_small_2"
  bottom: "pool1_medium_2"
  top: "concat_pool1_2"
  concat_param {
    axis: 1
  }
}
layer {
  name: "conv2_small_1"
  type: "Convolution"
  bottom: "concat_pool1_1"
  top: "conv2_small_1"
  param {
    lr_mult: 1
    decay_mult: 0
  }
  param {
    lr_mult: 2
    decay_mult: 0
  }
  convolution_param {
    num_output: 8
    pad: 1
    kernel_size: 3
    stride: 2
    weight_filler {
      type: "xavier"
    }
    bias_filler {
      type: "constant"
    }
  }
}
layer {
  name: "relu2_small_1"
  type: "ReLU"
  bottom: "conv2_small_1"
  top: "conv2_small_1"
}
layer {
  name: "pool2_small_1"
  type: "Pooling"
  bottom: "conv2_small_1"
  top: "pool2_small_1"
  pooling_param {
    pool: MAX
    kernel_size: 2
    stride: 2
  }
}
layer {
  name: "conv2_medium_1"
  type: "Convolution"
  bottom: "concat_pool1_1"
  top: "conv2_medium_1"
  param {
    lr_mult: 1
    decay_mult: 0
  }
  param {
    lr_mult: 2
    decay_mult: 0
  }
  convolution_param {
    num_output: 8
    pad: 2
    kernel_size: 5
    stride: 2
    weight_filler {
      type: "xavier"
    }
    bias_filler {
      type: "constant"
    }
  }
}
layer {
  name: "relu2_medium_1"
  type: "ReLU"
  bottom: "conv2_medium_1"
  top: "conv2_medium_1"
}
layer {
  name: "pool2_medium_1"
  type: "Pooling"
  bottom: "conv2_medium_1"
  top: "pool2_medium_1"
  pooling_param {
    pool: MAX
    kernel_size: 2
    stride: 2
  }
}
layer {
  name: "concat_pool2_1"
  type: "Concat"
  bottom: "pool2_small_1"
  bottom: "pool2_medium_1"
  top: "concat_pool2_1"
  concat_param {
    axis: 1
  }
}
layer {
  name: "conv2_small_2"
  type: "Convolution"
  bottom: "concat_pool1_2"
  top: "conv2_small_2"
  param {
    lr_mult: 1
    decay_mult: 0
  }
  param {
    lr_mult: 2
    decay_mult: 0
  }
  convolution_param {
    num_output: 8
    pad: 3
    kernel_size: 7
    stride: 2
    weight_filler {
      type: "xavier"
    }
    bias_filler {
      type: "constant"
    }
  }
}
layer {
  name: "relu2_small_2"
  type: "ReLU"
  bottom: "conv2_small_2"
  top: "conv2_small_2"
}
layer {
  name: "pool2_small_2"
  type: "Pooling"
  bottom: "conv2_small_2"
  top: "pool2_small_2"
  pooling_param {
    pool: MAX
    kernel_size: 2
    stride: 2
  }
}
layer {
  name: "conv2_medium_2"
  type: "Convolution"
  bottom: "concat_pool1_2"
  top: "conv2_medium_2"
  param {
    lr_mult: 1
    decay_mult: 0
  }
  param {
    lr_mult: 2
    decay_mult: 0
  }
  convolution_param {
    num_output: 8
    pad: 4
    kernel_size: 9
    stride: 2
    weight_filler {
      type: "xavier"
    }
    bias_filler {
      type: "constant"
    }
  }
}
layer {
  name: "relu2_medium_2"
  type: "ReLU"
  bottom: "conv2_medium_2"
  top: "conv2_medium_2"
}
layer {
  name: "pool2_medium_2"
  type: "Pooling"
  bottom: "conv2_medium_2"
  top: "pool2_medium_2"
  pooling_param {
    pool: MAX
    kernel_size: 2
    stride: 2
  }
}
layer {
  name: "concat_pool2_2"
  type: "Concat"
  bottom: "pool2_small_2"
  bottom: "pool2_medium_2"
  top: "concat_pool2_2"
  concat_param {
    axis: 1
  }
}
layer {
  name: "conv3_left_small_1"
  type: "Convolution"
  bottom: "concat_pool2_1"
  top: "conv3_left_small_1"
  param {
    lr_mult: 1
    decay_mult: 0
  }
  param {
    lr_mult: 2
    decay_mult: 0
  }
  convolution_param {
    num_output: 16
    pad: 0
    kernel_size: 1
    stride: 1
    weight_filler {
      type: "xavier"
    }
    bias_filler {
      type: "constant"
    }
  }
}
layer {
  name: "relu3_left_small_1"
  type: "ReLU"
  bottom: "conv3_left_small_1"
  top: "conv3_left_small_1"
}
layer {
  name: "pool3_left_small_1"
  type: "Pooling"
  bottom: "conv3_left_small_1"
  top: "pool3_left_small_1"
  pooling_param {
    pool: MAX
    kernel_size: 2
    stride: 2
  }
}
layer {
  name: "conv3_left_medium_1"
  type: "Convolution"
  bottom: "concat_pool2_1"
  top: "conv3_left_medium_1"
  param {
    lr_mult: 1
    decay_mult: 0
  }
  param {
    lr_mult: 2
    decay_mult: 0
  }
  convolution_param {
    num_output: 16
    pad: 1
    kernel_size: 3
    stride: 1
    weight_filler {
      type: "xavier"
    }
    bias_filler {
      type: "constant"
    }
  }
}
layer {
  name: "relu3_left_medium_1"
  type: "ReLU"
  bottom: "conv3_left_medium_1"
  top: "conv3_left_medium_1"
}
layer {
  name: "pool3_left_medium_1"
  type: "Pooling"
  bottom: "conv3_left_medium_1"
  top: "pool3_left_medium_1"
  pooling_param {
    pool: MAX
    kernel_size: 2
    stride: 2
  }
}
layer {
  name: "concat_pool3_left_1"
  type: "Concat"
  bottom: "pool3_left_small_1"
  bottom: "pool3_left_medium_1"
  top: "concat_pool3_left_1"
  concat_param {
    axis: 1
  }
}
layer {
  name: "conv3_left_small_2"
  type: "Convolution"
  bottom: "concat_pool2_2"
  top: "conv3_left_small_2"
  param {
    lr_mult: 1
    decay_mult: 0
  }
  param {
    lr_mult: 2
    decay_mult: 0
  }
  convolution_param {
    num_output: 16
    pad: 2
    kernel_size: 5
    stride: 1
    weight_filler {
      type: "xavier"
    }
    bias_filler {
      type: "constant"
    }
  }
}
layer {
  name: "relu3_left_small_2"
  type: "ReLU"
  bottom: "conv3_left_small_2"
  top: "conv3_left_small_2"
}
layer {
  name: "pool3_left_small_2"
  type: "Pooling"
  bottom: "conv3_left_small_2"
  top: "pool3_left_small_2"
  pooling_param {
    pool: MAX
    kernel_size: 2
    stride: 2
  }
}
layer {
  name: "conv3_left_medium_2"
  type: "Convolution"
  bottom: "concat_pool2_2"
  top: "conv3_left_medium_2"
  param {
    lr_mult: 1
    decay_mult: 0
  }
  param {
    lr_mult: 2
    decay_mult: 0
  }
  convolution_param {
    num_output: 16
    pad: 1
    kernel_size: 3
    stride: 1
    weight_filler {
      type: "xavier"
    }
    bias_filler {
      type: "constant"
    }
  }
}
layer {
  name: "relu3_left_medium_2"
  type: "ReLU"
  bottom: "conv3_left_medium_2"
  top: "conv3_left_medium_2"
}
layer {
  name: "pool3_left_medium_2"
  type: "Pooling"
  bottom: "conv3_left_medium_2"
  top: "pool3_left_medium_2"
  pooling_param {
    pool: MAX
    kernel_size: 2
    stride: 2
  }
}
layer {
  name: "concat_pool3_left_2"
  type: "Concat"
  bottom: "pool3_left_small_2"
  bottom: "pool3_left_medium_2"
  top: "concat_pool3_left_2"
  concat_param {
    axis: 1
  }
}
layer {
  name: "conv4_left_small_1"
  type: "Convolution"
  bottom: "concat_pool3_left_1"
  top: "conv4_left_small_1"
  param {
    lr_mult: 1
    decay_mult: 0
  }
  param {
    lr_mult: 2
    decay_mult: 0
  }
  convolution_param {
    num_output: 32
    pad: 0
    kernel_size: 1
    stride: 1
    weight_filler {
      type: "xavier"
    }
    bias_filler {
      type: "constant"
    }
  }
}
layer {
  name: "relu4_left_small_1"
  type: "ReLU"
  bottom: "conv4_left_small_1"
  top: "conv4_left_small_1"
}
layer {
  name: "pool4_left_small_1"
  type: "Pooling"
  bottom: "conv4_left_small_1"
  top: "pool4_left_small_1"
  pooling_param {
    pool: MAX
    kernel_size: 2
    stride: 2
  }
}
layer {
  name: "conv4_left_medium_1"
  type: "Convolution"
  bottom: "concat_pool3_left_1"
  top: "conv4_left_medium_1"
  param {
    lr_mult: 1
    decay_mult: 0
  }
  param {
    lr_mult: 2
    decay_mult: 0
  }
  convolution_param {
    num_output: 32
    pad: 1
    kernel_size: 3
    stride: 1
    weight_filler {
      type: "xavier"
    }
    bias_filler {
      type: "constant"
    }
  }
}
layer {
  name: "relu4_left_medium_1"
  type: "ReLU"
  bottom: "conv4_left_medium_1"
  top: "conv4_left_medium_1"
}
layer {
  name: "pool4_left_medium_1"
  type: "Pooling"
  bottom: "conv4_left_medium_1"
  top: "pool4_left_medium_1"
  pooling_param {
    pool: MAX
    kernel_size: 2
    stride: 2
  }
}
layer {
  name: "concat_pool4_left_1"
  type: "Concat"
  bottom: "pool4_left_small_1"
  bottom: "pool4_left_medium_1"
  top: "concat_pool4_left_1"
  concat_param {
    axis: 1
  }
}
layer {
  name: "conv4_left_small_2"
  type: "Convolution"
  bottom: "concat_pool3_left_2"
  top: "conv4_left_small_2"
  param {
    lr_mult: 1
    decay_mult: 0
  }
  param {
    lr_mult: 2
    decay_mult: 0
  }
  convolution_param {
    num_output: 32
    pad: 2
    kernel_size: 5
    stride: 1
    weight_filler {
      type: "xavier"
    }
    bias_filler {
      type: "constant"
    }
  }
}
layer {
  name: "relu4_left_small_2"
  type: "ReLU"
  bottom: "conv4_left_small_2"
  top: "conv4_left_small_2"
}
layer {
  name: "pool4_left_small_2"
  type: "Pooling"
  bottom: "conv4_left_small_2"
  top: "pool4_left_small_2"
  pooling_param {
    pool: MAX
    kernel_size: 2
    stride: 2
  }
}
layer {
  name: "conv4_left_medium_2"
  type: "Convolution"
  bottom: "concat_pool3_left_2"
  top: "conv4_left_medium_2"
  param {
    lr_mult: 1
    decay_mult: 0
  }
  param {
    lr_mult: 2
    decay_mult: 0
  }
  convolution_param {
    num_output: 32
    pad: 1
    kernel_size: 3
    stride: 1
    weight_filler {
      type: "xavier"
    }
    bias_filler {
      type: "constant"
    }
  }
}
layer {
  name: "relu4_left_medium_2"
  type: "ReLU"
  bottom: "conv4_left_medium_2"
  top: "conv4_left_medium_2"
}
layer {
  name: "pool4_left_medium_2"
  type: "Pooling"
  bottom: "conv4_left_medium_2"
  top: "pool4_left_medium_2"
  pooling_param {
    pool: MAX
    kernel_size: 2
    stride: 2
  }
}
layer {
  name: "concat_pool4_left_2"
  type: "Concat"
  bottom: "pool4_left_small_2"
  bottom: "pool4_left_medium_2"
  top: "concat_pool4_left_2"
  concat_param {
    axis: 1
  }
}
layer {
  name: "concat_pool3_left_compile"
  type: "Concat"
  bottom: "concat_pool3_left_1"
  bottom: "concat_pool3_left_2"
  top: "concat_pool3_left_compile"
  concat_param {
    axis: 1
  }
}
layer {
  name: "fc1_left_coordinate_1"
  type: "InnerProduct"
  bottom: "concat_pool4_left_1"
  top: "fc1_left_coordinate_1"
  param {
    lr_mult: 1
    decay_mult: 0
  }
  param {
    lr_mult: 2
    decay_mult: 0
  }
  inner_product_param {
    num_output: 4096
    weight_filler {
      type: "xavier"
    }
    bias_filler {
      type: "constant"
    }
  }
}
layer {
  name: "drop1_left_coordinate_1"
  type: "Dropout"
  bottom: "fc1_left_coordinate_1"
  top: "fc1_left_coordinate_1"
  dropout_param {
    dropout_ratio: 0.5
  }
}
layer {
  name: "fc1_left_coordinate_2"
  type: "InnerProduct"
  bottom: "concat_pool4_left_2"
  top: "fc1_left_coordinate_2"
  param {
    lr_mult: 1
    decay_mult: 0
  }
  param {
    lr_mult: 2
    decay_mult: 0
  }
  inner_product_param {
    num_output: 4096
    weight_filler {
      type: "xavier"
    }
    bias_filler {
      type: "constant"
    }
  }
}
layer {
  name: "drop1_left_coordinate_2"
  type: "Dropout"
  bottom: "fc1_left_coordinate_2"
  top: "fc1_left_coordinate_2"
  dropout_param {
    dropout_ratio: 0.5
  }
}
layer {
  name: "concat_fc1_left_coordinate_compile"
  type: "Concat"
  bottom: "fc1_left_coordinate_1"
  bottom: "fc1_left_coordinate_2"
  top: "concat_fc1_left_coordinate_compile"
  concat_param {
    axis: 1
  }
}
layer {
  name: "fc2_left_coordinate"
  type: "InnerProduct"
  bottom: "concat_fc1_left_coordinate_compile"
  top: "fc2_left_coordinate"
  param {
    lr_mult: 1
    decay_mult: 0
  }
  param {
    lr_mult: 2
    decay_mult: 0
  }
  inner_product_param {
    num_output: 2
    weight_filler {
      type: "xavier"
    }
    bias_filler {
      type: "constant"
    }
  }
}
layer {
  name: "fc3_left_coordinate"
  type: "InnerProduct"
  bottom: "fc2_left_coordinate"
  top: "fc3_left_coordinate"
  param {
    lr_mult: 1
    decay_mult: 0
  }
  param {
    lr_mult: 2
    decay_mult: 0
  }
  inner_product_param {
    num_output: 2
    weight_filler {
      type: "xavier"
    }
    bias_filler {
      type: "constant"
    }
  }
}
layer {
  name: "loss_left_coordinate"
  type: "EuclideanLoss"
  bottom: "fc3_left_coordinate"
  bottom: "left_eye"
  top: "loss_left_coordinate"
}
layer {
  name: "fc1_left_confidence"
  type: "Convolution"
  bottom: "concat_pool3_left_compile"
  top: "fc1_left_confidence"
  param {
    lr_mult: 1
    decay_mult: 0
  }
  param {
    lr_mult: 2
    decay_mult: 0
  }
  convolution_param {
    num_output: 128
    pad: 0
    kernel_size: 4
    stride: 1
    weight_filler {
      type: "xavier"
    }
    bias_filler {
      type: "constant"
    }
  }
}
layer {
  name: "relu_fc1_left_confidence"
  type: "ReLU"
  bottom: "fc1_left_confidence"
  top: "fc1_left_confidence"
}
layer {
  name: "drop1_left_confidence"
  type: "Dropout"
  bottom: "fc1_left_confidence"
  top: "fc1_left_confidence"
  dropout_param {
    dropout_ratio: 0.5
  }
}
layer {
  name: "fc2_left_confidence"
  type: "Convolution"
  bottom: "fc1_left_confidence"
  top: "fc2_left_confidence"
  param {
    lr_mult: 1
    decay_mult: 0
  }
  param {
    lr_mult: 2
    decay_mult: 0
  }
  convolution_param {
    num_output: 256
    pad: 0
    kernel_size: 4
    stride: 1
    weight_filler {
      type: "xavier"
    }
    bias_filler {
      type: "constant"
    }
  }
}
layer {
  name: "relu_fc2_left_confidence"
  type: "ReLU"
  bottom: "fc2_left_confidence"
  top: "fc2_left_confidence"
}
layer {
  name: "drop2_left_confidence"
  type: "Dropout"
  bottom: "fc2_left_confidence"
  top: "fc2_left_confidence"
  dropout_param {
    dropout_ratio: 0.5
  }
}
layer {
  name: "fc3_left_confidence"
  type: "Convolution"
  bottom: "fc2_left_confidence"
  top: "fc3_left_confidence"
  param {
    lr_mult: 1
    decay_mult: 0
  }
  param {
    lr_mult: 2
    decay_mult: 0
  }
  convolution_param {
    num_output: 2
    pad: 0
    kernel_size: 1
    stride: 1
    weight_filler {
      type: "xavier"
    }
    bias_filler {
      type: "constant"
    }
  }
}
layer {
  name: "loss_left_confidence"
  type: "SoftmaxWithLoss"
  bottom: "fc3_left_confidence"
  bottom: "visibility_left"
  top: "loss_left_confidence"
}
layer {
  name: "conv3_right_small_1"
  type: "Convolution"
  bottom: "concat_pool2_1"
  top: "conv3_right_small_1"
  param {
    lr_mult: 1
    decay_mult: 0
  }
  param {
    lr_mult: 2
    decay_mult: 0
  }
  convolution_param {
    num_output: 16
    pad: 0
    kernel_size: 1
    stride: 1
    weight_filler {
      type: "xavier"
    }
    bias_filler {
      type: "constant"
    }
  }
}
layer {
  name: "relu3_right_small_1"
  type: "ReLU"
  bottom: "conv3_right_small_1"
  top: "conv3_right_small_1"
}
layer {
  name: "pool3_right_small_1"
  type: "Pooling"
  bottom: "conv3_right_small_1"
  top: "pool3_right_small_1"
  pooling_param {
    pool: MAX
    kernel_size: 2
    stride: 2
  }
}
layer {
  name: "conv3_right_medium_1"
  type: "Convolution"
  bottom: "concat_pool2_1"
  top: "conv3_right_medium_1"
  param {
    lr_mult: 1
    decay_mult: 0
  }
  param {
    lr_mult: 2
    decay_mult: 0
  }
  convolution_param {
    num_output: 16
    pad: 1
    kernel_size: 3
    stride: 1
    weight_filler {
      type: "xavier"
    }
    bias_filler {
      type: "constant"
    }
  }
}
layer {
  name: "relu3_right_medium_1"
  type: "ReLU"
  bottom: "conv3_right_medium_1"
  top: "conv3_right_medium_1"
}
layer {
  name: "pool3_right_medium_1"
  type: "Pooling"
  bottom: "conv3_right_medium_1"
  top: "pool3_right_medium_1"
  pooling_param {
    pool: MAX
    kernel_size: 2
    stride: 2
  }
}
layer {
  name: "concat_pool3_right_1"
  type: "Concat"
  bottom: "pool3_right_small_1"
  bottom: "pool3_right_medium_1"
  top: "concat_pool3_right_1"
  concat_param {
    axis: 1
  }
}
layer {
  name: "conv3_right_small_2"
  type: "Convolution"
  bottom: "concat_pool2_2"
  top: "conv3_right_small_2"
  param {
    lr_mult: 1
    decay_mult: 0
  }
  param {
    lr_mult: 2
    decay_mult: 0
  }
  convolution_param {
    num_output: 16
    pad: 1
    kernel_size: 3
    stride: 1
    weight_filler {
      type: "xavier"
    }
    bias_filler {
      type: "constant"
    }
  }
}
layer {
  name: "relu3_right_small_2"
  type: "ReLU"
  bottom: "conv3_right_small_2"
  top: "conv3_right_small_2"
}
layer {
  name: "pool3_right_small_2"
  type: "Pooling"
  bottom: "conv3_right_small_2"
  top: "pool3_right_small_2"
  pooling_param {
    pool: MAX
    kernel_size: 2
    stride: 2
  }
}
layer {
  name: "conv3_right_medium_2"
  type: "Convolution"
  bottom: "concat_pool2_2"
  top: "conv3_right_medium_2"
  param {
    lr_mult: 1
    decay_mult: 0
  }
  param {
    lr_mult: 2
    decay_mult: 0
  }
  convolution_param {
    num_output: 16
    pad: 2
    kernel_size: 5
    stride: 1
    weight_filler {
      type: "xavier"
    }
    bias_filler {
      type: "constant"
    }
  }
}
layer {
  name: "relu3_right_medium_2"
  type: "ReLU"
  bottom: "conv3_right_medium_2"
  top: "conv3_right_medium_2"
}
layer {
  name: "pool3_right_medium_2"
  type: "Pooling"
  bottom: "conv3_right_medium_2"
  top: "pool3_right_medium_2"
  pooling_param {
    pool: MAX
    kernel_size: 2
    stride: 2
  }
}
layer {
  name: "concat_pool3_right_2"
  type: "Concat"
  bottom: "pool3_right_small_2"
  bottom: "pool3_right_medium_2"
  top: "concat_pool3_right_2"
  concat_param {
    axis: 1
  }
}
layer {
  name: "conv4_right_small_1"
  type: "Convolution"
  bottom: "concat_pool3_right_1"
  top: "conv4_right_small_1"
  param {
    lr_mult: 1
    decay_mult: 0
  }
  param {
    lr_mult: 2
    decay_mult: 0
  }
  convolution_param {
    num_output: 32
    pad: 0
    kernel_size: 1
    stride: 1
    weight_filler {
      type: "xavier"
    }
    bias_filler {
      type: "constant"
    }
  }
}
layer {
  name: "relu4_right_small_1"
  type: "ReLU"
  bottom: "conv4_right_small_1"
  top: "conv4_right_small_1"
}
layer {
  name: "pool4_right_small_1"
  type: "Pooling"
  bottom: "conv4_right_small_1"
  top: "pool4_right_small_1"
  pooling_param {
    pool: MAX
    kernel_size: 2
    stride: 2
  }
}
layer {
  name: "conv4_right_medium_1"
  type: "Convolution"
  bottom: "concat_pool3_right_1"
  top: "conv4_right_medium_1"
  param {
    lr_mult: 1
    decay_mult: 0
  }
  param {
    lr_mult: 2
    decay_mult: 0
  }
  convolution_param {
    num_output: 32
    pad: 1
    kernel_size: 3
    stride: 1
    weight_filler {
      type: "xavier"
    }
    bias_filler {
      type: "constant"
    }
  }
}
layer {
  name: "relu4_right_medium_1"
  type: "ReLU"
  bottom: "conv4_right_medium_1"
  top: "conv4_right_medium_1"
}
layer {
  name: "pool4_right_medium_1"
  type: "Pooling"
  bottom: "conv4_right_medium_1"
  top: "pool4_right_medium_1"
  pooling_param {
    pool: MAX
    kernel_size: 2
    stride: 2
  }
}
layer {
  name: "concat_pool4_right_1"
  type: "Concat"
  bottom: "pool4_right_small_1"
  bottom: "pool4_right_medium_1"
  top: "concat_pool4_right_1"
  concat_param {
    axis: 1
  }
}
layer {
  name: "conv4_right_small_2"
  type: "Convolution"
  bottom: "concat_pool3_right_2"
  top: "conv4_right_small_2"
  param {
    lr_mult: 1
    decay_mult: 0
  }
  param {
    lr_mult: 2
    decay_mult: 0
  }
  convolution_param {
    num_output: 32
    pad: 2
    kernel_size: 5
    stride: 1
    weight_filler {
      type: "xavier"
    }
    bias_filler {
      type: "constant"
    }
  }
}
layer {
  name: "relu4_right_small_2"
  type: "ReLU"
  bottom: "conv4_right_small_2"
  top: "conv4_right_small_2"
}
layer {
  name: "pool4_right_small_2"
  type: "Pooling"
  bottom: "conv4_right_small_2"
  top: "pool4_right_small_2"
  pooling_param {
    pool: MAX
    kernel_size: 2
    stride: 2
  }
}
layer {
  name: "conv4_right_medium_2"
  type: "Convolution"
  bottom: "concat_pool3_right_2"
  top: "conv4_right_medium_2"
  param {
    lr_mult: 1
    decay_mult: 0
  }
  param {
    lr_mult: 2
    decay_mult: 0
  }
  convolution_param {
    num_output: 32
    pad: 1
    kernel_size: 3
    stride: 1
    weight_filler {
      type: "xavier"
    }
    bias_filler {
      type: "constant"
    }
  }
}
layer {
  name: "relu4_right_medium_2"
  type: "ReLU"
  bottom: "conv4_right_medium_2"
  top: "conv4_right_medium_2"
}
layer {
  name: "pool4_right_medium_2"
  type: "Pooling"
  bottom: "conv4_right_medium_2"
  top: "pool4_right_medium_2"
  pooling_param {
    pool: MAX
    kernel_size: 2
    stride: 2
  }
}
layer {
  name: "concat_pool4_right_2"
  type: "Concat"
  bottom: "pool4_right_small_2"
  bottom: "pool4_right_medium_2"
  top: "concat_pool4_right_2"
  concat_param {
    axis: 1
  }
}
layer {
  name: "concat_pool3_right_compile"
  type: "Concat"
  bottom: "concat_pool3_right_1"
  bottom: "concat_pool3_right_2"
  top: "concat_pool3_right_compile"
  concat_param {
    axis: 1
  }
}
layer {
  name: "fc1_right_coordinate_1"
  type: "InnerProduct"
  bottom: "concat_pool4_right_1"
  top: "fc1_right_coordinate_1"
  param {
    lr_mult: 1
    decay_mult: 0
  }
  param {
    lr_mult: 2
    decay_mult: 0
  }
  inner_product_param {
    num_output: 4096
    weight_filler {
      type: "xavier"
    }
    bias_filler {
      type: "constant"
    }
  }
}
layer {
  name: "drop1_right_coordinate_1"
  type: "Dropout"
  bottom: "fc1_right_coordinate_1"
  top: "fc1_right_coordinate_1"
  dropout_param {
    dropout_ratio: 0.5
  }
}
layer {
  name: "fc1_right_coordinate_2"
  type: "InnerProduct"
  bottom: "concat_pool4_right_2"
  top: "fc1_right_coordinate_2"
  param {
    lr_mult: 1
    decay_mult: 0
  }
  param {
    lr_mult: 2
    decay_mult: 0
  }
  inner_product_param {
    num_output: 4096
    weight_filler {
      type: "xavier"
    }
    bias_filler {
      type: "constant"
    }
  }
}
layer {
  name: "drop1_right_coordinate_2"
  type: "Dropout"
  bottom: "fc1_right_coordinate_2"
  top: "fc1_right_coordinate_2"
  dropout_param {
    dropout_ratio: 0.5
  }
}
layer {
  name: "concat_fc1_right_coordinate_compile"
  type: "Concat"
  bottom: "fc1_right_coordinate_1"
  bottom: "fc1_right_coordinate_2"
  top: "concat_fc1_right_coordinate_compile"
  concat_param {
    axis: 1
  }
}
layer {
  name: "fc2_right_coordinate"
  type: "InnerProduct"
  bottom: "concat_fc1_right_coordinate_compile"
  top: "fc2_right_coordinate"
  param {
    lr_mult: 1
    decay_mult: 0
  }
  param {
    lr_mult: 2
    decay_mult: 0
  }
  inner_product_param {
    num_output: 2
    weight_filler {
      type: "xavier"
    }
    bias_filler {
      type: "constant"
    }
  }
}
layer {
  name: "fc3_right_coordinate"
  type: "InnerProduct"
  bottom: "fc2_right_coordinate"
  top: "fc3_right_coordinate"
  param {
    lr_mult: 1
    decay_mult: 0
  }
  param {
    lr_mult: 2
    decay_mult: 0
  }
  inner_product_param {
    num_output: 2
    weight_filler {
      type: "xavier"
    }
    bias_filler {
      type: "constant"
    }
  }
}
layer {
  name: "loss_right_coordinate"
  type: "EuclideanLoss"
  bottom: "fc3_right_coordinate"
  bottom: "right_eye"
  top: "loss_right_coordinate"
}
layer {
  name: "fc1_right_confidence"
  type: "Convolution"
  bottom: "concat_pool3_right_compile"
  top: "fc1_right_confidence"
  param {
    lr_mult: 1
    decay_mult: 0
  }
  param {
    lr_mult: 2
    decay_mult: 0
  }
  convolution_param {
    num_output: 128
    pad: 0
    kernel_size: 4
    stride: 1
    weight_filler {
      type: "xavier"
    }
    bias_filler {
      type: "constant"
    }
  }
}
layer {
  name: "relu_fc1_right_confidence"
  type: "ReLU"
  bottom: "fc1_right_confidence"
  top: "fc1_right_confidence"
}
layer {
  name: "drop1_right_confidence"
  type: "Dropout"
  bottom: "fc1_right_confidence"
  top: "fc1_right_confidence"
  dropout_param {
    dropout_ratio: 0.5
  }
}
layer {
  name: "fc2_right_confidence"
  type: "Convolution"
  bottom: "fc1_right_confidence"
  top: "fc2_right_confidence"
  param {
    lr_mult: 1
    decay_mult: 0
  }
  param {
    lr_mult: 2
    decay_mult: 0
  }
  convolution_param {
    num_output: 256
    pad: 0
    kernel_size: 4
    stride: 1
    weight_filler {
      type: "xavier"
    }
    bias_filler {
      type: "constant"
    }
  }
}
layer {
  name: "relu_fc2_right_confidence"
  type: "ReLU"
  bottom: "fc2_right_confidence"
  top: "fc2_right_confidence"
}
layer {
  name: "drop2_right_confidence"
  type: "Dropout"
  bottom: "fc2_right_confidence"
  top: "fc2_right_confidence"
  dropout_param {
    dropout_ratio: 0.5
  }
}
layer {
  name: "fc3_right_confidence"
  type: "Convolution"
  bottom: "fc2_right_confidence"
  top: "fc3_right_confidence"
  param {
    lr_mult: 1
    decay_mult: 0
  }
  param {
    lr_mult: 2
    decay_mult: 0
  }
  convolution_param {
    num_output: 2
    pad: 0
    kernel_size: 1
    stride: 1
    weight_filler {
      type: "xavier"
    }
    bias_filler {
      type: "constant"
    }
  }
}
layer {
  name: "loss_right_confidence"
  type: "SoftmaxWithLoss"
  bottom: "fc3_right_confidence"
  bottom: "visibility_right"
  top: "loss_right_confidence"
}
I1023 19:31:58.052654  8748 layer_factory.hpp:77] Creating layer data
I1023 19:31:58.052665  8748 net.cpp:91] Creating Layer data
I1023 19:31:58.052670  8748 net.cpp:399] data -> data
I1023 19:31:58.052686  8748 net.cpp:399] data -> left_eye
I1023 19:31:58.052693  8748 net.cpp:399] data -> visibility_left
I1023 19:31:58.052705  8748 net.cpp:399] data -> right_eye
I1023 19:31:58.052708  8748 net.cpp:399] data -> visibility_right
I1023 19:31:58.052714  8748 hdf5_data_layer.cpp:79] Loading list of HDF5 filenames from: /home/wzleong/Downloads/nottingham/hdf5_latest/train_scaled_mean_subtracted_own_data_compile_multiple_label_data_list.txt
I1023 19:31:58.052736  8748 hdf5_data_layer.cpp:93] Number of HDF5 files: 2
I1023 19:31:58.053489  8748 hdf5.cpp:32] Datatype class: H5T_FLOAT
I1023 19:31:58.211455  8748 net.cpp:141] Setting up data
I1023 19:31:58.211477  8748 net.cpp:148] Top shape: 128 1 200 200 (5120000)
I1023 19:31:58.211482  8748 net.cpp:148] Top shape: 128 2 (256)
I1023 19:31:58.211484  8748 net.cpp:148] Top shape: 128 1 (128)
I1023 19:31:58.211488  8748 net.cpp:148] Top shape: 128 2 (256)
I1023 19:31:58.211490  8748 net.cpp:148] Top shape: 128 1 (128)
I1023 19:31:58.211493  8748 net.cpp:156] Memory required for data: 20483072
I1023 19:31:58.211498  8748 layer_factory.hpp:77] Creating layer data_data_0_split
I1023 19:31:58.211509  8748 net.cpp:91] Creating Layer data_data_0_split
I1023 19:31:58.211514  8748 net.cpp:425] data_data_0_split <- data
I1023 19:31:58.211525  8748 net.cpp:399] data_data_0_split -> data_data_0_split_0
I1023 19:31:58.211535  8748 net.cpp:399] data_data_0_split -> data_data_0_split_1
I1023 19:31:58.211541  8748 net.cpp:399] data_data_0_split -> data_data_0_split_2
I1023 19:31:58.211549  8748 net.cpp:399] data_data_0_split -> data_data_0_split_3
I1023 19:31:58.211596  8748 net.cpp:141] Setting up data_data_0_split
I1023 19:31:58.211601  8748 net.cpp:148] Top shape: 128 1 200 200 (5120000)
I1023 19:31:58.211604  8748 net.cpp:148] Top shape: 128 1 200 200 (5120000)
I1023 19:31:58.211607  8748 net.cpp:148] Top shape: 128 1 200 200 (5120000)
I1023 19:31:58.211611  8748 net.cpp:148] Top shape: 128 1 200 200 (5120000)
I1023 19:31:58.211612  8748 net.cpp:156] Memory required for data: 102403072
I1023 19:31:58.211616  8748 layer_factory.hpp:77] Creating layer conv1_small_1
I1023 19:31:58.211628  8748 net.cpp:91] Creating Layer conv1_small_1
I1023 19:31:58.211632  8748 net.cpp:425] conv1_small_1 <- data_data_0_split_0
I1023 19:31:58.211637  8748 net.cpp:399] conv1_small_1 -> conv1_small_1
I1023 19:31:58.212218  8748 net.cpp:141] Setting up conv1_small_1
I1023 19:31:58.212225  8748 net.cpp:148] Top shape: 128 4 100 100 (5120000)
I1023 19:31:58.212229  8748 net.cpp:156] Memory required for data: 122883072
I1023 19:31:58.212242  8748 layer_factory.hpp:77] Creating layer relu1_small_1
I1023 19:31:58.212247  8748 net.cpp:91] Creating Layer relu1_small_1
I1023 19:31:58.212249  8748 net.cpp:425] relu1_small_1 <- conv1_small_1
I1023 19:31:58.212255  8748 net.cpp:386] relu1_small_1 -> conv1_small_1 (in-place)
I1023 19:31:58.212260  8748 net.cpp:141] Setting up relu1_small_1
I1023 19:31:58.212262  8748 net.cpp:148] Top shape: 128 4 100 100 (5120000)
I1023 19:31:58.212265  8748 net.cpp:156] Memory required for data: 143363072
I1023 19:31:58.212267  8748 layer_factory.hpp:77] Creating layer pool1_small_1
I1023 19:31:58.212272  8748 net.cpp:91] Creating Layer pool1_small_1
I1023 19:31:58.212275  8748 net.cpp:425] pool1_small_1 <- conv1_small_1
I1023 19:31:58.212280  8748 net.cpp:399] pool1_small_1 -> pool1_small_1
I1023 19:31:58.212317  8748 net.cpp:141] Setting up pool1_small_1
I1023 19:31:58.212322  8748 net.cpp:148] Top shape: 128 4 50 50 (1280000)
I1023 19:31:58.212324  8748 net.cpp:156] Memory required for data: 148483072
I1023 19:31:58.212327  8748 layer_factory.hpp:77] Creating layer conv1_medium_1
I1023 19:31:58.212333  8748 net.cpp:91] Creating Layer conv1_medium_1
I1023 19:31:58.212337  8748 net.cpp:425] conv1_medium_1 <- data_data_0_split_1
I1023 19:31:58.212340  8748 net.cpp:399] conv1_medium_1 -> conv1_medium_1
I1023 19:31:58.212512  8748 net.cpp:141] Setting up conv1_medium_1
I1023 19:31:58.212518  8748 net.cpp:148] Top shape: 128 4 100 100 (5120000)
I1023 19:31:58.212520  8748 net.cpp:156] Memory required for data: 168963072
I1023 19:31:58.212525  8748 layer_factory.hpp:77] Creating layer relu1_medium_1
I1023 19:31:58.212541  8748 net.cpp:91] Creating Layer relu1_medium_1
I1023 19:31:58.212545  8748 net.cpp:425] relu1_medium_1 <- conv1_medium_1
I1023 19:31:58.212549  8748 net.cpp:386] relu1_medium_1 -> conv1_medium_1 (in-place)
I1023 19:31:58.212553  8748 net.cpp:141] Setting up relu1_medium_1
I1023 19:31:58.212556  8748 net.cpp:148] Top shape: 128 4 100 100 (5120000)
I1023 19:31:58.212559  8748 net.cpp:156] Memory required for data: 189443072
I1023 19:31:58.212561  8748 layer_factory.hpp:77] Creating layer pool1_medium_1
I1023 19:31:58.212564  8748 net.cpp:91] Creating Layer pool1_medium_1
I1023 19:31:58.212566  8748 net.cpp:425] pool1_medium_1 <- conv1_medium_1
I1023 19:31:58.212574  8748 net.cpp:399] pool1_medium_1 -> pool1_medium_1
I1023 19:31:58.212601  8748 net.cpp:141] Setting up pool1_medium_1
I1023 19:31:58.212605  8748 net.cpp:148] Top shape: 128 4 50 50 (1280000)
I1023 19:31:58.212607  8748 net.cpp:156] Memory required for data: 194563072
I1023 19:31:58.212610  8748 layer_factory.hpp:77] Creating layer concat_pool1_1
I1023 19:31:58.212615  8748 net.cpp:91] Creating Layer concat_pool1_1
I1023 19:31:58.212618  8748 net.cpp:425] concat_pool1_1 <- pool1_small_1
I1023 19:31:58.212621  8748 net.cpp:425] concat_pool1_1 <- pool1_medium_1
I1023 19:31:58.212625  8748 net.cpp:399] concat_pool1_1 -> concat_pool1_1
I1023 19:31:58.212643  8748 net.cpp:141] Setting up concat_pool1_1
I1023 19:31:58.212646  8748 net.cpp:148] Top shape: 128 8 50 50 (2560000)
I1023 19:31:58.212648  8748 net.cpp:156] Memory required for data: 204803072
I1023 19:31:58.212651  8748 layer_factory.hpp:77] Creating layer concat_pool1_1_concat_pool1_1_0_split
I1023 19:31:58.212656  8748 net.cpp:91] Creating Layer concat_pool1_1_concat_pool1_1_0_split
I1023 19:31:58.212657  8748 net.cpp:425] concat_pool1_1_concat_pool1_1_0_split <- concat_pool1_1
I1023 19:31:58.212661  8748 net.cpp:399] concat_pool1_1_concat_pool1_1_0_split -> concat_pool1_1_concat_pool1_1_0_split_0
I1023 19:31:58.212668  8748 net.cpp:399] concat_pool1_1_concat_pool1_1_0_split -> concat_pool1_1_concat_pool1_1_0_split_1
I1023 19:31:58.212692  8748 net.cpp:141] Setting up concat_pool1_1_concat_pool1_1_0_split
I1023 19:31:58.212697  8748 net.cpp:148] Top shape: 128 8 50 50 (2560000)
I1023 19:31:58.212699  8748 net.cpp:148] Top shape: 128 8 50 50 (2560000)
I1023 19:31:58.212702  8748 net.cpp:156] Memory required for data: 225283072
I1023 19:31:58.212704  8748 layer_factory.hpp:77] Creating layer conv1_small_2
I1023 19:31:58.212710  8748 net.cpp:91] Creating Layer conv1_small_2
I1023 19:31:58.212713  8748 net.cpp:425] conv1_small_2 <- data_data_0_split_2
I1023 19:31:58.212718  8748 net.cpp:399] conv1_small_2 -> conv1_small_2
I1023 19:31:58.212898  8748 net.cpp:141] Setting up conv1_small_2
I1023 19:31:58.212903  8748 net.cpp:148] Top shape: 128 4 100 100 (5120000)
I1023 19:31:58.212905  8748 net.cpp:156] Memory required for data: 245763072
I1023 19:31:58.212913  8748 layer_factory.hpp:77] Creating layer relu1_small_2
I1023 19:31:58.212915  8748 net.cpp:91] Creating Layer relu1_small_2
I1023 19:31:58.212918  8748 net.cpp:425] relu1_small_2 <- conv1_small_2
I1023 19:31:58.212921  8748 net.cpp:386] relu1_small_2 -> conv1_small_2 (in-place)
I1023 19:31:58.212926  8748 net.cpp:141] Setting up relu1_small_2
I1023 19:31:58.212929  8748 net.cpp:148] Top shape: 128 4 100 100 (5120000)
I1023 19:31:58.212931  8748 net.cpp:156] Memory required for data: 266243072
I1023 19:31:58.212934  8748 layer_factory.hpp:77] Creating layer pool1_small_2
I1023 19:31:58.212939  8748 net.cpp:91] Creating Layer pool1_small_2
I1023 19:31:58.212941  8748 net.cpp:425] pool1_small_2 <- conv1_small_2
I1023 19:31:58.212944  8748 net.cpp:399] pool1_small_2 -> pool1_small_2
I1023 19:31:58.212971  8748 net.cpp:141] Setting up pool1_small_2
I1023 19:31:58.212977  8748 net.cpp:148] Top shape: 128 4 50 50 (1280000)
I1023 19:31:58.212980  8748 net.cpp:156] Memory required for data: 271363072
I1023 19:31:58.212981  8748 layer_factory.hpp:77] Creating layer conv1_medium_2
I1023 19:31:58.212986  8748 net.cpp:91] Creating Layer conv1_medium_2
I1023 19:31:58.212997  8748 net.cpp:425] conv1_medium_2 <- data_data_0_split_3
I1023 19:31:58.213002  8748 net.cpp:399] conv1_medium_2 -> conv1_medium_2
I1023 19:31:58.213578  8748 net.cpp:141] Setting up conv1_medium_2
I1023 19:31:58.213587  8748 net.cpp:148] Top shape: 128 4 100 100 (5120000)
I1023 19:31:58.213591  8748 net.cpp:156] Memory required for data: 291843072
I1023 19:31:58.213598  8748 layer_factory.hpp:77] Creating layer relu1_medium_2
I1023 19:31:58.213603  8748 net.cpp:91] Creating Layer relu1_medium_2
I1023 19:31:58.213604  8748 net.cpp:425] relu1_medium_2 <- conv1_medium_2
I1023 19:31:58.213610  8748 net.cpp:386] relu1_medium_2 -> conv1_medium_2 (in-place)
I1023 19:31:58.213615  8748 net.cpp:141] Setting up relu1_medium_2
I1023 19:31:58.213619  8748 net.cpp:148] Top shape: 128 4 100 100 (5120000)
I1023 19:31:58.213621  8748 net.cpp:156] Memory required for data: 312323072
I1023 19:31:58.213624  8748 layer_factory.hpp:77] Creating layer pool1_medium_2
I1023 19:31:58.213627  8748 net.cpp:91] Creating Layer pool1_medium_2
I1023 19:31:58.213630  8748 net.cpp:425] pool1_medium_2 <- conv1_medium_2
I1023 19:31:58.213634  8748 net.cpp:399] pool1_medium_2 -> pool1_medium_2
I1023 19:31:58.213660  8748 net.cpp:141] Setting up pool1_medium_2
I1023 19:31:58.213665  8748 net.cpp:148] Top shape: 128 4 50 50 (1280000)
I1023 19:31:58.213668  8748 net.cpp:156] Memory required for data: 317443072
I1023 19:31:58.213670  8748 layer_factory.hpp:77] Creating layer concat_pool1_2
I1023 19:31:58.213677  8748 net.cpp:91] Creating Layer concat_pool1_2
I1023 19:31:58.213680  8748 net.cpp:425] concat_pool1_2 <- pool1_small_2
I1023 19:31:58.213683  8748 net.cpp:425] concat_pool1_2 <- pool1_medium_2
I1023 19:31:58.213687  8748 net.cpp:399] concat_pool1_2 -> concat_pool1_2
I1023 19:31:58.213706  8748 net.cpp:141] Setting up concat_pool1_2
I1023 19:31:58.213709  8748 net.cpp:148] Top shape: 128 8 50 50 (2560000)
I1023 19:31:58.213711  8748 net.cpp:156] Memory required for data: 327683072
I1023 19:31:58.213713  8748 layer_factory.hpp:77] Creating layer concat_pool1_2_concat_pool1_2_0_split
I1023 19:31:58.213719  8748 net.cpp:91] Creating Layer concat_pool1_2_concat_pool1_2_0_split
I1023 19:31:58.213721  8748 net.cpp:425] concat_pool1_2_concat_pool1_2_0_split <- concat_pool1_2
I1023 19:31:58.213727  8748 net.cpp:399] concat_pool1_2_concat_pool1_2_0_split -> concat_pool1_2_concat_pool1_2_0_split_0
I1023 19:31:58.213733  8748 net.cpp:399] concat_pool1_2_concat_pool1_2_0_split -> concat_pool1_2_concat_pool1_2_0_split_1
I1023 19:31:58.213757  8748 net.cpp:141] Setting up concat_pool1_2_concat_pool1_2_0_split
I1023 19:31:58.213762  8748 net.cpp:148] Top shape: 128 8 50 50 (2560000)
I1023 19:31:58.213765  8748 net.cpp:148] Top shape: 128 8 50 50 (2560000)
I1023 19:31:58.213768  8748 net.cpp:156] Memory required for data: 348163072
I1023 19:31:58.213770  8748 layer_factory.hpp:77] Creating layer conv2_small_1
I1023 19:31:58.213776  8748 net.cpp:91] Creating Layer conv2_small_1
I1023 19:31:58.213779  8748 net.cpp:425] conv2_small_1 <- concat_pool1_1_concat_pool1_1_0_split_0
I1023 19:31:58.213784  8748 net.cpp:399] conv2_small_1 -> conv2_small_1
I1023 19:31:58.213963  8748 net.cpp:141] Setting up conv2_small_1
I1023 19:31:58.213968  8748 net.cpp:148] Top shape: 128 8 25 25 (640000)
I1023 19:31:58.213969  8748 net.cpp:156] Memory required for data: 350723072
I1023 19:31:58.213976  8748 layer_factory.hpp:77] Creating layer relu2_small_1
I1023 19:31:58.213982  8748 net.cpp:91] Creating Layer relu2_small_1
I1023 19:31:58.213984  8748 net.cpp:425] relu2_small_1 <- conv2_small_1
I1023 19:31:58.213989  8748 net.cpp:386] relu2_small_1 -> conv2_small_1 (in-place)
I1023 19:31:58.213992  8748 net.cpp:141] Setting up relu2_small_1
I1023 19:31:58.213997  8748 net.cpp:148] Top shape: 128 8 25 25 (640000)
I1023 19:31:58.213999  8748 net.cpp:156] Memory required for data: 353283072
I1023 19:31:58.214001  8748 layer_factory.hpp:77] Creating layer pool2_small_1
I1023 19:31:58.214004  8748 net.cpp:91] Creating Layer pool2_small_1
I1023 19:31:58.214009  8748 net.cpp:425] pool2_small_1 <- conv2_small_1
I1023 19:31:58.214021  8748 net.cpp:399] pool2_small_1 -> pool2_small_1
I1023 19:31:58.214051  8748 net.cpp:141] Setting up pool2_small_1
I1023 19:31:58.214056  8748 net.cpp:148] Top shape: 128 8 13 13 (173056)
I1023 19:31:58.214059  8748 net.cpp:156] Memory required for data: 353975296
I1023 19:31:58.214062  8748 layer_factory.hpp:77] Creating layer conv2_medium_1
I1023 19:31:58.214067  8748 net.cpp:91] Creating Layer conv2_medium_1
I1023 19:31:58.214071  8748 net.cpp:425] conv2_medium_1 <- concat_pool1_1_concat_pool1_1_0_split_1
I1023 19:31:58.214076  8748 net.cpp:399] conv2_medium_1 -> conv2_medium_1
I1023 19:31:58.214262  8748 net.cpp:141] Setting up conv2_medium_1
I1023 19:31:58.214267  8748 net.cpp:148] Top shape: 128 8 25 25 (640000)
I1023 19:31:58.214268  8748 net.cpp:156] Memory required for data: 356535296
I1023 19:31:58.214273  8748 layer_factory.hpp:77] Creating layer relu2_medium_1
I1023 19:31:58.214278  8748 net.cpp:91] Creating Layer relu2_medium_1
I1023 19:31:58.214280  8748 net.cpp:425] relu2_medium_1 <- conv2_medium_1
I1023 19:31:58.214284  8748 net.cpp:386] relu2_medium_1 -> conv2_medium_1 (in-place)
I1023 19:31:58.214288  8748 net.cpp:141] Setting up relu2_medium_1
I1023 19:31:58.214293  8748 net.cpp:148] Top shape: 128 8 25 25 (640000)
I1023 19:31:58.214294  8748 net.cpp:156] Memory required for data: 359095296
I1023 19:31:58.214296  8748 layer_factory.hpp:77] Creating layer pool2_medium_1
I1023 19:31:58.214300  8748 net.cpp:91] Creating Layer pool2_medium_1
I1023 19:31:58.214303  8748 net.cpp:425] pool2_medium_1 <- conv2_medium_1
I1023 19:31:58.214306  8748 net.cpp:399] pool2_medium_1 -> pool2_medium_1
I1023 19:31:58.214331  8748 net.cpp:141] Setting up pool2_medium_1
I1023 19:31:58.214336  8748 net.cpp:148] Top shape: 128 8 13 13 (173056)
I1023 19:31:58.214339  8748 net.cpp:156] Memory required for data: 359787520
I1023 19:31:58.214341  8748 layer_factory.hpp:77] Creating layer concat_pool2_1
I1023 19:31:58.214344  8748 net.cpp:91] Creating Layer concat_pool2_1
I1023 19:31:58.214347  8748 net.cpp:425] concat_pool2_1 <- pool2_small_1
I1023 19:31:58.214350  8748 net.cpp:425] concat_pool2_1 <- pool2_medium_1
I1023 19:31:58.214354  8748 net.cpp:399] concat_pool2_1 -> concat_pool2_1
I1023 19:31:58.214370  8748 net.cpp:141] Setting up concat_pool2_1
I1023 19:31:58.214375  8748 net.cpp:148] Top shape: 128 16 13 13 (346112)
I1023 19:31:58.214376  8748 net.cpp:156] Memory required for data: 361171968
I1023 19:31:58.214378  8748 layer_factory.hpp:77] Creating layer concat_pool2_1_concat_pool2_1_0_split
I1023 19:31:58.214382  8748 net.cpp:91] Creating Layer concat_pool2_1_concat_pool2_1_0_split
I1023 19:31:58.214386  8748 net.cpp:425] concat_pool2_1_concat_pool2_1_0_split <- concat_pool2_1
I1023 19:31:58.214390  8748 net.cpp:399] concat_pool2_1_concat_pool2_1_0_split -> concat_pool2_1_concat_pool2_1_0_split_0
I1023 19:31:58.214395  8748 net.cpp:399] concat_pool2_1_concat_pool2_1_0_split -> concat_pool2_1_concat_pool2_1_0_split_1
I1023 19:31:58.214401  8748 net.cpp:399] concat_pool2_1_concat_pool2_1_0_split -> concat_pool2_1_concat_pool2_1_0_split_2
I1023 19:31:58.214406  8748 net.cpp:399] concat_pool2_1_concat_pool2_1_0_split -> concat_pool2_1_concat_pool2_1_0_split_3
I1023 19:31:58.214447  8748 net.cpp:141] Setting up concat_pool2_1_concat_pool2_1_0_split
I1023 19:31:58.214450  8748 net.cpp:148] Top shape: 128 16 13 13 (346112)
I1023 19:31:58.214453  8748 net.cpp:148] Top shape: 128 16 13 13 (346112)
I1023 19:31:58.214457  8748 net.cpp:148] Top shape: 128 16 13 13 (346112)
I1023 19:31:58.214460  8748 net.cpp:148] Top shape: 128 16 13 13 (346112)
I1023 19:31:58.214462  8748 net.cpp:156] Memory required for data: 366709760
I1023 19:31:58.214464  8748 layer_factory.hpp:77] Creating layer conv2_small_2
I1023 19:31:58.214471  8748 net.cpp:91] Creating Layer conv2_small_2
I1023 19:31:58.214474  8748 net.cpp:425] conv2_small_2 <- concat_pool1_2_concat_pool1_2_0_split_0
I1023 19:31:58.214479  8748 net.cpp:399] conv2_small_2 -> conv2_small_2
I1023 19:31:58.214669  8748 net.cpp:141] Setting up conv2_small_2
I1023 19:31:58.214682  8748 net.cpp:148] Top shape: 128 8 25 25 (640000)
I1023 19:31:58.214685  8748 net.cpp:156] Memory required for data: 369269760
I1023 19:31:58.214690  8748 layer_factory.hpp:77] Creating layer relu2_small_2
I1023 19:31:58.214694  8748 net.cpp:91] Creating Layer relu2_small_2
I1023 19:31:58.214699  8748 net.cpp:425] relu2_small_2 <- conv2_small_2
I1023 19:31:58.214701  8748 net.cpp:386] relu2_small_2 -> conv2_small_2 (in-place)
I1023 19:31:58.214705  8748 net.cpp:141] Setting up relu2_small_2
I1023 19:31:58.214709  8748 net.cpp:148] Top shape: 128 8 25 25 (640000)
I1023 19:31:58.214712  8748 net.cpp:156] Memory required for data: 371829760
I1023 19:31:58.214715  8748 layer_factory.hpp:77] Creating layer pool2_small_2
I1023 19:31:58.214718  8748 net.cpp:91] Creating Layer pool2_small_2
I1023 19:31:58.214720  8748 net.cpp:425] pool2_small_2 <- conv2_small_2
I1023 19:31:58.214725  8748 net.cpp:399] pool2_small_2 -> pool2_small_2
I1023 19:31:58.214751  8748 net.cpp:141] Setting up pool2_small_2
I1023 19:31:58.214756  8748 net.cpp:148] Top shape: 128 8 13 13 (173056)
I1023 19:31:58.214757  8748 net.cpp:156] Memory required for data: 372521984
I1023 19:31:58.214761  8748 layer_factory.hpp:77] Creating layer conv2_medium_2
I1023 19:31:58.214766  8748 net.cpp:91] Creating Layer conv2_medium_2
I1023 19:31:58.214769  8748 net.cpp:425] conv2_medium_2 <- concat_pool1_2_concat_pool1_2_0_split_1
I1023 19:31:58.214773  8748 net.cpp:399] conv2_medium_2 -> conv2_medium_2
I1023 19:31:58.214974  8748 net.cpp:141] Setting up conv2_medium_2
I1023 19:31:58.214980  8748 net.cpp:148] Top shape: 128 8 25 25 (640000)
I1023 19:31:58.214982  8748 net.cpp:156] Memory required for data: 375081984
I1023 19:31:58.214987  8748 layer_factory.hpp:77] Creating layer relu2_medium_2
I1023 19:31:58.214992  8748 net.cpp:91] Creating Layer relu2_medium_2
I1023 19:31:58.214994  8748 net.cpp:425] relu2_medium_2 <- conv2_medium_2
I1023 19:31:58.214998  8748 net.cpp:386] relu2_medium_2 -> conv2_medium_2 (in-place)
I1023 19:31:58.215001  8748 net.cpp:141] Setting up relu2_medium_2
I1023 19:31:58.215006  8748 net.cpp:148] Top shape: 128 8 25 25 (640000)
I1023 19:31:58.215008  8748 net.cpp:156] Memory required for data: 377641984
I1023 19:31:58.215010  8748 layer_factory.hpp:77] Creating layer pool2_medium_2
I1023 19:31:58.215013  8748 net.cpp:91] Creating Layer pool2_medium_2
I1023 19:31:58.215016  8748 net.cpp:425] pool2_medium_2 <- conv2_medium_2
I1023 19:31:58.215019  8748 net.cpp:399] pool2_medium_2 -> pool2_medium_2
I1023 19:31:58.215045  8748 net.cpp:141] Setting up pool2_medium_2
I1023 19:31:58.215050  8748 net.cpp:148] Top shape: 128 8 13 13 (173056)
I1023 19:31:58.215054  8748 net.cpp:156] Memory required for data: 378334208
I1023 19:31:58.215056  8748 layer_factory.hpp:77] Creating layer concat_pool2_2
I1023 19:31:58.215062  8748 net.cpp:91] Creating Layer concat_pool2_2
I1023 19:31:58.215066  8748 net.cpp:425] concat_pool2_2 <- pool2_small_2
I1023 19:31:58.215070  8748 net.cpp:425] concat_pool2_2 <- pool2_medium_2
I1023 19:31:58.215073  8748 net.cpp:399] concat_pool2_2 -> concat_pool2_2
I1023 19:31:58.215091  8748 net.cpp:141] Setting up concat_pool2_2
I1023 19:31:58.215096  8748 net.cpp:148] Top shape: 128 16 13 13 (346112)
I1023 19:31:58.215098  8748 net.cpp:156] Memory required for data: 379718656
I1023 19:31:58.215101  8748 layer_factory.hpp:77] Creating layer concat_pool2_2_concat_pool2_2_0_split
I1023 19:31:58.215104  8748 net.cpp:91] Creating Layer concat_pool2_2_concat_pool2_2_0_split
I1023 19:31:58.215107  8748 net.cpp:425] concat_pool2_2_concat_pool2_2_0_split <- concat_pool2_2
I1023 19:31:58.215111  8748 net.cpp:399] concat_pool2_2_concat_pool2_2_0_split -> concat_pool2_2_concat_pool2_2_0_split_0
I1023 19:31:58.215116  8748 net.cpp:399] concat_pool2_2_concat_pool2_2_0_split -> concat_pool2_2_concat_pool2_2_0_split_1
I1023 19:31:58.215122  8748 net.cpp:399] concat_pool2_2_concat_pool2_2_0_split -> concat_pool2_2_concat_pool2_2_0_split_2
I1023 19:31:58.215128  8748 net.cpp:399] concat_pool2_2_concat_pool2_2_0_split -> concat_pool2_2_concat_pool2_2_0_split_3
I1023 19:31:58.215178  8748 net.cpp:141] Setting up concat_pool2_2_concat_pool2_2_0_split
I1023 19:31:58.215183  8748 net.cpp:148] Top shape: 128 16 13 13 (346112)
I1023 19:31:58.215186  8748 net.cpp:148] Top shape: 128 16 13 13 (346112)
I1023 19:31:58.215189  8748 net.cpp:148] Top shape: 128 16 13 13 (346112)
I1023 19:31:58.215193  8748 net.cpp:148] Top shape: 128 16 13 13 (346112)
I1023 19:31:58.215195  8748 net.cpp:156] Memory required for data: 385256448
I1023 19:31:58.215198  8748 layer_factory.hpp:77] Creating layer conv3_left_small_1
I1023 19:31:58.215204  8748 net.cpp:91] Creating Layer conv3_left_small_1
I1023 19:31:58.215207  8748 net.cpp:425] conv3_left_small_1 <- concat_pool2_1_concat_pool2_1_0_split_0
I1023 19:31:58.215212  8748 net.cpp:399] conv3_left_small_1 -> conv3_left_small_1
I1023 19:31:58.215384  8748 net.cpp:141] Setting up conv3_left_small_1
I1023 19:31:58.215389  8748 net.cpp:148] Top shape: 128 16 13 13 (346112)
I1023 19:31:58.215392  8748 net.cpp:156] Memory required for data: 386640896
I1023 19:31:58.215400  8748 layer_factory.hpp:77] Creating layer relu3_left_small_1
I1023 19:31:58.215404  8748 net.cpp:91] Creating Layer relu3_left_small_1
I1023 19:31:58.215407  8748 net.cpp:425] relu3_left_small_1 <- conv3_left_small_1
I1023 19:31:58.215411  8748 net.cpp:386] relu3_left_small_1 -> conv3_left_small_1 (in-place)
I1023 19:31:58.215416  8748 net.cpp:141] Setting up relu3_left_small_1
I1023 19:31:58.215420  8748 net.cpp:148] Top shape: 128 16 13 13 (346112)
I1023 19:31:58.215422  8748 net.cpp:156] Memory required for data: 388025344
I1023 19:31:58.215425  8748 layer_factory.hpp:77] Creating layer pool3_left_small_1
I1023 19:31:58.215428  8748 net.cpp:91] Creating Layer pool3_left_small_1
I1023 19:31:58.215431  8748 net.cpp:425] pool3_left_small_1 <- conv3_left_small_1
I1023 19:31:58.215435  8748 net.cpp:399] pool3_left_small_1 -> pool3_left_small_1
I1023 19:31:58.215461  8748 net.cpp:141] Setting up pool3_left_small_1
I1023 19:31:58.215466  8748 net.cpp:148] Top shape: 128 16 7 7 (100352)
I1023 19:31:58.215468  8748 net.cpp:156] Memory required for data: 388426752
I1023 19:31:58.215471  8748 layer_factory.hpp:77] Creating layer conv3_left_medium_1
I1023 19:31:58.215477  8748 net.cpp:91] Creating Layer conv3_left_medium_1
I1023 19:31:58.215481  8748 net.cpp:425] conv3_left_medium_1 <- concat_pool2_1_concat_pool2_1_0_split_1
I1023 19:31:58.215486  8748 net.cpp:399] conv3_left_medium_1 -> conv3_left_medium_1
I1023 19:31:58.215668  8748 net.cpp:141] Setting up conv3_left_medium_1
I1023 19:31:58.215674  8748 net.cpp:148] Top shape: 128 16 13 13 (346112)
I1023 19:31:58.215677  8748 net.cpp:156] Memory required for data: 389811200
I1023 19:31:58.215680  8748 layer_factory.hpp:77] Creating layer relu3_left_medium_1
I1023 19:31:58.215685  8748 net.cpp:91] Creating Layer relu3_left_medium_1
I1023 19:31:58.215689  8748 net.cpp:425] relu3_left_medium_1 <- conv3_left_medium_1
I1023 19:31:58.215693  8748 net.cpp:386] relu3_left_medium_1 -> conv3_left_medium_1 (in-place)
I1023 19:31:58.215698  8748 net.cpp:141] Setting up relu3_left_medium_1
I1023 19:31:58.215704  8748 net.cpp:148] Top shape: 128 16 13 13 (346112)
I1023 19:31:58.215708  8748 net.cpp:156] Memory required for data: 391195648
I1023 19:31:58.215709  8748 layer_factory.hpp:77] Creating layer pool3_left_medium_1
I1023 19:31:58.215713  8748 net.cpp:91] Creating Layer pool3_left_medium_1
I1023 19:31:58.215716  8748 net.cpp:425] pool3_left_medium_1 <- conv3_left_medium_1
I1023 19:31:58.215721  8748 net.cpp:399] pool3_left_medium_1 -> pool3_left_medium_1
I1023 19:31:58.215747  8748 net.cpp:141] Setting up pool3_left_medium_1
I1023 19:31:58.215751  8748 net.cpp:148] Top shape: 128 16 7 7 (100352)
I1023 19:31:58.215754  8748 net.cpp:156] Memory required for data: 391597056
I1023 19:31:58.215756  8748 layer_factory.hpp:77] Creating layer concat_pool3_left_1
I1023 19:31:58.215760  8748 net.cpp:91] Creating Layer concat_pool3_left_1
I1023 19:31:58.215764  8748 net.cpp:425] concat_pool3_left_1 <- pool3_left_small_1
I1023 19:31:58.215773  8748 net.cpp:425] concat_pool3_left_1 <- pool3_left_medium_1
I1023 19:31:58.215780  8748 net.cpp:399] concat_pool3_left_1 -> concat_pool3_left_1
I1023 19:31:58.215797  8748 net.cpp:141] Setting up concat_pool3_left_1
I1023 19:31:58.215802  8748 net.cpp:148] Top shape: 128 32 7 7 (200704)
I1023 19:31:58.215804  8748 net.cpp:156] Memory required for data: 392399872
I1023 19:31:58.215807  8748 layer_factory.hpp:77] Creating layer concat_pool3_left_1_concat_pool3_left_1_0_split
I1023 19:31:58.215811  8748 net.cpp:91] Creating Layer concat_pool3_left_1_concat_pool3_left_1_0_split
I1023 19:31:58.215813  8748 net.cpp:425] concat_pool3_left_1_concat_pool3_left_1_0_split <- concat_pool3_left_1
I1023 19:31:58.215817  8748 net.cpp:399] concat_pool3_left_1_concat_pool3_left_1_0_split -> concat_pool3_left_1_concat_pool3_left_1_0_split_0
I1023 19:31:58.215823  8748 net.cpp:399] concat_pool3_left_1_concat_pool3_left_1_0_split -> concat_pool3_left_1_concat_pool3_left_1_0_split_1
I1023 19:31:58.215829  8748 net.cpp:399] concat_pool3_left_1_concat_pool3_left_1_0_split -> concat_pool3_left_1_concat_pool3_left_1_0_split_2
I1023 19:31:58.215862  8748 net.cpp:141] Setting up concat_pool3_left_1_concat_pool3_left_1_0_split
I1023 19:31:58.215865  8748 net.cpp:148] Top shape: 128 32 7 7 (200704)
I1023 19:31:58.215869  8748 net.cpp:148] Top shape: 128 32 7 7 (200704)
I1023 19:31:58.215873  8748 net.cpp:148] Top shape: 128 32 7 7 (200704)
I1023 19:31:58.215874  8748 net.cpp:156] Memory required for data: 394808320
I1023 19:31:58.215876  8748 layer_factory.hpp:77] Creating layer conv3_left_small_2
I1023 19:31:58.215883  8748 net.cpp:91] Creating Layer conv3_left_small_2
I1023 19:31:58.215886  8748 net.cpp:425] conv3_left_small_2 <- concat_pool2_2_concat_pool2_2_0_split_0
I1023 19:31:58.215891  8748 net.cpp:399] conv3_left_small_2 -> conv3_left_small_2
I1023 19:31:58.216110  8748 net.cpp:141] Setting up conv3_left_small_2
I1023 19:31:58.216116  8748 net.cpp:148] Top shape: 128 16 13 13 (346112)
I1023 19:31:58.216120  8748 net.cpp:156] Memory required for data: 396192768
I1023 19:31:58.216123  8748 layer_factory.hpp:77] Creating layer relu3_left_small_2
I1023 19:31:58.216130  8748 net.cpp:91] Creating Layer relu3_left_small_2
I1023 19:31:58.216133  8748 net.cpp:425] relu3_left_small_2 <- conv3_left_small_2
I1023 19:31:58.216137  8748 net.cpp:386] relu3_left_small_2 -> conv3_left_small_2 (in-place)
I1023 19:31:58.216141  8748 net.cpp:141] Setting up relu3_left_small_2
I1023 19:31:58.216145  8748 net.cpp:148] Top shape: 128 16 13 13 (346112)
I1023 19:31:58.216148  8748 net.cpp:156] Memory required for data: 397577216
I1023 19:31:58.216150  8748 layer_factory.hpp:77] Creating layer pool3_left_small_2
I1023 19:31:58.216156  8748 net.cpp:91] Creating Layer pool3_left_small_2
I1023 19:31:58.216157  8748 net.cpp:425] pool3_left_small_2 <- conv3_left_small_2
I1023 19:31:58.216162  8748 net.cpp:399] pool3_left_small_2 -> pool3_left_small_2
I1023 19:31:58.216189  8748 net.cpp:141] Setting up pool3_left_small_2
I1023 19:31:58.216194  8748 net.cpp:148] Top shape: 128 16 7 7 (100352)
I1023 19:31:58.216197  8748 net.cpp:156] Memory required for data: 397978624
I1023 19:31:58.216199  8748 layer_factory.hpp:77] Creating layer conv3_left_medium_2
I1023 19:31:58.216208  8748 net.cpp:91] Creating Layer conv3_left_medium_2
I1023 19:31:58.216212  8748 net.cpp:425] conv3_left_medium_2 <- concat_pool2_2_concat_pool2_2_0_split_1
I1023 19:31:58.216218  8748 net.cpp:399] conv3_left_medium_2 -> conv3_left_medium_2
I1023 19:31:58.216418  8748 net.cpp:141] Setting up conv3_left_medium_2
I1023 19:31:58.216423  8748 net.cpp:148] Top shape: 128 16 13 13 (346112)
I1023 19:31:58.216425  8748 net.cpp:156] Memory required for data: 399363072
I1023 19:31:58.216429  8748 layer_factory.hpp:77] Creating layer relu3_left_medium_2
I1023 19:31:58.216436  8748 net.cpp:91] Creating Layer relu3_left_medium_2
I1023 19:31:58.216439  8748 net.cpp:425] relu3_left_medium_2 <- conv3_left_medium_2
I1023 19:31:58.216444  8748 net.cpp:386] relu3_left_medium_2 -> conv3_left_medium_2 (in-place)
I1023 19:31:58.216454  8748 net.cpp:141] Setting up relu3_left_medium_2
I1023 19:31:58.216459  8748 net.cpp:148] Top shape: 128 16 13 13 (346112)
I1023 19:31:58.216461  8748 net.cpp:156] Memory required for data: 400747520
I1023 19:31:58.216464  8748 layer_factory.hpp:77] Creating layer pool3_left_medium_2
I1023 19:31:58.216469  8748 net.cpp:91] Creating Layer pool3_left_medium_2
I1023 19:31:58.216472  8748 net.cpp:425] pool3_left_medium_2 <- conv3_left_medium_2
I1023 19:31:58.216475  8748 net.cpp:399] pool3_left_medium_2 -> pool3_left_medium_2
I1023 19:31:58.216505  8748 net.cpp:141] Setting up pool3_left_medium_2
I1023 19:31:58.216508  8748 net.cpp:148] Top shape: 128 16 7 7 (100352)
I1023 19:31:58.216512  8748 net.cpp:156] Memory required for data: 401148928
I1023 19:31:58.216516  8748 layer_factory.hpp:77] Creating layer concat_pool3_left_2
I1023 19:31:58.216518  8748 net.cpp:91] Creating Layer concat_pool3_left_2
I1023 19:31:58.216521  8748 net.cpp:425] concat_pool3_left_2 <- pool3_left_small_2
I1023 19:31:58.216524  8748 net.cpp:425] concat_pool3_left_2 <- pool3_left_medium_2
I1023 19:31:58.216529  8748 net.cpp:399] concat_pool3_left_2 -> concat_pool3_left_2
I1023 19:31:58.216548  8748 net.cpp:141] Setting up concat_pool3_left_2
I1023 19:31:58.216552  8748 net.cpp:148] Top shape: 128 32 7 7 (200704)
I1023 19:31:58.216555  8748 net.cpp:156] Memory required for data: 401951744
I1023 19:31:58.216557  8748 layer_factory.hpp:77] Creating layer concat_pool3_left_2_concat_pool3_left_2_0_split
I1023 19:31:58.216562  8748 net.cpp:91] Creating Layer concat_pool3_left_2_concat_pool3_left_2_0_split
I1023 19:31:58.216563  8748 net.cpp:425] concat_pool3_left_2_concat_pool3_left_2_0_split <- concat_pool3_left_2
I1023 19:31:58.216568  8748 net.cpp:399] concat_pool3_left_2_concat_pool3_left_2_0_split -> concat_pool3_left_2_concat_pool3_left_2_0_split_0
I1023 19:31:58.216575  8748 net.cpp:399] concat_pool3_left_2_concat_pool3_left_2_0_split -> concat_pool3_left_2_concat_pool3_left_2_0_split_1
I1023 19:31:58.216580  8748 net.cpp:399] concat_pool3_left_2_concat_pool3_left_2_0_split -> concat_pool3_left_2_concat_pool3_left_2_0_split_2
I1023 19:31:58.216614  8748 net.cpp:141] Setting up concat_pool3_left_2_concat_pool3_left_2_0_split
I1023 19:31:58.216620  8748 net.cpp:148] Top shape: 128 32 7 7 (200704)
I1023 19:31:58.216622  8748 net.cpp:148] Top shape: 128 32 7 7 (200704)
I1023 19:31:58.216625  8748 net.cpp:148] Top shape: 128 32 7 7 (200704)
I1023 19:31:58.216627  8748 net.cpp:156] Memory required for data: 404360192
I1023 19:31:58.216630  8748 layer_factory.hpp:77] Creating layer conv4_left_small_1
I1023 19:31:58.216636  8748 net.cpp:91] Creating Layer conv4_left_small_1
I1023 19:31:58.216640  8748 net.cpp:425] conv4_left_small_1 <- concat_pool3_left_1_concat_pool3_left_1_0_split_0
I1023 19:31:58.216645  8748 net.cpp:399] conv4_left_small_1 -> conv4_left_small_1
I1023 19:31:58.216827  8748 net.cpp:141] Setting up conv4_left_small_1
I1023 19:31:58.216832  8748 net.cpp:148] Top shape: 128 32 7 7 (200704)
I1023 19:31:58.216835  8748 net.cpp:156] Memory required for data: 405163008
I1023 19:31:58.216838  8748 layer_factory.hpp:77] Creating layer relu4_left_small_1
I1023 19:31:58.216843  8748 net.cpp:91] Creating Layer relu4_left_small_1
I1023 19:31:58.216846  8748 net.cpp:425] relu4_left_small_1 <- conv4_left_small_1
I1023 19:31:58.216850  8748 net.cpp:386] relu4_left_small_1 -> conv4_left_small_1 (in-place)
I1023 19:31:58.216856  8748 net.cpp:141] Setting up relu4_left_small_1
I1023 19:31:58.216861  8748 net.cpp:148] Top shape: 128 32 7 7 (200704)
I1023 19:31:58.216862  8748 net.cpp:156] Memory required for data: 405965824
I1023 19:31:58.216864  8748 layer_factory.hpp:77] Creating layer pool4_left_small_1
I1023 19:31:58.216868  8748 net.cpp:91] Creating Layer pool4_left_small_1
I1023 19:31:58.216871  8748 net.cpp:425] pool4_left_small_1 <- conv4_left_small_1
I1023 19:31:58.216876  8748 net.cpp:399] pool4_left_small_1 -> pool4_left_small_1
I1023 19:31:58.216902  8748 net.cpp:141] Setting up pool4_left_small_1
I1023 19:31:58.216913  8748 net.cpp:148] Top shape: 128 32 4 4 (65536)
I1023 19:31:58.216917  8748 net.cpp:156] Memory required for data: 406227968
I1023 19:31:58.216918  8748 layer_factory.hpp:77] Creating layer conv4_left_medium_1
I1023 19:31:58.216924  8748 net.cpp:91] Creating Layer conv4_left_medium_1
I1023 19:31:58.216928  8748 net.cpp:425] conv4_left_medium_1 <- concat_pool3_left_1_concat_pool3_left_1_0_split_1
I1023 19:31:58.216934  8748 net.cpp:399] conv4_left_medium_1 -> conv4_left_medium_1
I1023 19:31:58.217154  8748 net.cpp:141] Setting up conv4_left_medium_1
I1023 19:31:58.217159  8748 net.cpp:148] Top shape: 128 32 7 7 (200704)
I1023 19:31:58.217161  8748 net.cpp:156] Memory required for data: 407030784
I1023 19:31:58.217166  8748 layer_factory.hpp:77] Creating layer relu4_left_medium_1
I1023 19:31:58.217170  8748 net.cpp:91] Creating Layer relu4_left_medium_1
I1023 19:31:58.217173  8748 net.cpp:425] relu4_left_medium_1 <- conv4_left_medium_1
I1023 19:31:58.217177  8748 net.cpp:386] relu4_left_medium_1 -> conv4_left_medium_1 (in-place)
I1023 19:31:58.217183  8748 net.cpp:141] Setting up relu4_left_medium_1
I1023 19:31:58.217186  8748 net.cpp:148] Top shape: 128 32 7 7 (200704)
I1023 19:31:58.217190  8748 net.cpp:156] Memory required for data: 407833600
I1023 19:31:58.217191  8748 layer_factory.hpp:77] Creating layer pool4_left_medium_1
I1023 19:31:58.217195  8748 net.cpp:91] Creating Layer pool4_left_medium_1
I1023 19:31:58.217200  8748 net.cpp:425] pool4_left_medium_1 <- conv4_left_medium_1
I1023 19:31:58.217206  8748 net.cpp:399] pool4_left_medium_1 -> pool4_left_medium_1
I1023 19:31:58.217234  8748 net.cpp:141] Setting up pool4_left_medium_1
I1023 19:31:58.217239  8748 net.cpp:148] Top shape: 128 32 4 4 (65536)
I1023 19:31:58.217242  8748 net.cpp:156] Memory required for data: 408095744
I1023 19:31:58.217243  8748 layer_factory.hpp:77] Creating layer concat_pool4_left_1
I1023 19:31:58.217250  8748 net.cpp:91] Creating Layer concat_pool4_left_1
I1023 19:31:58.217254  8748 net.cpp:425] concat_pool4_left_1 <- pool4_left_small_1
I1023 19:31:58.217257  8748 net.cpp:425] concat_pool4_left_1 <- pool4_left_medium_1
I1023 19:31:58.217262  8748 net.cpp:399] concat_pool4_left_1 -> concat_pool4_left_1
I1023 19:31:58.217279  8748 net.cpp:141] Setting up concat_pool4_left_1
I1023 19:31:58.217284  8748 net.cpp:148] Top shape: 128 64 4 4 (131072)
I1023 19:31:58.217286  8748 net.cpp:156] Memory required for data: 408620032
I1023 19:31:58.217288  8748 layer_factory.hpp:77] Creating layer conv4_left_small_2
I1023 19:31:58.217296  8748 net.cpp:91] Creating Layer conv4_left_small_2
I1023 19:31:58.217300  8748 net.cpp:425] conv4_left_small_2 <- concat_pool3_left_2_concat_pool3_left_2_0_split_0
I1023 19:31:58.217306  8748 net.cpp:399] conv4_left_small_2 -> conv4_left_small_2
I1023 19:31:58.218003  8748 net.cpp:141] Setting up conv4_left_small_2
I1023 19:31:58.218011  8748 net.cpp:148] Top shape: 128 32 7 7 (200704)
I1023 19:31:58.218015  8748 net.cpp:156] Memory required for data: 409422848
I1023 19:31:58.218019  8748 layer_factory.hpp:77] Creating layer relu4_left_small_2
I1023 19:31:58.218024  8748 net.cpp:91] Creating Layer relu4_left_small_2
I1023 19:31:58.218029  8748 net.cpp:425] relu4_left_small_2 <- conv4_left_small_2
I1023 19:31:58.218032  8748 net.cpp:386] relu4_left_small_2 -> conv4_left_small_2 (in-place)
I1023 19:31:58.218039  8748 net.cpp:141] Setting up relu4_left_small_2
I1023 19:31:58.218041  8748 net.cpp:148] Top shape: 128 32 7 7 (200704)
I1023 19:31:58.218044  8748 net.cpp:156] Memory required for data: 410225664
I1023 19:31:58.218046  8748 layer_factory.hpp:77] Creating layer pool4_left_small_2
I1023 19:31:58.218052  8748 net.cpp:91] Creating Layer pool4_left_small_2
I1023 19:31:58.218056  8748 net.cpp:425] pool4_left_small_2 <- conv4_left_small_2
I1023 19:31:58.218060  8748 net.cpp:399] pool4_left_small_2 -> pool4_left_small_2
I1023 19:31:58.218092  8748 net.cpp:141] Setting up pool4_left_small_2
I1023 19:31:58.218097  8748 net.cpp:148] Top shape: 128 32 4 4 (65536)
I1023 19:31:58.218099  8748 net.cpp:156] Memory required for data: 410487808
I1023 19:31:58.218111  8748 layer_factory.hpp:77] Creating layer conv4_left_medium_2
I1023 19:31:58.218119  8748 net.cpp:91] Creating Layer conv4_left_medium_2
I1023 19:31:58.218124  8748 net.cpp:425] conv4_left_medium_2 <- concat_pool3_left_2_concat_pool3_left_2_0_split_1
I1023 19:31:58.218129  8748 net.cpp:399] conv4_left_medium_2 -> conv4_left_medium_2
I1023 19:31:58.218360  8748 net.cpp:141] Setting up conv4_left_medium_2
I1023 19:31:58.218367  8748 net.cpp:148] Top shape: 128 32 7 7 (200704)
I1023 19:31:58.218370  8748 net.cpp:156] Memory required for data: 411290624
I1023 19:31:58.218375  8748 layer_factory.hpp:77] Creating layer relu4_left_medium_2
I1023 19:31:58.218379  8748 net.cpp:91] Creating Layer relu4_left_medium_2
I1023 19:31:58.218382  8748 net.cpp:425] relu4_left_medium_2 <- conv4_left_medium_2
I1023 19:31:58.218386  8748 net.cpp:386] relu4_left_medium_2 -> conv4_left_medium_2 (in-place)
I1023 19:31:58.218391  8748 net.cpp:141] Setting up relu4_left_medium_2
I1023 19:31:58.218395  8748 net.cpp:148] Top shape: 128 32 7 7 (200704)
I1023 19:31:58.218397  8748 net.cpp:156] Memory required for data: 412093440
I1023 19:31:58.218400  8748 layer_factory.hpp:77] Creating layer pool4_left_medium_2
I1023 19:31:58.218403  8748 net.cpp:91] Creating Layer pool4_left_medium_2
I1023 19:31:58.218405  8748 net.cpp:425] pool4_left_medium_2 <- conv4_left_medium_2
I1023 19:31:58.218411  8748 net.cpp:399] pool4_left_medium_2 -> pool4_left_medium_2
I1023 19:31:58.218441  8748 net.cpp:141] Setting up pool4_left_medium_2
I1023 19:31:58.218446  8748 net.cpp:148] Top shape: 128 32 4 4 (65536)
I1023 19:31:58.218447  8748 net.cpp:156] Memory required for data: 412355584
I1023 19:31:58.218451  8748 layer_factory.hpp:77] Creating layer concat_pool4_left_2
I1023 19:31:58.218454  8748 net.cpp:91] Creating Layer concat_pool4_left_2
I1023 19:31:58.218456  8748 net.cpp:425] concat_pool4_left_2 <- pool4_left_small_2
I1023 19:31:58.218459  8748 net.cpp:425] concat_pool4_left_2 <- pool4_left_medium_2
I1023 19:31:58.218464  8748 net.cpp:399] concat_pool4_left_2 -> concat_pool4_left_2
I1023 19:31:58.218482  8748 net.cpp:141] Setting up concat_pool4_left_2
I1023 19:31:58.218485  8748 net.cpp:148] Top shape: 128 64 4 4 (131072)
I1023 19:31:58.218487  8748 net.cpp:156] Memory required for data: 412879872
I1023 19:31:58.218490  8748 layer_factory.hpp:77] Creating layer concat_pool3_left_compile
I1023 19:31:58.218502  8748 net.cpp:91] Creating Layer concat_pool3_left_compile
I1023 19:31:58.218505  8748 net.cpp:425] concat_pool3_left_compile <- concat_pool3_left_1_concat_pool3_left_1_0_split_2
I1023 19:31:58.218508  8748 net.cpp:425] concat_pool3_left_compile <- concat_pool3_left_2_concat_pool3_left_2_0_split_2
I1023 19:31:58.218513  8748 net.cpp:399] concat_pool3_left_compile -> concat_pool3_left_compile
I1023 19:31:58.218531  8748 net.cpp:141] Setting up concat_pool3_left_compile
I1023 19:31:58.218536  8748 net.cpp:148] Top shape: 128 64 7 7 (401408)
I1023 19:31:58.218538  8748 net.cpp:156] Memory required for data: 414485504
I1023 19:31:58.218541  8748 layer_factory.hpp:77] Creating layer fc1_left_coordinate_1
I1023 19:31:58.218547  8748 net.cpp:91] Creating Layer fc1_left_coordinate_1
I1023 19:31:58.218550  8748 net.cpp:425] fc1_left_coordinate_1 <- concat_pool4_left_1
I1023 19:31:58.218556  8748 net.cpp:399] fc1_left_coordinate_1 -> fc1_left_coordinate_1
I1023 19:31:58.243649  8748 net.cpp:141] Setting up fc1_left_coordinate_1
I1023 19:31:58.243669  8748 net.cpp:148] Top shape: 128 4096 (524288)
I1023 19:31:58.243670  8748 net.cpp:156] Memory required for data: 416582656
I1023 19:31:58.243772  8748 layer_factory.hpp:77] Creating layer drop1_left_coordinate_1
I1023 19:31:58.243780  8748 net.cpp:91] Creating Layer drop1_left_coordinate_1
I1023 19:31:58.243784  8748 net.cpp:425] drop1_left_coordinate_1 <- fc1_left_coordinate_1
I1023 19:31:58.243790  8748 net.cpp:386] drop1_left_coordinate_1 -> fc1_left_coordinate_1 (in-place)
I1023 19:31:58.243810  8748 net.cpp:141] Setting up drop1_left_coordinate_1
I1023 19:31:58.243860  8748 net.cpp:148] Top shape: 128 4096 (524288)
I1023 19:31:58.243862  8748 net.cpp:156] Memory required for data: 418679808
I1023 19:31:58.243877  8748 layer_factory.hpp:77] Creating layer fc1_left_coordinate_2
I1023 19:31:58.243883  8748 net.cpp:91] Creating Layer fc1_left_coordinate_2
I1023 19:31:58.243906  8748 net.cpp:425] fc1_left_coordinate_2 <- concat_pool4_left_2
I1023 19:31:58.243911  8748 net.cpp:399] fc1_left_coordinate_2 -> fc1_left_coordinate_2
I1023 19:31:58.267849  8748 net.cpp:141] Setting up fc1_left_coordinate_2
I1023 19:31:58.267866  8748 net.cpp:148] Top shape: 128 4096 (524288)
I1023 19:31:58.267868  8748 net.cpp:156] Memory required for data: 420776960
I1023 19:31:58.267875  8748 layer_factory.hpp:77] Creating layer drop1_left_coordinate_2
I1023 19:31:58.267881  8748 net.cpp:91] Creating Layer drop1_left_coordinate_2
I1023 19:31:58.267884  8748 net.cpp:425] drop1_left_coordinate_2 <- fc1_left_coordinate_2
I1023 19:31:58.267890  8748 net.cpp:386] drop1_left_coordinate_2 -> fc1_left_coordinate_2 (in-place)
I1023 19:31:58.267905  8748 net.cpp:141] Setting up drop1_left_coordinate_2
I1023 19:31:58.267909  8748 net.cpp:148] Top shape: 128 4096 (524288)
I1023 19:31:58.267928  8748 net.cpp:156] Memory required for data: 422874112
I1023 19:31:58.267931  8748 layer_factory.hpp:77] Creating layer concat_fc1_left_coordinate_compile
I1023 19:31:58.267935  8748 net.cpp:91] Creating Layer concat_fc1_left_coordinate_compile
I1023 19:31:58.267937  8748 net.cpp:425] concat_fc1_left_coordinate_compile <- fc1_left_coordinate_1
I1023 19:31:58.267940  8748 net.cpp:425] concat_fc1_left_coordinate_compile <- fc1_left_coordinate_2
I1023 19:31:58.267946  8748 net.cpp:399] concat_fc1_left_coordinate_compile -> concat_fc1_left_coordinate_compile
I1023 19:31:58.267982  8748 net.cpp:141] Setting up concat_fc1_left_coordinate_compile
I1023 19:31:58.267984  8748 net.cpp:148] Top shape: 128 8192 (1048576)
I1023 19:31:58.268002  8748 net.cpp:156] Memory required for data: 427068416
I1023 19:31:58.268004  8748 layer_factory.hpp:77] Creating layer fc2_left_coordinate
I1023 19:31:58.268008  8748 net.cpp:91] Creating Layer fc2_left_coordinate
I1023 19:31:58.268029  8748 net.cpp:425] fc2_left_coordinate <- concat_fc1_left_coordinate_compile
I1023 19:31:58.268033  8748 net.cpp:399] fc2_left_coordinate -> fc2_left_coordinate
I1023 19:31:58.268275  8748 net.cpp:141] Setting up fc2_left_coordinate
I1023 19:31:58.268278  8748 net.cpp:148] Top shape: 128 2 (256)
I1023 19:31:58.268280  8748 net.cpp:156] Memory required for data: 427069440
I1023 19:31:58.268283  8748 layer_factory.hpp:77] Creating layer fc3_left_coordinate
I1023 19:31:58.268287  8748 net.cpp:91] Creating Layer fc3_left_coordinate
I1023 19:31:58.268290  8748 net.cpp:425] fc3_left_coordinate <- fc2_left_coordinate
I1023 19:31:58.268293  8748 net.cpp:399] fc3_left_coordinate -> fc3_left_coordinate
I1023 19:31:58.268406  8748 net.cpp:141] Setting up fc3_left_coordinate
I1023 19:31:58.268410  8748 net.cpp:148] Top shape: 128 2 (256)
I1023 19:31:58.268412  8748 net.cpp:156] Memory required for data: 427070464
I1023 19:31:58.268434  8748 layer_factory.hpp:77] Creating layer loss_left_coordinate
I1023 19:31:58.268437  8748 net.cpp:91] Creating Layer loss_left_coordinate
I1023 19:31:58.268440  8748 net.cpp:425] loss_left_coordinate <- fc3_left_coordinate
I1023 19:31:58.268442  8748 net.cpp:425] loss_left_coordinate <- left_eye
I1023 19:31:58.268446  8748 net.cpp:399] loss_left_coordinate -> loss_left_coordinate
I1023 19:31:58.268522  8748 net.cpp:141] Setting up loss_left_coordinate
I1023 19:31:58.268543  8748 net.cpp:148] Top shape: (1)
I1023 19:31:58.268545  8748 net.cpp:151]     with loss weight 1
I1023 19:31:58.268558  8748 net.cpp:156] Memory required for data: 427070468
I1023 19:31:58.268560  8748 layer_factory.hpp:77] Creating layer fc1_left_confidence
I1023 19:31:58.268568  8748 net.cpp:91] Creating Layer fc1_left_confidence
I1023 19:31:58.268570  8748 net.cpp:425] fc1_left_confidence <- concat_pool3_left_compile
I1023 19:31:58.268575  8748 net.cpp:399] fc1_left_confidence -> fc1_left_confidence
I1023 19:31:58.269778  8748 net.cpp:141] Setting up fc1_left_confidence
I1023 19:31:58.269788  8748 net.cpp:148] Top shape: 128 128 4 4 (262144)
I1023 19:31:58.269789  8748 net.cpp:156] Memory required for data: 428119044
I1023 19:31:58.269793  8748 layer_factory.hpp:77] Creating layer relu_fc1_left_confidence
I1023 19:31:58.269798  8748 net.cpp:91] Creating Layer relu_fc1_left_confidence
I1023 19:31:58.269800  8748 net.cpp:425] relu_fc1_left_confidence <- fc1_left_confidence
I1023 19:31:58.269804  8748 net.cpp:386] relu_fc1_left_confidence -> fc1_left_confidence (in-place)
I1023 19:31:58.269811  8748 net.cpp:141] Setting up relu_fc1_left_confidence
I1023 19:31:58.269814  8748 net.cpp:148] Top shape: 128 128 4 4 (262144)
I1023 19:31:58.269816  8748 net.cpp:156] Memory required for data: 429167620
I1023 19:31:58.269817  8748 layer_factory.hpp:77] Creating layer drop1_left_confidence
I1023 19:31:58.269824  8748 net.cpp:91] Creating Layer drop1_left_confidence
I1023 19:31:58.269826  8748 net.cpp:425] drop1_left_confidence <- fc1_left_confidence
I1023 19:31:58.269830  8748 net.cpp:386] drop1_left_confidence -> fc1_left_confidence (in-place)
I1023 19:31:58.269846  8748 net.cpp:141] Setting up drop1_left_confidence
I1023 19:31:58.269850  8748 net.cpp:148] Top shape: 128 128 4 4 (262144)
I1023 19:31:58.269852  8748 net.cpp:156] Memory required for data: 430216196
I1023 19:31:58.269855  8748 layer_factory.hpp:77] Creating layer fc2_left_confidence
I1023 19:31:58.269860  8748 net.cpp:91] Creating Layer fc2_left_confidence
I1023 19:31:58.269862  8748 net.cpp:425] fc2_left_confidence <- fc1_left_confidence
I1023 19:31:58.269866  8748 net.cpp:399] fc2_left_confidence -> fc2_left_confidence
I1023 19:31:58.272972  8748 net.cpp:141] Setting up fc2_left_confidence
I1023 19:31:58.272985  8748 net.cpp:148] Top shape: 128 256 1 1 (32768)
I1023 19:31:58.272987  8748 net.cpp:156] Memory required for data: 430347268
I1023 19:31:58.272992  8748 layer_factory.hpp:77] Creating layer relu_fc2_left_confidence
I1023 19:31:58.272997  8748 net.cpp:91] Creating Layer relu_fc2_left_confidence
I1023 19:31:58.273000  8748 net.cpp:425] relu_fc2_left_confidence <- fc2_left_confidence
I1023 19:31:58.273005  8748 net.cpp:386] relu_fc2_left_confidence -> fc2_left_confidence (in-place)
I1023 19:31:58.273010  8748 net.cpp:141] Setting up relu_fc2_left_confidence
I1023 19:31:58.273013  8748 net.cpp:148] Top shape: 128 256 1 1 (32768)
I1023 19:31:58.273015  8748 net.cpp:156] Memory required for data: 430478340
I1023 19:31:58.273017  8748 layer_factory.hpp:77] Creating layer drop2_left_confidence
I1023 19:31:58.273020  8748 net.cpp:91] Creating Layer drop2_left_confidence
I1023 19:31:58.273022  8748 net.cpp:425] drop2_left_confidence <- fc2_left_confidence
I1023 19:31:58.273046  8748 net.cpp:386] drop2_left_confidence -> fc2_left_confidence (in-place)
I1023 19:31:58.273059  8748 net.cpp:141] Setting up drop2_left_confidence
I1023 19:31:58.273063  8748 net.cpp:148] Top shape: 128 256 1 1 (32768)
I1023 19:31:58.273083  8748 net.cpp:156] Memory required for data: 430609412
I1023 19:31:58.273085  8748 layer_factory.hpp:77] Creating layer fc3_left_confidence
I1023 19:31:58.273092  8748 net.cpp:91] Creating Layer fc3_left_confidence
I1023 19:31:58.273094  8748 net.cpp:425] fc3_left_confidence <- fc2_left_confidence
I1023 19:31:58.273099  8748 net.cpp:399] fc3_left_confidence -> fc3_left_confidence
I1023 19:31:58.273308  8748 net.cpp:141] Setting up fc3_left_confidence
I1023 19:31:58.273313  8748 net.cpp:148] Top shape: 128 2 1 1 (256)
I1023 19:31:58.273313  8748 net.cpp:156] Memory required for data: 430610436
I1023 19:31:58.273319  8748 layer_factory.hpp:77] Creating layer loss_left_confidence
I1023 19:31:58.273321  8748 net.cpp:91] Creating Layer loss_left_confidence
I1023 19:31:58.273324  8748 net.cpp:425] loss_left_confidence <- fc3_left_confidence
I1023 19:31:58.273326  8748 net.cpp:425] loss_left_confidence <- visibility_left
I1023 19:31:58.273331  8748 net.cpp:399] loss_left_confidence -> loss_left_confidence
I1023 19:31:58.273340  8748 layer_factory.hpp:77] Creating layer loss_left_confidence
I1023 19:31:58.273406  8748 net.cpp:141] Setting up loss_left_confidence
I1023 19:31:58.273411  8748 net.cpp:148] Top shape: (1)
I1023 19:31:58.273413  8748 net.cpp:151]     with loss weight 1
I1023 19:31:58.273421  8748 net.cpp:156] Memory required for data: 430610440
I1023 19:31:58.273422  8748 layer_factory.hpp:77] Creating layer conv3_right_small_1
I1023 19:31:58.273427  8748 net.cpp:91] Creating Layer conv3_right_small_1
I1023 19:31:58.273430  8748 net.cpp:425] conv3_right_small_1 <- concat_pool2_1_concat_pool2_1_0_split_2
I1023 19:31:58.273437  8748 net.cpp:399] conv3_right_small_1 -> conv3_right_small_1
I1023 19:31:58.273628  8748 net.cpp:141] Setting up conv3_right_small_1
I1023 19:31:58.273633  8748 net.cpp:148] Top shape: 128 16 13 13 (346112)
I1023 19:31:58.273636  8748 net.cpp:156] Memory required for data: 431994888
I1023 19:31:58.273639  8748 layer_factory.hpp:77] Creating layer relu3_right_small_1
I1023 19:31:58.273643  8748 net.cpp:91] Creating Layer relu3_right_small_1
I1023 19:31:58.273645  8748 net.cpp:425] relu3_right_small_1 <- conv3_right_small_1
I1023 19:31:58.273649  8748 net.cpp:386] relu3_right_small_1 -> conv3_right_small_1 (in-place)
I1023 19:31:58.273653  8748 net.cpp:141] Setting up relu3_right_small_1
I1023 19:31:58.273656  8748 net.cpp:148] Top shape: 128 16 13 13 (346112)
I1023 19:31:58.273658  8748 net.cpp:156] Memory required for data: 433379336
I1023 19:31:58.273660  8748 layer_factory.hpp:77] Creating layer pool3_right_small_1
I1023 19:31:58.273663  8748 net.cpp:91] Creating Layer pool3_right_small_1
I1023 19:31:58.273665  8748 net.cpp:425] pool3_right_small_1 <- conv3_right_small_1
I1023 19:31:58.273671  8748 net.cpp:399] pool3_right_small_1 -> pool3_right_small_1
I1023 19:31:58.273699  8748 net.cpp:141] Setting up pool3_right_small_1
I1023 19:31:58.273702  8748 net.cpp:148] Top shape: 128 16 7 7 (100352)
I1023 19:31:58.273705  8748 net.cpp:156] Memory required for data: 433780744
I1023 19:31:58.273706  8748 layer_factory.hpp:77] Creating layer conv3_right_medium_1
I1023 19:31:58.273712  8748 net.cpp:91] Creating Layer conv3_right_medium_1
I1023 19:31:58.273715  8748 net.cpp:425] conv3_right_medium_1 <- concat_pool2_1_concat_pool2_1_0_split_3
I1023 19:31:58.273718  8748 net.cpp:399] conv3_right_medium_1 -> conv3_right_medium_1
I1023 19:31:58.273924  8748 net.cpp:141] Setting up conv3_right_medium_1
I1023 19:31:58.273929  8748 net.cpp:148] Top shape: 128 16 13 13 (346112)
I1023 19:31:58.273931  8748 net.cpp:156] Memory required for data: 435165192
I1023 19:31:58.273934  8748 layer_factory.hpp:77] Creating layer relu3_right_medium_1
I1023 19:31:58.273937  8748 net.cpp:91] Creating Layer relu3_right_medium_1
I1023 19:31:58.273941  8748 net.cpp:425] relu3_right_medium_1 <- conv3_right_medium_1
I1023 19:31:58.273946  8748 net.cpp:386] relu3_right_medium_1 -> conv3_right_medium_1 (in-place)
I1023 19:31:58.273949  8748 net.cpp:141] Setting up relu3_right_medium_1
I1023 19:31:58.273952  8748 net.cpp:148] Top shape: 128 16 13 13 (346112)
I1023 19:31:58.273954  8748 net.cpp:156] Memory required for data: 436549640
I1023 19:31:58.273955  8748 layer_factory.hpp:77] Creating layer pool3_right_medium_1
I1023 19:31:58.273959  8748 net.cpp:91] Creating Layer pool3_right_medium_1
I1023 19:31:58.273960  8748 net.cpp:425] pool3_right_medium_1 <- conv3_right_medium_1
I1023 19:31:58.273965  8748 net.cpp:399] pool3_right_medium_1 -> pool3_right_medium_1
I1023 19:31:58.273988  8748 net.cpp:141] Setting up pool3_right_medium_1
I1023 19:31:58.273993  8748 net.cpp:148] Top shape: 128 16 7 7 (100352)
I1023 19:31:58.273995  8748 net.cpp:156] Memory required for data: 436951048
I1023 19:31:58.273998  8748 layer_factory.hpp:77] Creating layer concat_pool3_right_1
I1023 19:31:58.274000  8748 net.cpp:91] Creating Layer concat_pool3_right_1
I1023 19:31:58.274003  8748 net.cpp:425] concat_pool3_right_1 <- pool3_right_small_1
I1023 19:31:58.274005  8748 net.cpp:425] concat_pool3_right_1 <- pool3_right_medium_1
I1023 19:31:58.274009  8748 net.cpp:399] concat_pool3_right_1 -> concat_pool3_right_1
I1023 19:31:58.274032  8748 net.cpp:141] Setting up concat_pool3_right_1
I1023 19:31:58.274037  8748 net.cpp:148] Top shape: 128 32 7 7 (200704)
I1023 19:31:58.274039  8748 net.cpp:156] Memory required for data: 437753864
I1023 19:31:58.274042  8748 layer_factory.hpp:77] Creating layer concat_pool3_right_1_concat_pool3_right_1_0_split
I1023 19:31:58.274045  8748 net.cpp:91] Creating Layer concat_pool3_right_1_concat_pool3_right_1_0_split
I1023 19:31:58.274047  8748 net.cpp:425] concat_pool3_right_1_concat_pool3_right_1_0_split <- concat_pool3_right_1
I1023 19:31:58.274051  8748 net.cpp:399] concat_pool3_right_1_concat_pool3_right_1_0_split -> concat_pool3_right_1_concat_pool3_right_1_0_split_0
I1023 19:31:58.274056  8748 net.cpp:399] concat_pool3_right_1_concat_pool3_right_1_0_split -> concat_pool3_right_1_concat_pool3_right_1_0_split_1
I1023 19:31:58.274061  8748 net.cpp:399] concat_pool3_right_1_concat_pool3_right_1_0_split -> concat_pool3_right_1_concat_pool3_right_1_0_split_2
I1023 19:31:58.274091  8748 net.cpp:141] Setting up concat_pool3_right_1_concat_pool3_right_1_0_split
I1023 19:31:58.274096  8748 net.cpp:148] Top shape: 128 32 7 7 (200704)
I1023 19:31:58.274099  8748 net.cpp:148] Top shape: 128 32 7 7 (200704)
I1023 19:31:58.274101  8748 net.cpp:148] Top shape: 128 32 7 7 (200704)
I1023 19:31:58.274103  8748 net.cpp:156] Memory required for data: 440162312
I1023 19:31:58.274104  8748 layer_factory.hpp:77] Creating layer conv3_right_small_2
I1023 19:31:58.274111  8748 net.cpp:91] Creating Layer conv3_right_small_2
I1023 19:31:58.274113  8748 net.cpp:425] conv3_right_small_2 <- concat_pool2_2_concat_pool2_2_0_split_2
I1023 19:31:58.274117  8748 net.cpp:399] conv3_right_small_2 -> conv3_right_small_2
I1023 19:31:58.274274  8748 net.cpp:141] Setting up conv3_right_small_2
I1023 19:31:58.274279  8748 net.cpp:148] Top shape: 128 16 13 13 (346112)
I1023 19:31:58.274281  8748 net.cpp:156] Memory required for data: 441546760
I1023 19:31:58.274284  8748 layer_factory.hpp:77] Creating layer relu3_right_small_2
I1023 19:31:58.274287  8748 net.cpp:91] Creating Layer relu3_right_small_2
I1023 19:31:58.274291  8748 net.cpp:425] relu3_right_small_2 <- conv3_right_small_2
I1023 19:31:58.274296  8748 net.cpp:386] relu3_right_small_2 -> conv3_right_small_2 (in-place)
I1023 19:31:58.274299  8748 net.cpp:141] Setting up relu3_right_small_2
I1023 19:31:58.274302  8748 net.cpp:148] Top shape: 128 16 13 13 (346112)
I1023 19:31:58.274304  8748 net.cpp:156] Memory required for data: 442931208
I1023 19:31:58.274307  8748 layer_factory.hpp:77] Creating layer pool3_right_small_2
I1023 19:31:58.274309  8748 net.cpp:91] Creating Layer pool3_right_small_2
I1023 19:31:58.274312  8748 net.cpp:425] pool3_right_small_2 <- conv3_right_small_2
I1023 19:31:58.274315  8748 net.cpp:399] pool3_right_small_2 -> pool3_right_small_2
I1023 19:31:58.274338  8748 net.cpp:141] Setting up pool3_right_small_2
I1023 19:31:58.274343  8748 net.cpp:148] Top shape: 128 16 7 7 (100352)
I1023 19:31:58.274345  8748 net.cpp:156] Memory required for data: 443332616
I1023 19:31:58.274348  8748 layer_factory.hpp:77] Creating layer conv3_right_medium_2
I1023 19:31:58.274353  8748 net.cpp:91] Creating Layer conv3_right_medium_2
I1023 19:31:58.274355  8748 net.cpp:425] conv3_right_medium_2 <- concat_pool2_2_concat_pool2_2_0_split_3
I1023 19:31:58.274359  8748 net.cpp:399] conv3_right_medium_2 -> conv3_right_medium_2
I1023 19:31:58.274538  8748 net.cpp:141] Setting up conv3_right_medium_2
I1023 19:31:58.274541  8748 net.cpp:148] Top shape: 128 16 13 13 (346112)
I1023 19:31:58.274544  8748 net.cpp:156] Memory required for data: 444717064
I1023 19:31:58.274546  8748 layer_factory.hpp:77] Creating layer relu3_right_medium_2
I1023 19:31:58.274550  8748 net.cpp:91] Creating Layer relu3_right_medium_2
I1023 19:31:58.274552  8748 net.cpp:425] relu3_right_medium_2 <- conv3_right_medium_2
I1023 19:31:58.274556  8748 net.cpp:386] relu3_right_medium_2 -> conv3_right_medium_2 (in-place)
I1023 19:31:58.274560  8748 net.cpp:141] Setting up relu3_right_medium_2
I1023 19:31:58.274569  8748 net.cpp:148] Top shape: 128 16 13 13 (346112)
I1023 19:31:58.274571  8748 net.cpp:156] Memory required for data: 446101512
I1023 19:31:58.274574  8748 layer_factory.hpp:77] Creating layer pool3_right_medium_2
I1023 19:31:58.274577  8748 net.cpp:91] Creating Layer pool3_right_medium_2
I1023 19:31:58.274580  8748 net.cpp:425] pool3_right_medium_2 <- conv3_right_medium_2
I1023 19:31:58.274582  8748 net.cpp:399] pool3_right_medium_2 -> pool3_right_medium_2
I1023 19:31:58.274605  8748 net.cpp:141] Setting up pool3_right_medium_2
I1023 19:31:58.274611  8748 net.cpp:148] Top shape: 128 16 7 7 (100352)
I1023 19:31:58.274613  8748 net.cpp:156] Memory required for data: 446502920
I1023 19:31:58.274616  8748 layer_factory.hpp:77] Creating layer concat_pool3_right_2
I1023 19:31:58.274618  8748 net.cpp:91] Creating Layer concat_pool3_right_2
I1023 19:31:58.274621  8748 net.cpp:425] concat_pool3_right_2 <- pool3_right_small_2
I1023 19:31:58.274623  8748 net.cpp:425] concat_pool3_right_2 <- pool3_right_medium_2
I1023 19:31:58.274627  8748 net.cpp:399] concat_pool3_right_2 -> concat_pool3_right_2
I1023 19:31:58.274641  8748 net.cpp:141] Setting up concat_pool3_right_2
I1023 19:31:58.274646  8748 net.cpp:148] Top shape: 128 32 7 7 (200704)
I1023 19:31:58.274648  8748 net.cpp:156] Memory required for data: 447305736
I1023 19:31:58.274651  8748 layer_factory.hpp:77] Creating layer concat_pool3_right_2_concat_pool3_right_2_0_split
I1023 19:31:58.274653  8748 net.cpp:91] Creating Layer concat_pool3_right_2_concat_pool3_right_2_0_split
I1023 19:31:58.274655  8748 net.cpp:425] concat_pool3_right_2_concat_pool3_right_2_0_split <- concat_pool3_right_2
I1023 19:31:58.274659  8748 net.cpp:399] concat_pool3_right_2_concat_pool3_right_2_0_split -> concat_pool3_right_2_concat_pool3_right_2_0_split_0
I1023 19:31:58.274664  8748 net.cpp:399] concat_pool3_right_2_concat_pool3_right_2_0_split -> concat_pool3_right_2_concat_pool3_right_2_0_split_1
I1023 19:31:58.274668  8748 net.cpp:399] concat_pool3_right_2_concat_pool3_right_2_0_split -> concat_pool3_right_2_concat_pool3_right_2_0_split_2
I1023 19:31:58.274698  8748 net.cpp:141] Setting up concat_pool3_right_2_concat_pool3_right_2_0_split
I1023 19:31:58.274704  8748 net.cpp:148] Top shape: 128 32 7 7 (200704)
I1023 19:31:58.274706  8748 net.cpp:148] Top shape: 128 32 7 7 (200704)
I1023 19:31:58.274709  8748 net.cpp:148] Top shape: 128 32 7 7 (200704)
I1023 19:31:58.274710  8748 net.cpp:156] Memory required for data: 449714184
I1023 19:31:58.274713  8748 layer_factory.hpp:77] Creating layer conv4_right_small_1
I1023 19:31:58.274719  8748 net.cpp:91] Creating Layer conv4_right_small_1
I1023 19:31:58.274721  8748 net.cpp:425] conv4_right_small_1 <- concat_pool3_right_1_concat_pool3_right_1_0_split_0
I1023 19:31:58.274725  8748 net.cpp:399] conv4_right_small_1 -> conv4_right_small_1
I1023 19:31:58.274883  8748 net.cpp:141] Setting up conv4_right_small_1
I1023 19:31:58.274888  8748 net.cpp:148] Top shape: 128 32 7 7 (200704)
I1023 19:31:58.274889  8748 net.cpp:156] Memory required for data: 450517000
I1023 19:31:58.274893  8748 layer_factory.hpp:77] Creating layer relu4_right_small_1
I1023 19:31:58.274896  8748 net.cpp:91] Creating Layer relu4_right_small_1
I1023 19:31:58.274899  8748 net.cpp:425] relu4_right_small_1 <- conv4_right_small_1
I1023 19:31:58.274902  8748 net.cpp:386] relu4_right_small_1 -> conv4_right_small_1 (in-place)
I1023 19:31:58.274906  8748 net.cpp:141] Setting up relu4_right_small_1
I1023 19:31:58.274910  8748 net.cpp:148] Top shape: 128 32 7 7 (200704)
I1023 19:31:58.274912  8748 net.cpp:156] Memory required for data: 451319816
I1023 19:31:58.274914  8748 layer_factory.hpp:77] Creating layer pool4_right_small_1
I1023 19:31:58.274919  8748 net.cpp:91] Creating Layer pool4_right_small_1
I1023 19:31:58.274920  8748 net.cpp:425] pool4_right_small_1 <- conv4_right_small_1
I1023 19:31:58.274924  8748 net.cpp:399] pool4_right_small_1 -> pool4_right_small_1
I1023 19:31:58.274947  8748 net.cpp:141] Setting up pool4_right_small_1
I1023 19:31:58.274952  8748 net.cpp:148] Top shape: 128 32 4 4 (65536)
I1023 19:31:58.274960  8748 net.cpp:156] Memory required for data: 451581960
I1023 19:31:58.274963  8748 layer_factory.hpp:77] Creating layer conv4_right_medium_1
I1023 19:31:58.274968  8748 net.cpp:91] Creating Layer conv4_right_medium_1
I1023 19:31:58.274971  8748 net.cpp:425] conv4_right_medium_1 <- concat_pool3_right_1_concat_pool3_right_1_0_split_1
I1023 19:31:58.274976  8748 net.cpp:399] conv4_right_medium_1 -> conv4_right_medium_1
I1023 19:31:58.275167  8748 net.cpp:141] Setting up conv4_right_medium_1
I1023 19:31:58.275171  8748 net.cpp:148] Top shape: 128 32 7 7 (200704)
I1023 19:31:58.275173  8748 net.cpp:156] Memory required for data: 452384776
I1023 19:31:58.275177  8748 layer_factory.hpp:77] Creating layer relu4_right_medium_1
I1023 19:31:58.275182  8748 net.cpp:91] Creating Layer relu4_right_medium_1
I1023 19:31:58.275184  8748 net.cpp:425] relu4_right_medium_1 <- conv4_right_medium_1
I1023 19:31:58.275187  8748 net.cpp:386] relu4_right_medium_1 -> conv4_right_medium_1 (in-place)
I1023 19:31:58.275192  8748 net.cpp:141] Setting up relu4_right_medium_1
I1023 19:31:58.275193  8748 net.cpp:148] Top shape: 128 32 7 7 (200704)
I1023 19:31:58.275195  8748 net.cpp:156] Memory required for data: 453187592
I1023 19:31:58.275197  8748 layer_factory.hpp:77] Creating layer pool4_right_medium_1
I1023 19:31:58.275202  8748 net.cpp:91] Creating Layer pool4_right_medium_1
I1023 19:31:58.275203  8748 net.cpp:425] pool4_right_medium_1 <- conv4_right_medium_1
I1023 19:31:58.275207  8748 net.cpp:399] pool4_right_medium_1 -> pool4_right_medium_1
I1023 19:31:58.275249  8748 net.cpp:141] Setting up pool4_right_medium_1
I1023 19:31:58.275254  8748 net.cpp:148] Top shape: 128 32 4 4 (65536)
I1023 19:31:58.275256  8748 net.cpp:156] Memory required for data: 453449736
I1023 19:31:58.275257  8748 layer_factory.hpp:77] Creating layer concat_pool4_right_1
I1023 19:31:58.275261  8748 net.cpp:91] Creating Layer concat_pool4_right_1
I1023 19:31:58.275264  8748 net.cpp:425] concat_pool4_right_1 <- pool4_right_small_1
I1023 19:31:58.275266  8748 net.cpp:425] concat_pool4_right_1 <- pool4_right_medium_1
I1023 19:31:58.275272  8748 net.cpp:399] concat_pool4_right_1 -> concat_pool4_right_1
I1023 19:31:58.275287  8748 net.cpp:141] Setting up concat_pool4_right_1
I1023 19:31:58.275292  8748 net.cpp:148] Top shape: 128 64 4 4 (131072)
I1023 19:31:58.275295  8748 net.cpp:156] Memory required for data: 453974024
I1023 19:31:58.275296  8748 layer_factory.hpp:77] Creating layer conv4_right_small_2
I1023 19:31:58.275303  8748 net.cpp:91] Creating Layer conv4_right_small_2
I1023 19:31:58.275306  8748 net.cpp:425] conv4_right_small_2 <- concat_pool3_right_2_concat_pool3_right_2_0_split_0
I1023 19:31:58.275310  8748 net.cpp:399] conv4_right_small_2 -> conv4_right_small_2
I1023 19:31:58.275595  8748 net.cpp:141] Setting up conv4_right_small_2
I1023 19:31:58.275600  8748 net.cpp:148] Top shape: 128 32 7 7 (200704)
I1023 19:31:58.275602  8748 net.cpp:156] Memory required for data: 454776840
I1023 19:31:58.275606  8748 layer_factory.hpp:77] Creating layer relu4_right_small_2
I1023 19:31:58.275629  8748 net.cpp:91] Creating Layer relu4_right_small_2
I1023 19:31:58.275630  8748 net.cpp:425] relu4_right_small_2 <- conv4_right_small_2
I1023 19:31:58.275635  8748 net.cpp:386] relu4_right_small_2 -> conv4_right_small_2 (in-place)
I1023 19:31:58.275640  8748 net.cpp:141] Setting up relu4_right_small_2
I1023 19:31:58.275642  8748 net.cpp:148] Top shape: 128 32 7 7 (200704)
I1023 19:31:58.275645  8748 net.cpp:156] Memory required for data: 455579656
I1023 19:31:58.275660  8748 layer_factory.hpp:77] Creating layer pool4_right_small_2
I1023 19:31:58.275663  8748 net.cpp:91] Creating Layer pool4_right_small_2
I1023 19:31:58.275665  8748 net.cpp:425] pool4_right_small_2 <- conv4_right_small_2
I1023 19:31:58.275670  8748 net.cpp:399] pool4_right_small_2 -> pool4_right_small_2
I1023 19:31:58.275694  8748 net.cpp:141] Setting up pool4_right_small_2
I1023 19:31:58.275699  8748 net.cpp:148] Top shape: 128 32 4 4 (65536)
I1023 19:31:58.275702  8748 net.cpp:156] Memory required for data: 455841800
I1023 19:31:58.275723  8748 layer_factory.hpp:77] Creating layer conv4_right_medium_2
I1023 19:31:58.275729  8748 net.cpp:91] Creating Layer conv4_right_medium_2
I1023 19:31:58.275746  8748 net.cpp:425] conv4_right_medium_2 <- concat_pool3_right_2_concat_pool3_right_2_0_split_1
I1023 19:31:58.275750  8748 net.cpp:399] conv4_right_medium_2 -> conv4_right_medium_2
I1023 19:31:58.275959  8748 net.cpp:141] Setting up conv4_right_medium_2
I1023 19:31:58.275964  8748 net.cpp:148] Top shape: 128 32 7 7 (200704)
I1023 19:31:58.275966  8748 net.cpp:156] Memory required for data: 456644616
I1023 19:31:58.275969  8748 layer_factory.hpp:77] Creating layer relu4_right_medium_2
I1023 19:31:58.275987  8748 net.cpp:91] Creating Layer relu4_right_medium_2
I1023 19:31:58.275990  8748 net.cpp:425] relu4_right_medium_2 <- conv4_right_medium_2
I1023 19:31:58.275995  8748 net.cpp:386] relu4_right_medium_2 -> conv4_right_medium_2 (in-place)
I1023 19:31:58.275998  8748 net.cpp:141] Setting up relu4_right_medium_2
I1023 19:31:58.276001  8748 net.cpp:148] Top shape: 128 32 7 7 (200704)
I1023 19:31:58.276005  8748 net.cpp:156] Memory required for data: 457447432
I1023 19:31:58.276005  8748 layer_factory.hpp:77] Creating layer pool4_right_medium_2
I1023 19:31:58.276010  8748 net.cpp:91] Creating Layer pool4_right_medium_2
I1023 19:31:58.276011  8748 net.cpp:425] pool4_right_medium_2 <- conv4_right_medium_2
I1023 19:31:58.276015  8748 net.cpp:399] pool4_right_medium_2 -> pool4_right_medium_2
I1023 19:31:58.276053  8748 net.cpp:141] Setting up pool4_right_medium_2
I1023 19:31:58.276058  8748 net.cpp:148] Top shape: 128 32 4 4 (65536)
I1023 19:31:58.276060  8748 net.cpp:156] Memory required for data: 457709576
I1023 19:31:58.276063  8748 layer_factory.hpp:77] Creating layer concat_pool4_right_2
I1023 19:31:58.276067  8748 net.cpp:91] Creating Layer concat_pool4_right_2
I1023 19:31:58.276068  8748 net.cpp:425] concat_pool4_right_2 <- pool4_right_small_2
I1023 19:31:58.276072  8748 net.cpp:425] concat_pool4_right_2 <- pool4_right_medium_2
I1023 19:31:58.276074  8748 net.cpp:399] concat_pool4_right_2 -> concat_pool4_right_2
I1023 19:31:58.276091  8748 net.cpp:141] Setting up concat_pool4_right_2
I1023 19:31:58.276095  8748 net.cpp:148] Top shape: 128 64 4 4 (131072)
I1023 19:31:58.276098  8748 net.cpp:156] Memory required for data: 458233864
I1023 19:31:58.276100  8748 layer_factory.hpp:77] Creating layer concat_pool3_right_compile
I1023 19:31:58.276103  8748 net.cpp:91] Creating Layer concat_pool3_right_compile
I1023 19:31:58.276105  8748 net.cpp:425] concat_pool3_right_compile <- concat_pool3_right_1_concat_pool3_right_1_0_split_2
I1023 19:31:58.276108  8748 net.cpp:425] concat_pool3_right_compile <- concat_pool3_right_2_concat_pool3_right_2_0_split_2
I1023 19:31:58.276113  8748 net.cpp:399] concat_pool3_right_compile -> concat_pool3_right_compile
I1023 19:31:58.276127  8748 net.cpp:141] Setting up concat_pool3_right_compile
I1023 19:31:58.276131  8748 net.cpp:148] Top shape: 128 64 7 7 (401408)
I1023 19:31:58.276134  8748 net.cpp:156] Memory required for data: 459839496
I1023 19:31:58.276135  8748 layer_factory.hpp:77] Creating layer fc1_right_coordinate_1
I1023 19:31:58.276141  8748 net.cpp:91] Creating Layer fc1_right_coordinate_1
I1023 19:31:58.276144  8748 net.cpp:425] fc1_right_coordinate_1 <- concat_pool4_right_1
I1023 19:31:58.276147  8748 net.cpp:399] fc1_right_coordinate_1 -> fc1_right_coordinate_1
I1023 19:31:58.299257  8748 net.cpp:141] Setting up fc1_right_coordinate_1
I1023 19:31:58.299275  8748 net.cpp:148] Top shape: 128 4096 (524288)
I1023 19:31:58.299278  8748 net.cpp:156] Memory required for data: 461936648
I1023 19:31:58.299304  8748 layer_factory.hpp:77] Creating layer drop1_right_coordinate_1
I1023 19:31:58.299314  8748 net.cpp:91] Creating Layer drop1_right_coordinate_1
I1023 19:31:58.299317  8748 net.cpp:425] drop1_right_coordinate_1 <- fc1_right_coordinate_1
I1023 19:31:58.299322  8748 net.cpp:386] drop1_right_coordinate_1 -> fc1_right_coordinate_1 (in-place)
I1023 19:31:58.299386  8748 net.cpp:141] Setting up drop1_right_coordinate_1
I1023 19:31:58.299391  8748 net.cpp:148] Top shape: 128 4096 (524288)
I1023 19:31:58.299392  8748 net.cpp:156] Memory required for data: 464033800
I1023 19:31:58.299407  8748 layer_factory.hpp:77] Creating layer fc1_right_coordinate_2
I1023 19:31:58.299412  8748 net.cpp:91] Creating Layer fc1_right_coordinate_2
I1023 19:31:58.299435  8748 net.cpp:425] fc1_right_coordinate_2 <- concat_pool4_right_2
I1023 19:31:58.299443  8748 net.cpp:399] fc1_right_coordinate_2 -> fc1_right_coordinate_2
I1023 19:31:58.321962  8748 net.cpp:141] Setting up fc1_right_coordinate_2
I1023 19:31:58.321979  8748 net.cpp:148] Top shape: 128 4096 (524288)
I1023 19:31:58.321981  8748 net.cpp:156] Memory required for data: 466130952
I1023 19:31:58.322032  8748 layer_factory.hpp:77] Creating layer drop1_right_coordinate_2
I1023 19:31:58.322059  8748 net.cpp:91] Creating Layer drop1_right_coordinate_2
I1023 19:31:58.322062  8748 net.cpp:425] drop1_right_coordinate_2 <- fc1_right_coordinate_2
I1023 19:31:58.322084  8748 net.cpp:386] drop1_right_coordinate_2 -> fc1_right_coordinate_2 (in-place)
I1023 19:31:58.322118  8748 net.cpp:141] Setting up drop1_right_coordinate_2
I1023 19:31:58.322121  8748 net.cpp:148] Top shape: 128 4096 (524288)
I1023 19:31:58.322123  8748 net.cpp:156] Memory required for data: 468228104
I1023 19:31:58.322125  8748 layer_factory.hpp:77] Creating layer concat_fc1_right_coordinate_compile
I1023 19:31:58.322129  8748 net.cpp:91] Creating Layer concat_fc1_right_coordinate_compile
I1023 19:31:58.322131  8748 net.cpp:425] concat_fc1_right_coordinate_compile <- fc1_right_coordinate_1
I1023 19:31:58.322134  8748 net.cpp:425] concat_fc1_right_coordinate_compile <- fc1_right_coordinate_2
I1023 19:31:58.322139  8748 net.cpp:399] concat_fc1_right_coordinate_compile -> concat_fc1_right_coordinate_compile
I1023 19:31:58.322170  8748 net.cpp:141] Setting up concat_fc1_right_coordinate_compile
I1023 19:31:58.322173  8748 net.cpp:148] Top shape: 128 8192 (1048576)
I1023 19:31:58.322175  8748 net.cpp:156] Memory required for data: 472422408
I1023 19:31:58.322177  8748 layer_factory.hpp:77] Creating layer fc2_right_coordinate
I1023 19:31:58.322181  8748 net.cpp:91] Creating Layer fc2_right_coordinate
I1023 19:31:58.322183  8748 net.cpp:425] fc2_right_coordinate <- concat_fc1_right_coordinate_compile
I1023 19:31:58.322187  8748 net.cpp:399] fc2_right_coordinate -> fc2_right_coordinate
I1023 19:31:58.322355  8748 net.cpp:141] Setting up fc2_right_coordinate
I1023 19:31:58.322360  8748 net.cpp:148] Top shape: 128 2 (256)
I1023 19:31:58.322378  8748 net.cpp:156] Memory required for data: 472423432
I1023 19:31:58.322382  8748 layer_factory.hpp:77] Creating layer fc3_right_coordinate
I1023 19:31:58.322386  8748 net.cpp:91] Creating Layer fc3_right_coordinate
I1023 19:31:58.322388  8748 net.cpp:425] fc3_right_coordinate <- fc2_right_coordinate
I1023 19:31:58.322392  8748 net.cpp:399] fc3_right_coordinate -> fc3_right_coordinate
I1023 19:31:58.322517  8748 net.cpp:141] Setting up fc3_right_coordinate
I1023 19:31:58.322535  8748 net.cpp:148] Top shape: 128 2 (256)
I1023 19:31:58.322535  8748 net.cpp:156] Memory required for data: 472424456
I1023 19:31:58.322538  8748 layer_factory.hpp:77] Creating layer loss_right_coordinate
I1023 19:31:58.322541  8748 net.cpp:91] Creating Layer loss_right_coordinate
I1023 19:31:58.322562  8748 net.cpp:425] loss_right_coordinate <- fc3_right_coordinate
I1023 19:31:58.322566  8748 net.cpp:425] loss_right_coordinate <- right_eye
I1023 19:31:58.322568  8748 net.cpp:399] loss_right_coordinate -> loss_right_coordinate
I1023 19:31:58.322607  8748 net.cpp:141] Setting up loss_right_coordinate
I1023 19:31:58.322626  8748 net.cpp:148] Top shape: (1)
I1023 19:31:58.322628  8748 net.cpp:151]     with loss weight 1
I1023 19:31:58.322634  8748 net.cpp:156] Memory required for data: 472424460
I1023 19:31:58.322654  8748 layer_factory.hpp:77] Creating layer fc1_right_confidence
I1023 19:31:58.322660  8748 net.cpp:91] Creating Layer fc1_right_confidence
I1023 19:31:58.322676  8748 net.cpp:425] fc1_right_confidence <- concat_pool3_right_compile
I1023 19:31:58.322705  8748 net.cpp:399] fc1_right_confidence -> fc1_right_confidence
I1023 19:31:58.323465  8748 net.cpp:141] Setting up fc1_right_confidence
I1023 19:31:58.323470  8748 net.cpp:148] Top shape: 128 128 4 4 (262144)
I1023 19:31:58.323472  8748 net.cpp:156] Memory required for data: 473473036
I1023 19:31:58.323475  8748 layer_factory.hpp:77] Creating layer relu_fc1_right_confidence
I1023 19:31:58.323498  8748 net.cpp:91] Creating Layer relu_fc1_right_confidence
I1023 19:31:58.323500  8748 net.cpp:425] relu_fc1_right_confidence <- fc1_right_confidence
I1023 19:31:58.323503  8748 net.cpp:386] relu_fc1_right_confidence -> fc1_right_confidence (in-place)
I1023 19:31:58.323508  8748 net.cpp:141] Setting up relu_fc1_right_confidence
I1023 19:31:58.323511  8748 net.cpp:148] Top shape: 128 128 4 4 (262144)
I1023 19:31:58.323531  8748 net.cpp:156] Memory required for data: 474521612
I1023 19:31:58.323534  8748 layer_factory.hpp:77] Creating layer drop1_right_confidence
I1023 19:31:58.323536  8748 net.cpp:91] Creating Layer drop1_right_confidence
I1023 19:31:58.323539  8748 net.cpp:425] drop1_right_confidence <- fc1_right_confidence
I1023 19:31:58.323542  8748 net.cpp:386] drop1_right_confidence -> fc1_right_confidence (in-place)
I1023 19:31:58.323576  8748 net.cpp:141] Setting up drop1_right_confidence
I1023 19:31:58.323581  8748 net.cpp:148] Top shape: 128 128 4 4 (262144)
I1023 19:31:58.323583  8748 net.cpp:156] Memory required for data: 475570188
I1023 19:31:58.323585  8748 layer_factory.hpp:77] Creating layer fc2_right_confidence
I1023 19:31:58.323609  8748 net.cpp:91] Creating Layer fc2_right_confidence
I1023 19:31:58.323611  8748 net.cpp:425] fc2_right_confidence <- fc1_right_confidence
I1023 19:31:58.323616  8748 net.cpp:399] fc2_right_confidence -> fc2_right_confidence
I1023 19:31:58.327347  8748 net.cpp:141] Setting up fc2_right_confidence
I1023 19:31:58.327373  8748 net.cpp:148] Top shape: 128 256 1 1 (32768)
I1023 19:31:58.327375  8748 net.cpp:156] Memory required for data: 475701260
I1023 19:31:58.327379  8748 layer_factory.hpp:77] Creating layer relu_fc2_right_confidence
I1023 19:31:58.327384  8748 net.cpp:91] Creating Layer relu_fc2_right_confidence
I1023 19:31:58.327386  8748 net.cpp:425] relu_fc2_right_confidence <- fc2_right_confidence
I1023 19:31:58.327390  8748 net.cpp:386] relu_fc2_right_confidence -> fc2_right_confidence (in-place)
I1023 19:31:58.327395  8748 net.cpp:141] Setting up relu_fc2_right_confidence
I1023 19:31:58.327417  8748 net.cpp:148] Top shape: 128 256 1 1 (32768)
I1023 19:31:58.327419  8748 net.cpp:156] Memory required for data: 475832332
I1023 19:31:58.327420  8748 layer_factory.hpp:77] Creating layer drop2_right_confidence
I1023 19:31:58.327436  8748 net.cpp:91] Creating Layer drop2_right_confidence
I1023 19:31:58.327440  8748 net.cpp:425] drop2_right_confidence <- fc2_right_confidence
I1023 19:31:58.327442  8748 net.cpp:386] drop2_right_confidence -> fc2_right_confidence (in-place)
I1023 19:31:58.327489  8748 net.cpp:141] Setting up drop2_right_confidence
I1023 19:31:58.327493  8748 net.cpp:148] Top shape: 128 256 1 1 (32768)
I1023 19:31:58.327512  8748 net.cpp:156] Memory required for data: 475963404
I1023 19:31:58.327513  8748 layer_factory.hpp:77] Creating layer fc3_right_confidence
I1023 19:31:58.327519  8748 net.cpp:91] Creating Layer fc3_right_confidence
I1023 19:31:58.327522  8748 net.cpp:425] fc3_right_confidence <- fc2_right_confidence
I1023 19:31:58.327527  8748 net.cpp:399] fc3_right_confidence -> fc3_right_confidence
I1023 19:31:58.327754  8748 net.cpp:141] Setting up fc3_right_confidence
I1023 19:31:58.327759  8748 net.cpp:148] Top shape: 128 2 1 1 (256)
I1023 19:31:58.327780  8748 net.cpp:156] Memory required for data: 475964428
I1023 19:31:58.327782  8748 layer_factory.hpp:77] Creating layer loss_right_confidence
I1023 19:31:58.327786  8748 net.cpp:91] Creating Layer loss_right_confidence
I1023 19:31:58.327788  8748 net.cpp:425] loss_right_confidence <- fc3_right_confidence
I1023 19:31:58.327818  8748 net.cpp:425] loss_right_confidence <- visibility_right
…
